checkpoints/long_term_forecast_ETTh1_96_96_LSTM_ETTh1_ftM_sl96_ll48_pl96_dm16_nh8_el2_dl1_df32_fc3_ebtimeF_dtTrue_Exp_0/checkpoint.pth (torch, 18795 bytes, 10 tensors)

lstm.weight_ih_l0 f4 [64, 7]
-0.16749674 -0.07004099 0.14050826 0.029503731 0.03086946 -0.20752889 -0.29894713 0.14014626
-0.09621459 -0.29432797 0.13588506 -0.19711654 0.24788672 -0.16689071 0.14626095 -0.04800005
0.026353477 -0.074664615 0.16261163 0.1144317 0.2041794 -0.19802386 0.19133458 -0.098909
-0.10956077 -0.3053022 0.13758714 -0.26881248 -0.22997342 -0.06412177 0.016365997 0.09308429
0.22795233 0.09957427 0.16688694 0.07851929 -0.2756631 -0.29595003 -0.27077407 -0.22442801
0.07557562 0.1751506 0.11934185 -0.24903572 0.14807539 0.07270515 0.28030005 -0.17966202
-0.058465105 -0.09114038 0.3238332 0.1445308 0.12867686 0.1046288 0.20506696 -0.12712212
0.045202274 -0.15783603 0.15729727 0.108898744 -0.13841383 -0.0026431028 0.20392178 0.0990223
0.16477527 -0.2601389 -0.15637696 -0.047799636 -0.17297935 -0.28837225 -0.22620358 0.027181003
-0.25087908 -0.2031645 -0.2078378 -0.16200528 0.13749892 0.026366169 -0.162258 0.29781958
-0.21678351 -0.16916874 -0.15672879 -0.24925204 -0.123201184 0.051911518 0.0013238655 -0.03287209
0.074750535 0.28274974 0.10954961 -0.0902195 -0.23966801 -0.24711496 0.116895154 0.14013149
-0.18167546 0.08284048 0.056307916 -0.17063563 0.18616258 -0.04032882 -0.1652407 0.26490778
0.10538363 -0.06439856 0.10272838 0.24067882 0.28563696 0.14882927 0.10154675 0.055164207
0.12685093 -0.24531688 0.09411141 -0.29620075 0.095478944 -0.22802036 -0.26440018 0.16210964
-0.12515841 -0.19923894 -0.24244314 0.061002217 -0.23344433 0.14028637 0.03616103 0.24518904
-0.14924552 -0.24833569 0.049978785 0.27035588 -0.05922376 -0.32895315 0.12026529 0.08057243
0.14582796 0.05889069 -0.033744738 -0.28282684 -0.23983394 -0.18624109 -0.2259181 -0.2587271
0.124349676 0.16095105 -0.23240146 -0.0027534876 0.2604853 0.13503817 -0.03445189 -0.0612754
0.13794813 -0.07670388 -0.2362857 -0.05799712 0.11336339 -0.079604514 -0.20907013 -0.10497442
-0.09804962 -0.07411928 0.08367351 0.23848684 0.32132024 0.04969636 0.19086371 0.17373468
0.01923981 -0.103765756 0.017853247 0.20479871 0.13277426 -0.069005705 0.06460435 0.040575914
-0.120932996 0.1522931 -0.24028029 -0.059461024 0.09237111 0.10089443 -0.0046552955 -0.060686026
0.19360454 -0.24518031 -0.20226753 -0.22042905 0.15171528 0.1060708 -0.22028448 0.12581974
-0.24641141 0.14285849 0.14510053 0.054227978 0.06226189 -0.033970173 0.3342861 0.066472225
0.14680386 -0.087939374 0.2975613 -0.08538431 0.13019755 -0.22710133 -0.23252922 0.011565111
0.18688725 -0.19590802 0.0903717 -0.036332898 -0.29703942 -0.21725331 -0.096883014 0.043460354
0.03659177 0.3181875 0.30972913 -0.11246338 0.22412029 -0.0004557082 -0.0022702608 0.31660405
0.030628478 -0.17150964 0.2187042 -0.056399513 0.024982877 -0.028229464 0.15369868 0.29587555
0.18401521 0.12147813 0.17675494 -0.07125925 0.08487443 0.28820172 0.13562453 -0.139188
-0.17783645 0.1677702 0.26990214 0.2282857 0.26029918 0.15022828 -0.16684335 -0.276069
-0.028226407 0.06492269 -0.10856626 -0.21038228 -0.33149198 -0.049693827 -0.05356057 -0.22012076
00000000: 4484 2bbe a771 8fbd 66e1 0f3e cfb1 f13c
00000010: f3e1 fc3c 7482 54be 990f 99be 8082 0f3e
00000020: 280c c5bd 28b2 96be 7425 0b3e ebd8 49be
00000030: 04d6 7d3e 66e5 2abe 6ec5 153e b39b 44bd
00000040: 3fe3 d73c c3e9 98bd aa83 263e 2b5b ea3d
00000050: 6814 513e c4c6 4abe 36ed 433e cd90 cabd
00000060: 6661 e0bd 9250 9cbe a5e3 0c3e caa1 89be
00000070: 277e 6bbe 4652 83bd fc11 863c faa2 be3d
00000080: 566c 693e 98ed cb3d 69e4 2a3e b9ce a03d
00000090: b723 8dbe c386 97be e6a2 8abe 75d0 65be
000000a0: 64c7 9a3d ae5a 333e 8069 f43d 3803 7fbe
000000b0: 13a1 173e 70e6 943d 7d83 8f3e 52f9 37be
000000c0: 1b79 6fbd cfa7 babd 77cd a53e e2ff 133e
000000d0: dec3 033e a047 d63d 13fd 513e 4d2c 02be
000000e0: 0526 393d c59f 21be 8912 213e 4e06 df3d
000000f0: 5bbc 0dbe e837 2dbb dfd0 503e 34cc ca3d
00000100: d9ba 283e ed30 85be 4821 20be 8dc9 43bd
00000110: 8021 31be 87a5 93be e9a1 67be b2aa de3c
00000120: 3973 80be 5b0a 50be 6fd3 54be b6e4 25be
00000130: 84cc 0c3e ddfd d73c f626 26be cf7b 983e
00000140: 7ffc 5dbe 923a 2dbe 837d 20be ed3b 7fbe
00000150: e750 fcbd 2ca1 543d 8e85 ad3a e2a4 06bd
00000160: cf16 993d 93c4 903e 8c5b e03d 00c5 b8bd
00000170: 886b 75be b40b 7dbe ba66 ef3d a17e 0f3e
00000180: 2209 3abe 45a8 a93d 21a3 663d 1bbb 2ebe
00000190: 67a1 3e3e d52f 25bd dc34 29be fea1 873e
000001a0: 5fd3 d73d 64e3 83bd 4263 d23d 8274 763e
000001b0: 023f 923e b366 183e bef7 cf3d ddf3 613d
000001c0: 36e5 013e 5934 7bbe 7cbd c03d a0a7 97be
000001d0: 778a c33d 2b7e 69be 765f 87be 1200 263e
000001e0: 8729 00be 4b05 4cbe 0443 78be 76dd 793d
000001f0: 080c 6fbe 3ba7 0f3e 971d 143d d612 7b3e
00000200: d1d3 18be b64b 7ebe 8eb6 4c3d 166c 8a3e
00000210: 9d94 72bd 8c6c a8be a64d f63d 2803 a53d
00000220: ed53 153e 5d37 713d ec37 0abd aece 90be
00000230: 0797 75be fcb5 3ebe 1357 67be e177 84be
00000240: 0bab fe3d 5ad0 243e a6fa 6dbe db73 34bb
00000250: 545e 853e 7247 0a3e 6d1d 0dbd eafb 7abd
00000260: 4642 0d3e ed16 9dbd e1f4 71be 638e 6dbd
00000270: 112b e83d b107 a3bd 7b16 56be d4fc d6bd
00000280: 3dce c8bd d9cb 97bd 045d ab3d e535 743e
00000290: 1684 a43e 698e 4b3d c771 433e 81e7 313e
000002a0: ce9c 9d3c 2483 d4bd f940 923c c1b6 513e
000002b0: faf5 073e dd52 8dbd 494f 843d ee32 263d
000002c0: b8ab f7bd b9f2 1b3e 090c 76be 678d 73bd
000002d0: 112d bd3d bda1 ce3d 738b 98bb e991 78bd
000002e0: 4540 463e 8c10 7bbe 381f 4fbe 27b8 61be
000002f0: 405b 1b3e a63b d93d 4192 61be e4d6 003e
00000300: 4653 7cbe 7f49 123e 3c95 143e 281e 5e3d
00000310: 5306 7f3d 4f24 0bbd 8c27 ab3e 9722 883d
00000320: c053 163e 8f19 b4bd f459 983e f8dd aebd
00000330: 8252 053e 408d 68be 241c 6ebe 977b 3d3c
00000340: 5f5f 3f3e 1d9c 48be cc14 b93d ced1 14bd
00000350: 8d15 98be a777 5ebe 9a6a c6bd 7c03 323d
00000360: 40e1 153d 79e9 a23e d194 9e3e 3353 e6bd
00000370: ca7f 653e 1fec eeb9 a8c8 14bb ed19 a23e
00000380: 93e8 fa3c 39a0 2fbe fef3 5f3e 2d03 67bd
00000390: e4a8 cc3c 7a41 e7bc 3063 1d3e 007d 973e
000003a0: 7c6e 3c3e 87c9 f83d 3fff 343e 5ff0 91bd
000003b0: a5d2 ad3d 2d8f 933e 28e1 0a3e 4d87 0ebe
000003c0: c21a 36be f4cb 2b3e 9d30 8a3e bac3 693e
000003d0: ef45 853e 71d5 193e fcd8 2abe ea58 8dbe
000003e0: 113b e7bc 30f6 843d fd57 debd 746e 57be
000003f0: 51b9 a9be c18b 4bbd 5462 5bbd 5667 61be

lstm.weight_hh_l0 f4 [64, 16]
-0.10165046 0.103951305 0.2264873 0.21776049 -0.12245393 0.16745779 0.049504604 -0.15412843
0.25595316 0.1500999 -0.20254907 -0.11313724 0.22907354 0.18495919 -0.13998166 -0.16289434
0.04981256 -0.221281 0.052217625 0.24640407 -0.06690172 0.24497232 -0.036904953 0.027304208
0.36061385 -0.1967709 0.0616949 0.1972975 0.29672906 0.26677167 -0.11557388 -0.09274477
0.1021692 -0.09520903 0.13818744 0.11678017 0.18546294 0.09805045 0.19559066 0.22097704
0.24899611 0.013507251 0.14614683 0.2999357 -0.042909514 -0.03217654 -0.11476866 -0.13927111
0.2607784 0.13752933 0.2516312 0.32340533 -0.20386247 -0.06482067 0.092850626 -0.073082976
-0.076399945 -0.045809016 0.04140459 -0.08366161 0.30537534 0.058469176 0.060866397 0.16022705
0.0050619054 -0.049724936 0.22153342 0.19219236 0.23589656 -0.18156591 -0.074856535 0.17739098
0.23553282 0.13891004 -0.018068213 0.30200788 0.20978418 0.2782323 0.07006646 0.035606556
-0.14406785 0.15727863 0.10984296 0.11736555 0.14993401 0.026929492 0.15277688 -0.096926324
-0.1487397 -0.26732746 -0.060822934 0.1081467 0.11408216 -0.04831183 -0.160129 -0.108277895
-0.10553981 0.12778701 0.017145643 0.14195086 0.14679226 0.19634329 0.07979026 0.22227558
0.066784434 -0.27795368 -0.25312805 0.07345425 0.18684341 -0.121634595 0.027754009 0.23337738
0.2946781 -0.05049916 -0.009307054 0.13674021 -0.11338408 0.011696277 -0.23042259 0.15403679
-0.03708543 0.051133595 -0.011748218 0.03816685 0.26739722 -0.14405559 0.27374768 -0.018080369
0.065784834 0.14169936 0.22130002 -0.19995312 0.032137126 0.05217942 -0.16229326 -0.13629137
0.17926264 -0.19677001 -0.19590785 -0.2472663 0.01309769 0.19163905 0.23416942 0.20259552
0.022143232 -0.060286216 -0.09219724 0.14353882 -0.12503317 0.20246628 -0.19163366 0.3462111
-0.14277948 -0.13810843 -0.25240818 0.19991276 -0.023364006 -0.13670133 -0.04534693 0.2974209
0.30102727 -0.22228485 0.10400705 -0.033181768 0.25561315 -0.24372262 0.058984134 0.18028189
-0.15472703 -0.05014307 -0.13526969 -0.097544916 -0.08616849 0.010596978 -0.10439509 0.19626811
-0.09613119 -0.03460469 0.013271348 0.025417013 0.27557608 -0.13143398 -0.2128824 -0.11349708
0.29108554 -0.044127747 -0.16381845 -0.024687821 -0.072562814 -0.072285466 0.13637875 -0.011911499
0.36839944 -0.14916348 0.16095118 0.25095695 0.14183788 -0.1539107 -0.10467881 -0.050741863
0.002166098 -0.12696967 -0.28238124 0.23512782 0.25748056 0.20223273 0.3455381 0.0195725
0.039035708 -0.15387334 0.2200652 0.01321268 0.25247297 0.020813271 -0.06662211 -0.1596918
-0.16943924 0.030611241 -0.17490944 0.107185096 -0.008014372 -0.08996499 0.18327305 -0.103144504
0.091577016 -0.16460928 0.27420324 -0.12497863 0.056330707 0.18945017 -0.16320452 0.1508242
-0.15907948 0.17326741 0.15834177 -0.108747736 0.0029449258 0.188927 0.24033639 -0.12185424
0.22769816 -0.10663211 -0.05108566 -0.070569776 0.13765964 0.15602502 -0.2009214 0.33025607
0.1699999 -0.13361783 -0.2624224 0.081210904 0.10444964 0.0516714 -0.10054903 0.20352572
00000000: 1e2e d0bd 6ce4 d43d 49ec 673e 9bfc 5e3e
00000010: 20c9 fabd 0e7a 2b3e 57c5 4a3d d8d3 1dbe
00000020: 4b0c 833e cab3 193e 0669 4fbe 7fb4 e7bd
00000030: 4192 6a3e f165 3d3e 5a57 0fbe c6cd 26be
00000040: 4108 4c3d 7d97 62be 26e2 553d 5951 7c3e
00000050: c503 89bd 06da 7a3e a629 17bd 13ad df3c
00000060: 61a2 b83e 507e 49be cbb3 7c3d 5b08 4a3e
00000070: dfec 973e 4c96 883e 00b2 ecbd f8f0 bdbd
00000080: 163e d13d f4fc c2bd 0281 0d3e 712a ef3d
00000090: ffe9 3d3e adce c83d eb48 483e ce47 623e
000000a0: d6f8 7e3e 844d 5d3c 84a7 153e 2c91 993e
000000b0: e3c1 2fbd 8ccb 03bd d50b ebbd 169d 0ebe
000000c0: bf84 853e 7dd4 0c3e ced5 803e 6295 a53e
000000d0: 53c1 50be b3c0 84bd 7828 be3d 87ac 95bd
000000e0: 9377 9cbd 3ca2 3bbd dc97 293d c756 abbd
000000f0: 285a 9c3e 607d 6f3d 0b4f 793d 8f12 243e
00000100: 57de a53b 60ac 4bbd a8d9 623e 13ce 443e
00000110: de8e 713e 6aec 39be 624e 99bd fba5 353e
00000120: 842f 713e 6f3e 0e3e ca03 94bc c7a0 9a3e
00000130: aad1 563e 7774 8e3e 017f 8f3d 2ed8 113d
00000140: 8686 13be a60d 213e 59f5 e03d 595d f03d
00000150: 4d88 193e 3d9b dc3c 8b71 1c3e 4f81 c6bd
00000160: 384f 18be 25df 88be 7821 79bd 047c dd3d
00000170: e8a3 e93d a0e2 45bd dbf8 23be cdc0 ddbd
00000180: 4225 d8bd 99da 023e 0575 8c3c 915b 113e
00000190: b650 163e 370e 493e 1369 a33d 369c 633e
000001a0: 47c6 883d f24f 8ebe 009a 81be 2f6f 963d
000001b0: e153 3f3e 8f1b f9bd 605c e33c 7bfa 6e3e
000001c0: 0ce0 963e 35d8 4ebd 9d7c 18bc a005 0c3e
000001d0: ea35 e8bd bea1 3f3c e6f3 6bbe d2bb 1d3e
000001e0: e4e6 17bd 7671 513d 997b 40bc d854 1c3d
000001f0: 4ae8 883e 4f83 13be a828 8c3e 481d 94bc
00000200: 33ba 863d a319 113e 799c 623e 83c0 4cbe
00000210: 38a2 033d 16ba 553d 3430 26be f78f 0bbe
00000220: a090 373e 147e 49be 119c 48be 6033 7dbe
00000230: b297 563c 073d 443e 1cca 6f3e 3375 4f3e
00000240: b965 b53c aeee 76bd e8d1 bcbd d7fb 123e
00000250: b208 00be 5253 4f3e 9d3b 44be 9542 b13e
00000260: c934 12be 4c6c 0dbe a53b 81be eeb5 4c3e
00000270: df65 bfbc 6ffb 0bbe b4bd 39bd 8d47 983e
00000280: 3f20 9a3e a49e 63be a601 d53d 9be9 07bd
00000290: badf 823e 6c92 79be 5999 713d d19b 383e
000002a0: c370 1ebe d262 4dbd 2384 0abe a1c5 c7bd
000002b0: 1b79 b0bd f29e 2d3c 18cd d5bd 82fa 483e
000002c0: 6ee0 c4bd a6bd 0dbd 1170 593c 5737 d03c
000002d0: 4f18 8d3e a196 06be d8fd 59be 2871 e8bd
000002e0: 2a09 953e 4cbf 34bd 06c0 27be 1d3e cabc
000002f0: d09b 94bd 670a 94bd dfa6 0b3e 7328 43bc
00000300: da9e bc3e 50be 18be 63d0 243e 6e7d 803e
00000310: f33d 113e c49a 1dbe d861 d6bd b3d6 4fbd
00000320: 18f5 0d3b 5604 02be 4694 90be 59c5 703e
00000330: 7ed4 833e 1916 4f3e 5fea b03e 8256 a03c
00000340: e8e3 1f3d f990 1dbe c658 613e ff79 583c
00000350: 2344 813e 9880 aa3c 2c71 88bd 3f86 23be
00000360: 7b81 2dbe 6dc4 fa3c 761b 33be dc83 db3d
00000370: b64e 03bc 913f b8bd eeab 3b3e 6d3d d3bd
00000380: bb8c bb3d 568f 28be 5e64 8c3e ccf4 ffbd
00000390: 07bb 663d 3aff 413e 161f 27be a971 1a3e
000003a0: bbe5 22be 036d 313e 5824 223e 22b7 debd
000003b0: a8ff 403b 1476 413e be1a 763e b78e f9bd
000003c0: b529 693e f061 dabd 323f 51bd e386 90bd
000003d0: a6f6 0c3e 06c5 1f3e 57be 4dbe 5317 a93e
000003e0: 7414 2e3e 1dd3 08be 3b5c 86be e751 a63d
000003f0: b1e9 d53d 64a5 533d a6ec cdbd 0c69 503e

lstm.bias_ih_l0 f4 [64]
0.24570462 0.046809398 -0.038049288 0.1285663 0.3234807 -0.07784178 -0.057276987 0.16960433
0.122110404 0.14178497 -0.16464072 -0.1128926 0.10513154 0.114709735 0.07223668 -0.11822746
0.14050439 -0.065231636 0.06251359 -0.098926954 -0.16388561 -0.06008875 -0.057748903 0.1173205
-0.050626256 0.101265006 0.1996773 0.084947206 0.053758662 0.19482352 0.19944389 0.2683859
-0.053923286 0.09560981 0.06357392 0.18407488 0.06393952 -0.047780097 -0.04237036 0.23923229
-0.12217429 -0.30484286 -0.24479091 0.052859567 -0.036365695 0.1390839 0.13050571 0.20718844
0.10179834 0.13439243 -0.079619884 0.116872005 0.22469857 0.18038791 -0.058056645 0.18146989
-0.25031915 0.28656483 0.1909325 0.06932237 -0.03851309 0.22677138 -0.18189283 0.2927175
00000000: fe99 7b3e 36bb 3f3d 92d9 1bbd e2a6 033e
00000010: 439f a53e 836b 9fbd 469b 6abd c2ac 2d3e
00000020: 0515 fa3d 1430 113e 9497 28be 3c34 e7bd
00000030: 344f d73d f0ec ea3d d3f0 933d 3d21 f2bd
00000040: 62e0 0f3e 2a98 85bd 2007 803d 379a cabd
00000050: a1d1 27be 9f1f 76bd 1d8a 6cbd bb45 f03d
00000060: 7a5d 4fbd 0764 cf3d 3578 4c3e cdf8 ad3d
00000070: 0b32 5c3d d17f 473e 053b 4c3e e069 893e
00000080: aade 5cbd 13cf c33d 0b33 823d 207e 3c3e
00000090: b9f2 823d 10b5 43bd 8b8c 2dbd 4ff9 743e
000000a0: 8436 fabd 5d14 9cbe 78aa 7abe 4683 583d
000000b0: 32f4 14bd 036c 0e3e 4aa3 053e 3529 543e
000000c0: a67b d03d 2b9e 093e c00f a3bd 975a ef3d
000000d0: 6217 663e 9cb7 383e cecc 6dbd 3ed3 393e
000000e0: d529 80be a0b8 923e cf83 433e e3f8 8d3d
000000f0: e7bf 1dbd c236 683e 1d42 3abe 11df 953e

lstm.bias_hh_l0 f4 [64]
-0.0020558275 0.2140715 -0.09755843 0.068355344 0.142751 0.28165466 -0.059545826 -0.10559411
-0.06500645 0.0074231164 -0.07923597 0.027362483 0.0026077111 0.14354065 -0.031747475 0.19219947
0.17724009 0.025098793 -0.15199149 -0.02911844 -0.053633936 -0.052352823 0.17987111 0.26778677
-0.15419886 0.05337582 -0.069680564 0.2221549 -0.1102382 -0.054265678 0.18194763 -0.09862683
0.22928907 -0.2150595 0.22298972 0.14233835 -0.049063023 0.022235041 0.034833092 -0.05794363
0.29178223 0.08405789 -0.26319745 0.14774178 0.2982784 -0.036782112 0.23867707 -0.048286945
-0.16139583 -0.08300443 0.16864166 0.2957515 0.26525083 0.034071673 0.22717062 0.18045059
-0.1867111 0.15969226 0.05351682 0.2311824 0.35700104 0.00039314726 0.13343343 -0.118587084
00000000: 10bb 06bb 8f35 5b3e b7cc c7bd e3fd 8b3d
00000010: 512d 123e 0a35 903e 53e6 73bd ba41 d8bd
00000020: 1a22 85bd 9d3d f33b 7846 a2bd 4927 e03c
00000030: 22e6 2a3b 52fc 123e a409 02bd f0cf 443e
00000040: 6d7e 353e fc9b cd3c a8a3 1bbe cb89 eebc
00000050: 42af 5bbd ea6f 56bd 2230 383e 591b 893e
00000060: 4ee6 1dbe 9ba0 5a3d afb4 8ebd 937c 633e
00000070: 91c4 e1bd b045 5ebd 7b50 3a3e ddfc c9bd
00000080: c1ca 6a3e 8f38 5cbe 6b57 643e 25c1 113e
00000090: 4ff6 48bd 4326 b63c 25ad 0e3d 4d56 6dbd
000000a0: 7b64 953e 8b26 ac3d d1c1 86be 9f49 173e
000000b0: f2b7 983e d7a8 16bd c367 743e 88c8 45bd
000000c0: f344 25be 3afe a9bd 66b0 2c3e be6c 973e
000000d0: f5ce 873e bd8e 0b3d 6a9f 683e 0ac8 383e
000000e0: 3231 3fbe 5e86 233e 7434 5b3d 14bb 6c3e
000000f0: d7c8 b63e 551f ce39 c6a2 083e c9dd f2bd

lstm.weight_ih_l1 f4 [64, 16]
0.04718951 -0.07703617 0.08999679 -0.06257255 -0.006894542 0.08389711 -0.14078528 0.33486065
0.20888256 -0.1906736 -0.08527122 -0.04311906 0.3353392 -0.13585877 0.31642577 0.0030229895
0.10189884 -0.23095737 -0.0238862 0.17693874 0.08986388 0.099468194 -0.16584262 -0.21298009
-0.18914138 -0.28326246 -0.10920305 0.0773502 -0.094857 -0.005040839 -0.18267345 -0.07585627
0.19159985 -0.042805497 -0.16783297 0.065526254 -0.14662263 -0.07354332 0.0673979 0.027956704
0.23202777 0.123691425 -0.24560076 0.060121957 0.036989667 0.108807966 0.1925901 0.19694464
-0.053536598 0.22594604 0.17386863 0.094114624 0.043674886 0.11086139 -0.09238664 -0.033487894
0.1868766 0.21982877 -0.18798359 -0.06264986 -0.10993467 -0.13896282 0.049040858 -0.057299417
0.014952159 -0.15761392 0.044299185 0.21799456 0.27161795 0.16770822 -0.29923278 0.092506856
0.058141086 0.10506228 -0.08651519 0.100330494 -0.29574654 -0.03616117 -0.09313433 -0.2366372
0.09885657 -0.15601592 0.2372829 0.10111419 -0.12831223 0.0516844 -0.26494163 -0.15423214
-0.032117505 -0.10383956 -0.07297031 -0.14974795 -0.26108193 0.09813411 -0.12175643 -0.21703579
-0.10629601 -0.33728728 0.034571096 0.2611806 -0.032303132 -0.13146333 -0.14172053 0.036513712
-0.1301007 -0.33689925 -0.2758283 0.075996965 -0.14693849 0.15815252 0.024484918 0.28439462
0.18256693 0.015590157 -0.14714816 -0.17826927 -0.14402016 -0.13980825 0.091300376 -0.08132546
-0.009650123 0.13434224 0.23319504 0.15968865 0.115694106 -0.26452774 -0.026183644 -0.26424858
0.199188 0.07124012 0.23713897 0.12435728 0.0044083446 -0.27457562 0.2070634 0.23159263
-0.20961757 -0.10886894 -0.0945201 0.05385821 0.284043 -0.23925807 -0.18685678 0.0042168475
0.012589968 -0.21645518 -0.038946796 0.16803946 0.20290557 -0.048381153 -0.07828897 -0.06487504
-0.21313487 0.15325212 -0.106007844 -0.1416604 0.17609638 -0.103847995 -0.048031904 -0.13793378
-0.11691072 -0.257596 -0.24172916 0.23032704 0.24215543 -0.11983034 0.101807974 0.3134575
-0.09159239 -0.32795057 -0.3131015 0.029723449 0.25578344 -0.09873731 0.3335315 0.27681896
0.18237959 -0.049075585 -0.018077586 0.1862796 -0.116827264 -0.13664193 -0.0444919 -0.044789065
-0.097387284 -0.16175658 0.066440515 0.28060913 0.08204837 0.06328397 -0.041264847 0.27169275
0.08293888 -0.041717827 0.009526763 0.026038071 -0.012596796 0.1377322 0.18938114 0.25060308
0.01490444 0.030625131 0.031256754 -0.19839945 0.24314396 -0.063821204 -0.01245316 0.037258267
0.03411701 -0.025718354 -0.08031898 0.22495742 0.087574854 0.23272192 0.13563135 -0.12928542
-0.08063956 -0.010353798 -0.2088457 -0.088101275 0.2998602 0.13594298 -0.04194805 0.24624023
-0.13715106 0.15254849 0.22659002 0.10026851 -0.13414072 0.15282355 -0.029662764 -0.13954857
0.27272803 0.23933008 0.2217655 0.13987145 0.20313294 0.029956993 -0.10307684 -0.07724378
0.03747 -0.26360667 -0.029334918 0.14974636 -0.0343369 -0.058402773 -0.1402227 0.018787008
0.27592367 -0.24959832 -0.044767536 0.0930454 -0.0072123404 0.062875554 0.28912875 -0.117416695
00000000: ca49 413d 24c5 9dbd 3d50 b83d 0926 80bd
00000010: 9ceb e1bb 3fd2 ab3d 042a 10be db72 ab3e
00000020: 4fe5 553e f13f 43be ada2 aebd 9d9d 30bd
00000030: 94b1 ab3e 901e 0bbe 8f02 a23e 591d 463b
00000040: 57b0 d03d 1780 6cbe feac c3bc 6e2f 353e
00000050: 8e0a b83d fbb5 cb3d a6d2 29be 7417 5abe
00000060: 47ae 41be c707 91be d9a5 dfbd c869 9e3d
00000070: 6344 c2bd 9f2d a5bb c00e 3bbe 885a 9bbd
00000080: c032 443e d154 2fbd 68dc 2bbe a132 863d
00000090: 3e24 16be e19d 96bd e907 8a3d 7505 e53c
000000a0: b098 6d3e ee51 fd3d c47e 7bbe 7142 763d
000000b0: 7a82 173d b6d6 de3d 5736 453e dbab 493e
000000c0: 3149 5bbd 665e 673e 9e0a 323e 2bbf c03d
000000d0: 70e4 323d 4c0b e33d 3535 bdbd 9a2a 09bd
000000e0: 945c 3f3e cb1a 613e c57e 40be 924e 80bd
000000f0: 6e25 e1bd 454c 0ebe 11df 483d cbb2 6abd
00000100: e6f9 743c 8b65 21be 1073 353d f739 5f3e
00000110: 8211 8b3e b4bb 2b3e 0a35 99be 3c74 bd3d
00000120: 5925 6e3d e52a d73d e02e b1bd 137a cd3d
00000130: 176c 97be bc1d 14bd 36bd bebd 0651 72be
00000140: 5075 ca3d a3c2 1fbe 4afa 723e f514 cf3d
00000150: 4864 03be 05b3 533d 6ea6 87be 08ef 1dbe
00000160: a58d 03bd d6a9 d4bd 7571 95bd 8757 19be
00000170: 88ac 85be 89fa c83d 6f5b f9bd a13e 5ebe
00000180: b9b1 d9bd ebb0 acbe 6c9a 0d3d 77b9 853e
00000190: 4a50 04bd 539e 06be 301f 11be 678f 153d
000001a0: 1e39 05be 0f7e acbe 5e39 8dbe 4ca4 9b3d
000001b0: 0b77 16be bcf2 213e 9894 c83c 2c9c 913e
000001c0: d3f2 3a3e dc6d 7f3c 02ae 16be 388c 36be
000001d0: 057a 13be e529 0fbe b1fb ba3d f68d a6bd
000001e0: 8d1b 1ebc 0391 093e aeca 6e3e 6c85 233e
000001f0: 08f1 ec3d 2e70 87be 157f d6bc 974b 87be
00000200: f0f7 4b3e 57e6 913d 8fd4 723e 08af fe3d
00000210: e073 903b 2d95 8cbe 6e08 543e 9e26 6d3e
00000220: fda5 56be aef6 debd c193 c1bd 6d9a 5c3d
00000230: 166e 913e 1100 75be 6257 3fbe 7b2d 8a3b
00000240: 2746 4e3c 6da6 5dbe ad86 1fbd 8912 2c3e
00000250: 7ac6 4f3e 512b 46bd f855 a0bd 34dd 84bd
00000260: 0740 5abe 20ee 1c3e a41a d9bd 6d0f 11be
00000270: 9c52 343e 42ae d4bd 1abd 44bd 833e 0dbe
00000280: e36e efbd 9fe3 83be d987 77be dada 6b3e
00000290: 98f7 773e 9c69 f5bd b380 d03d 807d a03e
000002a0: ca94 bbbd 23e9 a7be d74e a0be 977e f33c
000002b0: 0cf6 823e c936 cabd a4c4 aa3e 37bb 8d3e
000002c0: b7c1 3a3e 7b03 49bd 7217 94bc 14c0 3e3e
000002d0: 2243 efbd ddeb 0bbe 233d 36bd bd74 37bd
000002e0: fc72 c7bd 84a3 25be f711 883d 00ac 8f3e
000002f0: fa08 a83d 079b 813d 5405 29bd 501b 8b3e
00000300: dcdb a93d 50e0 2abd 2416 1c3c cb4d d53c
00000310: cb62 4ebc ab09 0d3e 21ed 413e 0c4f 803e
00000320: c131 743c 8ee1 fa3c 1507 003d 3a29 4bbe
00000330: bbfa 783e b1b4 82bd 5708 4cbc 209c 183d
00000340: 47be 0b3d 4caf d2bc 477e a4bd 3d5b 663e
00000350: 725a b33d a84e 6e3e f2e2 0a3e 6663 04be
00000360: 5b26 a5bd faa2 29bc a6db 55be 716e b4bd
00000370: 4787 993e a334 0b3e b8d1 2bbd 6626 7c3e
00000380: 5471 0cbe ac35 1c3e 3707 683e 9459 cd3d
00000390: 2f5c 09be c77d 1c3e 53ff f2bc d2e5 0ebe
000003a0: 02a3 8b3e f212 753e 7f16 633e 763a 0f3e
000003b0: 1502 503e 5e68 f53c f319 d3bd fd31 9ebd
000003c0: 257a 193d 74f7 86be c84f f0bc 1c57 193e
000003d0: d9a4 0cbd bf37 6fbd 8a96 0fbe 36e7 993c
000003e0: de45 8d3e b496 7fbe 2a5e 37bd 968e be3d
000003f0: 7f55 ecbb e6c4 803d af08 943e 2a78 f0bd

lstm.weight_hh_l1 f4 [64, 16]
0.005507162 0.086851984 0.23558992 -0.33817112 -0.23160942 -0.27156535 -0.14895737 -0.33123103
0.13218926 -0.038691062 0.09766167 -0.077028796 -0.34710222 -0.30753845 -0.34309465 -0.3133433
0.0040282407 0.14920367 -0.20180987 -0.16535181 0.22171223 -0.19871101 0.114910014 -0.038429096
0.13310912 0.17249292 0.26472077 0.18352391 -0.12227649 -0.19089894 -0.15198685 0.04404338
-0.0638157 0.18711732 -0.11337117 -0.036561474 0.08194816 0.07468165 0.2173119 -0.21423024
0.20340416 -0.18816407 0.043007974 -0.13424213 0.190806 0.17586105 -0.10440444 -0.119768865
-0.1764703 -0.10805673 0.1762023 -0.13449895 -0.34243384 -0.05619746 -0.116801284 -0.076965
0.27407312 -0.0697001 0.25790137 0.30022135 0.098037526 -0.011587916 -0.1782576 0.19888528
-0.2061541 -0.080099136 -0.15469879 -0.24399786 -0.020962832 0.02330495 -0.15665026 -0.052576236
0.118668705 -0.12542683 0.23358336 0.15679237 0.0501184 -0.088584 0.12243756 0.20212875
-0.17187914 -0.16221893 0.028656583 -0.11353125 -0.2501074 0.1055238 -0.09510249 0.105989896
-0.04781142 -0.26007462 0.058198463 0.04158918 -0.0062677134 -0.07321606 -0.27534863 -0.15113632
0.19304588 0.09957147 0.0035297119 0.14377214 -0.1405712 -0.06943015 0.1724038 -0.038355526
0.023936741 -0.0627296 0.04415465 0.07880375 0.06699903 0.052525595 0.08246977 -0.24856423
0.044490878 -0.112685114 -0.06303044 0.07443073 0.22845645 0.007600513 0.2097177 -0.036377016
0.26491484 0.2084661 -0.115120865 0.0021134051 -0.11773294 -0.24908656 0.20485637 0.21668956
-0.08632458 0.15133317 0.06777336 -0.06880719 -0.2359431 0.17504258 -0.15574808 0.046718244
0.32996634 -0.13406983 -0.05087747 0.16188636 -0.024202151 -0.06822513 -0.035199553 0.023469636
0.033531833 0.25448984 -0.085834086 -0.26112917 -0.223661 -0.11591101 0.03642987 -0.031386387
0.021771275 0.019389445 0.09371315 -0.14608254 -0.056201115 -0.2881056 -0.2753664 -0.056648932
0.21007335 0.22784555 0.049928084 -0.097417705 -0.009252373 -0.08761694 0.1876559 -0.15684491
0.3299789 -0.033795122 0.20356722 -0.009157001 -0.2744911 -0.33623254 -0.32761866 -0.1638795
0.10752628 -0.08706691 0.14326407 -0.25543287 -0.021332027 -0.0640445 0.1485935 0.080822
-0.08848061 -0.3214042 0.07168669 -0.08667263 -0.11612383 -0.057268187 -0.27156195 0.018999314
-0.08827934 0.15057798 0.07108811 -0.22363797 -0.20254129 -0.29214495 0.14176461 -0.1728328
-0.064597666 -0.27482793 -0.05620911 0.19403821 0.025148554 -0.15262625 -0.008605179 0.11220402
0.13162576 0.21043845 0.15721 -0.18482713 -0.057090435 0.14247859 -0.1005832 -0.048699588
0.10155569 -0.2979063 0.30078503 0.24447682 0.039193906 0.083055295 0.170354 0.09706948
0.08379578 -0.024459546 0.059390407 -0.04122331 0.17388839 -0.20433351 -0.17964834 0.20598772
0.10330005 0.06876081 -0.12603997 0.11377404 0.02378338 0.15581407 0.093293846 -0.043863256
-0.049450547 -0.18914503 -0.12459221 0.12466274 0.18260518 -0.3036747 -0.19817996 0.19316906
0.18383823 0.040108077 0.32319534 0.24180607 0.058917224 -0.030777728 -0.034642957 0.08052665
00000000: 6c75 b43b 74df b13d 7c3e 713e c424 adbe
00000010: 052b 6dbe 9d0a 8bbe 4888 18be 1d97 a9be
00000020: 9f5c 073e 857a 1ebd d702 c83d 46c1 9dbd
00000030: 62b7 b1be ae75 9dbe 1aaa afbe 886e a0be
00000040: 55ff 833b d9c8 183e 3fa7 4ebe fc51 29be
00000050: 8808 633e e67a 4bbe f155 eb3d d467 1dbd
00000060: c24d 083e fca1 303e 7b89 873e b1ed 3b3e
00000070: 196c fabd 037b 43be 71a2 1bbe d566 343d
00000080: ceb1 82bd af9b 3f3e 252f e8bd 7cc1 15bd
00000090: 70d4 a73d b1f2 983d 0387 5e3e 2c5f 5bbe
000000a0: 2e49 503e 15ae 40be 2129 303d c576 09be
000000b0: a662 433e eb14 343e ffd1 d5bd 6149 f5bd
000000c0: a1b4 34be d94c ddbd 606e 343e 18ba 09be
000000d0: 7d53 afbe 4f2f 66bd 8335 efbd d39f 9dbd
000000e0: 5053 8c3e edbe 8ebd a60b 843e 9db6 993e
000000f0: e6c7 c83d 3edb 3dbc 2989 36be 95a8 4b3e
00000100: 0f1a 53be 040b a4bd 5c69 1ebe 93da 79be
00000110: 3fba abbc 06ea be3c ed68 20be 2e5a 57bd
00000120: 9408 f33d e46f 00be 7a30 6f3e 2e8e 203e
00000130: f448 4d3d 876b b5bd 8bc0 fa3d d7fa 4e3e
00000140: 1601 30be b81c 26be 36c1 ea3c 1283 e8bd
00000150: 140e 80be dd1c d83d 18c5 c2bd 3b11 d93d
00000160: e8d5 43bd 8028 85be 8361 6e3d 6a59 2a3d
00000170: 6461 cdbb 4df2 95bd 7ffa 8cbe 7bc3 1abe
00000180: d2ad 453e 20ec cb3d bd52 673b 0139 133e
00000190: e6f1 0fbe 6531 8ebd 9f8a 303e af1a 1dbd
000001a0: fc16 c43c 6078 80bd 82db 343d dc63 a13d
000001b0: ca36 893d 1425 573d e9e5 a83d 9f87 7ebe
000001c0: 113c 363d 74c7 e6bd 1a16 81bd 236f 983d
000001d0: 7df0 693e b90d f93b 3dc0 563e 1100 15bd
000001e0: eba2 873e 2378 553e 7dc4 ebbd 0e81 0a3b
000001f0: f81d f1bd 8c10 7fbe dec5 513e dee3 5d3e
00000200: f1ca b0bd 15f7 1a3e c2cc 8a3d c9ea 8cbd
00000210: 119b 71be 5d3e 333e 6d7c 1fbe a15b 3f3d
00000220: 59f1 a83e 9a49 09be e564 50bd 8ac5 253e
00000230: 9743 c6bc 9eb9 8bbd 682d 10bd 6543 c03c
00000240: ad58 093d 7e4c 823e c8c9 afbd b9b2 85be
00000250: 6407 65be c062 edbd 7d37 153d 038f 00bd
00000260: ac59 b23c 9dd6 9e3c aeec bf3d a996 15be
00000270: 2433 66bd 9482 93be d3fc 8cbe b608 68bd
00000280: 781d 573e 5850 693e 6481 4c3d ef82 c7bd
00000290: 4497 17bc 8370 b3bd de28 403e f49b 20be
000002a0: fff2 a83e c16c 0abd ed73 503e 3f07 16bc
000002b0: 198a 8cbe ac26 acbe a2bd a7be 07d0 27be
000002c0: bd36 dc3d 2350 b2bd d1b3 123e 19c8 82be
000002d0: 81c0 aebc c329 83bd e528 183e 0186 a53d
000002e0: 5235 b5bd 178f a4be 79d0 923d 6b81 b1bd
000002f0: 55d2 edbd 0c92 6abd 2b0a 8bbe 73a4 9b3c
00000300: cccb b4bd 1d31 1a3e a596 913d 5a01 65be
00000310: fc66 4fbe 0694 95be be2a 113e 15fb 30be
00000320: c84b 84bd 3fb6 8cbe 863b 66bd f4b1 463e
00000330: 5704 ce3c 0e4a 1cbe bdfc 0cbc 39cb e53d
00000340: e7c8 063e 2d7d 573e a9fb 203e 5343 3dbe
00000350: a9d7 69bd e8e5 113e 91fe cdbd 3879 47bd
00000360: 6efc cf3d 2d87 98be 7f00 9a3e 2258 7a3e
00000370: ca89 203d e518 aa3d 4771 2e3e 5dcc c63d
00000380: 1f9d ab3d 635f c8bc 5b43 733d c6d9 28bd
00000390: cc0f 323e ce3c 51be bcf5 37be 72ee 523e
000003a0: fa8e d33d 78d2 8c3d 9f10 01be 5d02 e93d
000003b0: 5dd5 c23c b98d 1f3e d810 bf3d f5a9 33bd
000003c0: a88c 4abd 3caf 41be 332a ffbd 2e4f ff3d
000003d0: dafc 3a3e 407b 9bbe b0ef 4abe 1cce 453e
000003e0: 1740 3c3e 5e48 243d dc79 a53e 039c 773e
000003f0: 3053 713d 9321 fcbc c6e5 0dbd 28eb a43d

lstm.bias_ih_l1 f4 [64]
-0.11821362 -0.0640883 0.059012488 -0.048630476 0.11206788 -0.14948498 0.0842822 0.2585241
-0.18268873 0.31029403 0.0034040792 0.21111985 -0.11212801 0.14972916 -0.1380109 0.20873089
-0.19389196 -0.097148985 -0.21193995 -0.11541145 0.13733709 -0.024361502 0.12477442 0.18355577
-0.19202095 0.037936065 -0.14753252 -0.13039783 0.14313565 -0.01391236 0.0049460586 -0.23088884
0.04070874 0.23115903 0.260319 -0.16861251 -0.015536134 -0.19050474 -0.06079238 -0.14755459
0.013962301 0.035855044 0.22808959 -0.0034712313 -0.1263028 0.09516309 -0.20478255 -0.08312835
0.26066318 -0.20913602 0.046210837 0.29554656 0.1068333 0.12970306 0.11296522 -0.020279953
0.10387874 0.07028076 0.012368818 0.09874362 0.20244347 -0.06356027 0.10538298 0.2463905
00000000: fb19 f2bd ba40 83bd 14b7 713d c030 47bd
00000010: d883 e53d 9712 19be 259c ac3d 455d 843e
00000020: c112 3bbe dcde 9e3e f916 5f3b cd2f 583e
00000030: 5fa3 e5bd 9a52 193e bb52 0dbe 8dbd 553e
00000040: 9d8b 46be 0cf6 c6bd c906 59be d75c ecbd
00000050: 18a2 0c3e c691 c7bc bb89 ff3d 0bf6 3b3e
00000060: 24a1 44be d962 1b3d c412 17be 0287 05be
00000070: 2792 123e abf0 63bc 8c12 a23b 206e 6cbe
00000080: 35be 263d f4b4 6c3e 8848 853e c2a8 2cbe
00000090: 458b 7ebc ad13 43be 6e01 79bd 8d18 17be
000000a0: 23c2 643c bddc 123d 5190 693e 997d 63bb
000000b0: 8555 01be dee4 c23d 84b2 51be 323f aabd
000000c0: a575 853e c127 56be 9347 3d3d e151 973e
000000d0: 6bcb da3d e1d0 043e 4f5a e73d 2522 a6bc
000000e0: 60be d43d 5cef 8f3d 95a6 4a3c 183a ca3d
000000f0: 574d 4f3e e32b 82bd 08d3 d73d cb4d 7c3e

lstm.bias_hh_l1 f4 [64]
-0.06438367 -0.019486919 0.14884336 0.14838755 -0.012855681 0.25363514 -0.11191788 -0.01248049
0.23450564 -0.16183983 0.26971582 -0.14504455 0.0033814488 0.022651274 -0.04435844 -0.08901485
0.11412835 0.01786921 -0.0037146604 0.003374009 0.07453383 0.1478236 -0.14363171 0.072453715
-0.034470968 -0.18029624 -0.11618528 -0.09234083 -0.11498323 -0.20441937 -0.068564355 -0.17990912
0.0014436014 0.15898323 0.18762152 -0.07921216 -0.041182112 -0.054161347 0.1821311 -0.20394658
0.0121875135 -0.1621635 -0.16057308 0.16035874 -0.20320262 -0.27102143 -0.02018534 0.1585425
-0.13791858 0.047153004 -0.11285479 0.27233067 0.24130662 0.042810198 -0.10107954 -0.22902781
0.26791045 -0.079321906 0.24472536 0.15683454 0.2633557 -0.14863987 -0.028579522 0.021648325
00000000: 96db 83bd 08a3 9fbc 656a 183e e8f2 173e
00000010: a2a0 52bc 77dc 813e 3435 e5bd f87a 4cbc
00000020: 3f22 703e 57b9 25be 3118 8a3e 8f86 14be
00000030: 4c9b 5d3b 2a8f b93c 32b1 35bd 6b4d b6bd
00000040: 20bc e93d 7362 923c a971 73bb 7a1e 5d3b
00000050: 31a5 983d 125f 173e 3114 13be 9d62 943d
00000060: 6e31 0dbd 949f 38be 8cf2 edbd 301d bdbd
00000070: 547c ebbd 5053 51be 786b 8cbd 193a 38be
00000080: 3a37 bd3a 80cc 223e db1f 403e fc39 a2bd
00000090: 93ae 28bd 4ad8 5dbd 9380 3a3e 5fd7 50be
000000a0: 23ae 473c 300e 26be 456d 24be 1535 243e
000000b0: 5914 50be 52c3 8abe ba5b a5bc f758 223e
000000c0: 873a 0dbe 8223 413d 6a20 e7bd ed6e 8b3e
000000d0: 1519 773e bf59 2f3d ca02 cfbd 4486 6abe
000000e0: 8f2b 893e 8673 a2bd 4999 7a3e 3c99 203e
000000f0: 8fd6 863e 0d35 18be 9a1f eabc d457 b13c

mlp.weight f4 [7, 16]
0.03204305 -0.047834568 -0.11698331 -0.21144098 0.09770408 0.0653293 -0.29352358 -0.21442427
0.003751218 -0.16879797 0.32793248 0.09048769 -0.066727385 -0.21371378 -0.27458107 -0.08128515
0.20723225 -0.21994056 0.20339754 -0.20279393 0.03459647 -0.10983958 -0.21794595 0.22313343
0.29307497 0.06751376 -0.1698921 -0.15079641 -0.2857797 -0.14864682 -0.18364409 -0.0065632346
0.24796367 -0.23906034 0.20593956 -0.18299204 0.027262373 0.040523235 -0.19159013 -0.11293652
0.1431798 -0.27048534 0.34057382 -0.22698069 0.16296467 -0.1400532 -0.12358025 -0.01915667
-0.11514678 0.048372503 -0.11137971 -0.06400355 0.19214706 0.22327304 0.070133075 0.02061958
-0.06656151 0.22852865 0.1819728 -0.17210373 0.06571081 0.107992984 -0.032902896 0.2473096
0.024297934 -0.01624305 -0.20028189 -0.24882174 0.02653626 -0.21555844 -0.03897951 0.22779153
-0.11690828 0.11295453 -0.018129105 -0.2971661 0.13576657 0.13103788 -0.22277558 0.2254936
0.055212963 -0.26769897 0.19185023 0.10752547 -0.17423256 -0.051411543 0.057080463 -0.032102857
-0.08461577 0.17425378 -0.27666065 -0.22646625 -0.053078864 0.09005426 0.06061613 -0.14781718
0.34344918 0.046438415 -0.10936021 0.060162935 0.16093794 0.093567185 -0.29642147 0.17887557
0.014616455 -0.024538478 -0.10137397 -0.3009652 0.04436387 0.15327083 -0.20047036 0.18896692
00000000: 933f 033d 2eee 43bd f294 efbd fc83 58be
00000010: 1419 c83d 5ecb 853d b948 96be 0992 5bbe
00000020: ffd6 753b 60d9 2cbe c4e6 a73e 9c51 b93d
00000030: 5ea8 88bd c9d7 5abe e495 8cbe d478 a6bd
00000040: b134 543e 1938 61be 7247 503e 36a9 4fbe
00000050: 07b5 0d3d 93f3 e0bd 392d 5fbe 177d 643e
00000060: ec0d 963e a744 8a3d 32f8 2dbe 606a 1abe
00000070: b851 92be df36 18be 320d 3cbe 6710 d7bb
00000080: 30ea 7d3e 3ccc 74be d2e1 523e 4462 3bbe
00000090: 5755 df3c b1fb 253d 3430 44be 434b e7bd
000000a0: ba9d 123e 0e7d 8abe b15f ae3e a06d 68be
000000b0: 36e0 263e 1b6a 0fbe a417 fdbd 73ee 9cbc
000000c0: 13d2 ebbd 3f22 463d 0c1b e4bd 4b14 83bd
000000d0: 33c2 443e b0a1 643e eea1 8f3d 65ea a83c
000000e0: 6751 88bd 6a03 6a3e 1457 3a3e f63b 30be
000000f0: 6493 863d 6d2b dd3d 30c5 06bd ba3e 7d3e
00000100: 760c c73c 2510 85bc b216 4dbe 20cb 7ebe
00000110: 9262 d93c 5abb 5cbe fba8 1fbd 2f42 693e
00000120: 9c6d efbd b454 e73d 7d83 94bc 2826 98be
00000130: 6406 0b3e cb2e 063e 481f 64be cbe7 663e
00000140: fd26 623d d70f 89be 6374 443e 5036 dc3d
00000150: 056a 32be e994 52bd 34cd 693d 497e 03bd
00000160: 084b adbd 956f 323e 77a6 8dbe c5e6 67be
00000170: 3969 59bd 5e6e b83d 9e48 783d 635d 17be
00000180: 92d8 af3e 3536 3e3d 3ff8 dfbd 696d 763d
00000190: eacc 243e 27a0 bf3d 8ec4 97be 282b 373e
000001a0: db79 6f3c eb04 c9bc 289d cfbd 1c18 9abe
000001b0: e4b6 353d 07f3 1c3e 1a48 4dbe 8b80 413e

mlp.bias f4 [7]
-0.13726316 -0.14340732 -0.113311194 0.14187673 0.124074124 0.09075512 0.18604836
00000000: b78e 0cbe 5ed9 12be b30f e8bd 2248 113e
00000010: 931a fe3d d2dd b93d 7683 3e3e
