checkpoints/short_term_forecast_m4_Quarterly_LSTM_m4_ftM_sl96_ll48_pl96_dm64_nh8_el2_dl1_df64_fc3_ebtimeF_dtTrue_Exp_0/checkpoint.pth (torch, 205227 bytes, 9 tensors)

lstm.weight_ih_l0 f4 [256, 1]
000000 2a 37 bd bd c9 4f fb 3c 32 80 af 3d 6a 86 b5 3d
       -0.09239037 0.030677693 0.08569373 0.08863528
000010 86 9b 97 3d f6 5e ab bd b4 38 e9 bd 00 50 ee 3d
       0.074027106 -0.08367722 -0.113877684 0.116363525
000020 4a 02 21 3d a4 16 cd bd 7f b3 c3 3d 05 57 f7 bd
       0.039308824 -0.10014084 0.095557205 -0.120771445
000030 f4 a7 bb 3d e7 6f c0 bd 04 e2 7e 3d 0a 90 0e 3d
       0.09162894 -0.09396344 0.062227264 0.034805335
000040 50 c9 f8 3c ee d1 50 bd 1d 17 b9 3d 8e 61 ba 3d
       0.03036943 -0.050981455 0.09037612 0.09100638
000050 22 24 9c 3d 0d 0e 49 bd ca 64 fd 3d fb 0a bd 3c
       0.07624079 -0.049085665 0.123727396 0.023076525
000060 db 69 d0 3c eb 45 eb bd 30 06 c1 3d 36 12 e1 bd
       0.0254411 -0.11487945 0.09425008 -0.109898016
000070 2b e9 a2 bd 02 1c 3b bd 49 bc 9b 3d 87 4e 9c 3d
       -0.079546295 -0.045681007 0.07604272 0.076321654
000080 f3 27 bf 3d 7d 32 6c 3b c0 72 ad 3d bf 0e c1 3d
       0.093337916 0.0036040836 0.084691525 0.09426641
000090 1b d1 f4 bd 41 86 d6 bd b1 98 f7 bd b6 42 bd bd
       -0.11953946 -0.10474826 -0.120896704 -0.0924124
0000a0 b7 b4 ae 3d cd c6 e5 3d 20 a6 95 3d b7 e5 c5 bd
       0.08530562 0.11219559 0.073070765 -0.09662955
0000b0 1e ca ab 3d f3 a2 b5 3d 36 76 e4 3d 93 e4 e8 bd
       0.0838816 0.08868971 0.111553594 -0.11371722
0000c0 4f 3f 8b bc ac 73 4d 3d 43 4b e0 3d 40 2d bf 3d
       -0.016997961 0.05015914 0.10951855 0.09334803
0000d0 da ce 89 3d 36 df 39 3d ac 4e 5a 3d 38 f3 c8 bd
       0.06728907 0.045378886 0.053297684 -0.09812015
0000e0 20 8f c4 bc 05 3a c2 bd b9 77 35 3d 8d b9 1e 3d
       -0.023994029 -0.094837226 0.04430363 0.038751174
0000f0 55 b7 de bd ec 4d 21 3c 42 60 a8 3d 3b 04 81 3d
       -0.108748116 0.009845238 0.08221485 0.06299635
000100 d4 7f f1 3d 8b 82 e4 bd 2c 07 87 3c a5 d0 9a 3c
       0.117919594 -0.111577116 0.016482912 0.018898318
000110 c1 e3 d5 bd be 58 f4 bd 64 b1 bc bd dc 5a 87 3d
       -0.10443831 -0.11930989 -0.09213522 0.06609127
000120 3b 1b d8 bd 38 4d 6a bd 17 4b 88 bd 16 fe c4 bd
       -0.10552069 -0.057202548 -0.06654947 -0.096187755
000130 c4 2d e7 3d 50 5e 5a bc 11 e0 2a bd f2 c2 e9 3d
       0.11288026 -0.01332815 -0.041717593 0.11414136
000140 37 08 c3 3c 34 c1 58 bd c4 2a 7e 3c 9a 5d 8c bd
       0.023807628 -0.052918628 0.015513126 -0.068537906
000150 70 09 75 bd c8 d4 f6 bc aa ff fb 3c a9 69 ca 3c
       -0.059823453 -0.030130759 0.030761559 0.024708586
000160 0d 5c b4 3c a8 24 fc 3d 46 33 ae 3c 30 d0 6f bc
       0.02201655 0.12311679 0.021264683 -0.014637038
000170 6a 04 fc bd ca 82 ba bd 05 9f 8d 3d 5d eb 9b 3d
       -0.123055294 -0.09106977 0.06915096 0.07613251
000180 37 a7 ef bd 60 07 dc 3c dc 42 47 3d 89 3f c9 3c
       -0.117018156 0.026858985 0.048647746 0.024566429
000190 24 f5 c7 3d a8 3d 97 3c 1c 47 c3 bd f4 7f d7 3d
       0.09763554 0.018462017 -0.095350474 0.10522452
0001a0 df 3e 80 3d 65 f2 da 3c 0f bd f9 3c ae 44 ba 3d
       0.06261992 0.02672691 0.030485658 0.09095131
0001b0 73 e4 c3 3d 58 f8 7e 3d 70 bc 50 3d e0 70 e2 bb
       0.095650576 0.062248558 0.050960958 -0.0069104284
0001c0 a0 b0 a6 3c fa 86 b0 bd ce 7f 9a 3c f9 b8 f8 bd
       0.020347893 -0.08619495 0.01885977 -0.12144656
0001d0 54 02 96 3d 3b 7d a2 bd ea bd ab bd b4 1a cd 3d
       0.07324663 -0.07934042 -0.083858326 0.10014859
0001e0 2c a5 21 bd 2c 7e a7 bd 1a 5f ce bd 09 f4 65 3d
       -0.03946416 -0.08178362 -0.10076733 0.056140933
0001f0 cc 14 e4 bd 8f 7b c3 3d 40 a6 50 3d 78 e6 ef 3d
       -0.11136779 0.09545051 0.0509398 0.1171388
000200 e4 c5 47 bd 3e 51 de bd 12 af 2a bd 6e f0 cb 3d
       -0.048772708 -0.108553395 -0.041670866 0.09957968
000210 0c f1 82 bd 42 fe ec bd 60 e9 c5 3d 45 fb b4 3d
       -0.06393632 -0.11571933 0.096636534 0.08836988
000220 7f fd cf 3d 7c 6b a4 3d 1e 44 fd 3c 18 d3 ce bd
       0.101557724 0.080283135 0.03091627 -0.10098857
000230 62 ee b0 bd 8c 7f 6c bd 4e c2 a5 bd f3 aa c6 bd
       -0.08639218 -0.057738826 -0.08093701 -0.09700575
000240 82 e1 c1 3d e8 55 bf 3d a0 c2 a4 bd a6 ac 0a bd
       0.0946684 0.09342557 -0.08044934 -0.033856057
000250 06 4f f6 3d e4 fe 79 3d 2f 09 6b bd 4c c2 60 bd
       0.12026791 0.0610341 -0.057381805 -0.054872796
000260 af f4 82 3d d5 f5 47 bd 2f 3d c2 bd b4 36 0f bd
       0.06394326 -0.048818428 -0.09484326 -0.03496428
000270 b2 bd a2 3d b0 b0 4e bd 2d 2d b3 bd 24 f6 5e bd
       0.07946338 -0.05046147 -0.08748851 -0.054433957
000280 4e a1 78 bd 34 37 bd bd ee fc 59 3c 6c 23 82 3d
       -0.060700707 -0.09239045 0.013304932 0.063544124
000290 32 b6 ee 3d bb a6 0b 3d 32 f1 ca 3d 48 04 49 3d
       0.11655845 0.034094553 0.099092856 0.04907635
0002a0 f7 71 64 bd de 6e c2 bd 52 0f 61 bd bb bd 73 3d
       -0.055772748 -0.094938025 -0.05494625 0.059507113
0002b0 2b a8 58 3d 20 59 65 bd 7d d9 52 bd 0c 75 2e 3d
       0.052894752 -0.0559932 -0.051476944 0.042592093
0002c0 16 c3 8f bc 2e e3 bc 3d 67 9e a2 bd ff 12 2d 3d
       -0.017549079 0.092230186 -0.07940369 0.042254444
0002d0 9b f6 84 3d 1c 75 cc 3d f5 cd 88 3c 53 47 0b 3c
       0.06492349 0.09983274 0.01669977 0.008500892
0002e0 ce 5d df 3d 1e 98 b5 bd 80 ba 71 bd 38 9f 95 bd
       0.10906564 -0.08866905 -0.05901575 -0.07305759
0002f0 92 07 f5 3d 15 61 1c 3d cd d2 cf bd 99 c0 69 3c
       0.119643345 0.038178522 -0.10147629 0.01426711
000300 07 d9 f1 bd 37 af c6 3d 41 a3 d9 3d 7f 2f c1 3d
       -0.11808973 0.09701388 0.10626841 0.09432887
000310 23 4a 7e 3d fe fe 8e bd f2 01 e0 3d 9f 46 e9 3c
       0.06208242 -0.0698223 0.10937871 0.028476058
000320 8b a0 cb 3d ba f6 02 bc 8c be da 3d b1 2f b1 bc
       0.099427305 -0.0079933945 0.10680875 -0.021629186
000330 c9 fa c6 3d f3 39 be bd 17 5b d7 bd a9 00 9b 3d
       0.09715802 -0.09288397 -0.10515421 0.07568485
000340 bc 82 e0 3d f6 9c a6 bd 19 ec cd 3d 1c ae 62 3d
       0.109624356 -0.08135407 0.10054798 0.055341825
000350 d4 3b e2 bd 72 1f 99 bd 6c 4e 85 3c 81 e7 83 3d
       -0.110465676 -0.07476701 0.016272746 0.0644064
000360 68 8d ce 3d 0c 89 e7 3d 12 d2 ec 3d 7a cd d2 bd
       0.10085565 0.113054365 0.11563505 -0.10293098
000370 3f b9 90 3d c7 16 15 bd d2 3e 6e 3c f8 f7 f2 3d
       0.07066583 -0.036398675 0.014541345 0.118637025
000380 bf a4 e8 3c 85 69 93 bd bc 4e c2 3d f2 0f 40 3c
       0.02839887 -0.07197861 0.09487674 0.011722552
000390 39 c8 14 3d 3e 1a 47 3c 51 56 ee 3d fe c7 cc 3d
       0.03632376 0.012152253 0.11637557 0.09999083
0003a0 b2 1e bb 3d 85 aa 2f 3d 72 a7 b6 3d 44 3a 45 bd
       0.09136714 0.04288723 0.089186564 -0.04815127
0003b0 35 15 c6 3d 94 cb db 3d 42 93 d6 3d 30 66 8f bd
       0.09672014 0.10732189 0.10477306 -0.070019126
0003c0 50 05 67 bd ea dd e5 3d 2e eb da 3d b6 79 cb 3d
       -0.05640155 0.112239674 0.10689388 0.09935324
0003d0 30 7b dd 3d b4 d0 ef 3d 45 64 9c bd 28 3f cb bd
       0.10814512 0.11709729 -0.076363124 -0.099241555
0003e0 d9 dd 59 bc 86 e5 9b 3d f5 05 9d bd 70 f2 90 bd
       -0.0132975215 0.076121375 -0.07667152 -0.07077491
0003f0 c3 91 fc bd 64 64 81 3d 93 8d 09 3d a5 93 8f bd
       -0.12332489 0.06317976 0.03358228 -0.07010583

lstm.weight_hh_l0 f4 [256, 64]
000000 b4 58 43 3d a3 a1 61 bc e6 12 cc bd 85 f7 86 bc
       0.047692016 -0.013771447 -0.09964542 -0.016475448
000010 55 99 fc bd ce b3 f5 3d 96 68 eb bd 2e 59 33 3d
       -0.12333933 0.11997186 -0.114945576 0.04378622
000020 bd 34 90 bd 98 1d a3 bd 60 7e 85 3d 4c 60 61 3d
       -0.07041309 -0.07964629 0.06518245 0.055023476
000030 a8 5b eb 3d fc 61 d3 3d 98 14 3f bd 7f 8b bc bc
       0.114920914 0.103214234 -0.0466505 -0.023015736
000040 9b cb d3 3c 86 e1 b9 3d c4 24 4f bd ca 56 98 bd
       0.025853923 0.09076218 -0.05057217 -0.07438429
000050 c2 74 92 3d da d2 ef 3d 97 fe df 3b e1 46 c0 bd
       0.07151176 0.117101386 0.0068357694 -0.09388519
000060 c4 1f 96 bd d2 81 e8 bd 40 fe 1b bd 48 c2 4f 3d
       -0.073302776 -0.11352886 -0.03808427 0.05072239
000070 00 ac 38 39 e0 95 56 3d 8a b5 de 3c 5c 5f d4 3d
       0.00017611682 0.052389026 0.027186174 0.10369751
000080 2f 68 6a 3d c6 77 b9 3d e0 58 3e 3d 9c ff d2 bd
       0.057228263 0.09056048 0.046471477 -0.1030266
000090 86 58 86 3d b4 b9 fb 3d 14 9a a2 3d e8 a0 f1 bc
       0.06559853 0.122912794 0.07939544 -0.029495671
0000a0 5e 35 d3 bc 87 8c 71 3d 62 25 bb bd 1a 70 a5 bd
       -0.025782283 0.058971908 -0.091379896 -0.08078022
0000b0 be 86 fe 3c d4 85 3c 3d ba bb f4 3c 18 04 0d bd
       0.03107011 0.046026066 0.029874671 -0.034427732
0000c0 14 12 3b bd 75 9d f8 bc 84 ae d3 bd 9d 01 75 bc
       -0.045671538 -0.030348519 -0.103360206 -0.014953998
0000d0 28 62 93 3d 12 41 d5 bd e0 40 06 bc c4 ee f0 3d
       0.07196456 -0.10412802 -0.008194178 0.11764291
0000e0 20 5b 91 bb f0 da 4c 3c c4 9c 49 3d d8 2b 22 bd
       -0.004435912 0.012503371 0.04922177 -0.039592594
0000f0 00 41 ea bd e8 91 1f bd 66 f8 e8 3d bc 4b 24 bd
       -0.11438179 -0.038957506 0.11375503 -0.04011129
000100 4c a1 c8 3d 52 d9 29 3d e3 d9 75 3c 44 74 85 bd
       0.0979639 0.04146702 0.0150055615 -0.065163165
000110 26 bf b9 3d 36 14 fa 3d 9c ac f5 bd 54 45 e6 3d
       0.09069662 0.12210886 -0.11995813 0.11243692
000120 af 4d ba bd 1c 7b be bd 9b 04 a9 3d 06 06 af 3d
       -0.09096848 -0.09300825 0.082528315 0.08546071
000130 4d ac 5c bd 2c 92 43 bd 7c 13 06 bd 8e 5a 2b 3b
       -0.053875256 -0.047746822 -0.032733425 0.0026146504
000140 e4 23 80 3d a0 55 17 bd b4 30 07 be 31 f2 ff bd
       0.062568456 -0.036946893 -0.13202173 -0.12497366
000150 a2 2f d9 3d 8e 10 a2 bd 85 3b 00 be 98 bc ff 3c
       0.10604788 -0.07913314 -0.12522705 0.031217858
000160 15 f9 f1 3d aa 8e 89 bd 37 fa 32 bd 58 65 8d bc
       0.11815087 -0.06716664 -0.043695655 -0.017260239
000170 48 6a cc bc 70 b2 de bc 33 df 17 3d 7b 51 05 be
       -0.024953023 -0.027184695 0.037078094 -0.13019364
000180 47 4f 80 3d 00 df 6e 3c d0 0e d3 3d 19 55 6c 3c
       0.06265121 0.0145795345 0.1030556 0.014424586
000190 f8 b0 25 bd d0 fc d9 bc a0 c3 6e bc 18 fd ff bc
       -0.040451974 -0.026609808 -0.014573008 -0.031248614
0001a0 20 f2 31 3d c8 8a d5 3d 57 44 8c bd e0 e3 cb bc
       0.0434438 0.10426861 -0.06848972 -0.024888933
0001b0 8e 16 19 3c 9e 50 1c bc 63 fb fb bb 82 5a b9 3d
       0.009343756 -0.009540705 -0.0076898797 0.09050466
0001c0 38 b9 cd 3c 33 37 d8 3d 7e ec 2c 3d 54 67 08 bd
       0.025112733 0.105574034 0.042217724 -0.033301666
0001d0 3c c0 c8 bd 7a 2a bc bc 20 32 98 3b 80 1f 4d 3d
       -0.09802291 -0.022969473 0.0046446472 0.05007887
0001e0 5a 7f e2 bd b8 06 6b bd 9e c2 83 3d d8 f4 d8 bc
       -0.11059447 -0.057379454 0.06433605 -0.026483938
0001f0 28 a1 b9 3d d7 ba 65 bd b7 00 55 3d 60 14 c9 bc
       0.09063941 -0.056086387 0.052002635 -0.024545848
000200 c8 ec 56 bd 1e 53 8c 3c 14 92 b8 3c d9 85 40 bd
       -0.052471906 0.017129477 0.022530593 -0.047002647
000210 82 d7 bd 3d 38 1e 1d bd b8 1f 9c 3c cc 26 c8 bd
       0.092696205 -0.038358897 0.019058093 -0.09773025
000220 1f 41 11 bd 98 2f de 3d 56 e4 49 3b 2a 2b 8d 3d
       -0.035462495 0.108489215 0.0030806265 0.068929985
000230 79 bc 90 3c 54 e7 cc 3d 0a 06 9a bd a1 5f 0a 3d
       0.017667996 0.1000506 -0.07520683 0.033782605
000240 17 ea 88 bd 40 c4 46 bc 25 a8 e9 bd a1 7b ba 3d
       -0.06685274 -0.012131751 -0.11409024 0.091056116
000250 d4 99 25 3d 98 44 8c bc a5 72 4b bd bb 36 d6 3d
       0.040429905 -0.017122552 -0.04966988 0.10459658
000260 cf be b0 bd 28 fb c1 3d 09 e2 71 bd 20 28 90 bb
       -0.08630144 0.094717324 -0.059053455 -0.0043993145
000270 bc 76 f8 3d 10 33 a2 3d 84 46 bb bd b4 37 a4 3d
       0.12132022 0.07919896 -0.09144309 0.08018437
000280 f6 87 28 3a 8a 4c 9d 3d 44 31 90 3d 2a b7 28 3c
       0.0006428951 0.07680614 0.07040647 0.010297576
000290 60 a6 c7 3b f0 5c 7b 3d 92 71 b7 bd 94 91 ac 3d
       0.0060928315 0.06136793 -0.08957209 0.08426204
0002a0 60 71 9e bd 13 9b 44 3d ac 71 dc 3d 04 73 bc 3d
       -0.07736468 0.047999453 0.10763869 0.09201625
0002b0 df 9f 62 bd ce 00 ef 3d 42 5f 95 bd 58 60 e6 bc
       -0.055328246 0.11670075 -0.072935596 -0.028122112
0002c0 d2 65 a1 bd cb 09 e9 bd 48 c5 6d 3c ae f0 60 bd
       -0.07880749 -0.11378821 0.014512368 -0.05491703
0002d0 a0 a2 d4 bd 71 51 bb 3d da 2c a4 bd 98 1d cf 3c
       -0.10382581 0.09146393 -0.08016367 0.025282666
0002e0 b4 13 ef 3d e0 c6 e7 3d 20 76 00 3d f0 90 95 3c
       0.1167368 0.11317229 0.031362653 0.018257588
0002f0 e0 3f 19 3d 9c 68 e8 3d ab 06 6e 3d 5e 60 c3 3d
       0.03741443 0.11348078 0.058111828 0.09539865
000300 c2 8a a2 bd dd 61 66 3d 5c b5 a0 3d 10 d9 9c 3d
       -0.07936622 0.056245673 0.078470916 0.07658589
000310 50 d8 88 bd 2e 98 ba 3d 00 2e 88 3b 97 ff ec bd
       -0.06681883 0.09111057 0.0041558743 -0.115721874
000320 3b e2 be 3d d2 e6 c8 3d 24 c9 8f bd de da aa bd
       0.09320494 0.098096505 -0.070207864 -0.08342527
000330 77 e2 9d 3d 82 90 ad 3d 2e 26 cc bd 00 69 ee bd
       0.0770921 0.08474828 -0.0996822 -0.11641121
000340 4c f0 21 bd b8 ae b9 bd 8e 91 fd bc 81 ab 71 3d
       -0.039535806 -0.09066528 -0.030953195 0.05900145
000350 58 cd 7c bd e8 4d eb 3d 11 26 26 bd f4 8a 46 bd
       -0.06171927 0.11489469 -0.040563647 -0.04847236
000360 65 e1 f5 3d 98 b0 23 bd 1b c2 b8 3d d4 4b 0d 3d
       0.12005881 -0.039963335 0.09021398 0.034496143
000370 38 e7 a9 3d e8 67 e1 3d 17 7c ec bd 51 58 d6 bd
       0.082960546 0.11006147 -0.11547106 -0.10466064
000380 7e e1 48 3c 70 e8 b3 bc 1d 49 33 3d 77 90 aa 3c
       0.012260793 -0.02196142 0.043770898 0.02082084
000390 b6 f0 89 3d c4 4d 3d 3d ce 12 e8 3d 60 fe a0 3d
       0.06735365 0.04621674 0.11331712 0.07861018
0003a0 27 c5 ba 3d b8 1f 26 3d e1 0c db 3d 6e b6 e4 3d
       0.09119635 0.040557593 0.10695816 0.11167608
0003b0 53 47 61 bd e1 dc 36 bd 0b aa b4 bd cc b4 df bd
       -0.05499966 -0.04464424 -0.088214956 -0.10923156
0003c0 1c af b7 3d 8b 27 8e 3d 7f 6b b3 3d 24 99 f8 3d
       0.08968946 0.06941136 0.08760738 0.12138584
0003d0 59 68 d1 bd 1d f8 fa bc b8 c8 ff 3c 8e 24 a7 bd
       -0.10224981 -0.030635888 0.03122364 -0.08161269
0003e0 d4 75 a1 bd f0 25 43 3c 1c 01 6b 3d 02 a2 ae bd
       -0.07883802 0.0119109005 0.057374105 -0.08526994
0003f0 0e c2 da 3d b8 8f 25 3c 6d 24 94 bb f0 45 b7 3c
       0.10681544 0.010105066 -0.004520944 0.022372216

lstm.bias_ih_l0 f4 [256]
000000 85 a9 f9 bd e1 60 f8 3d 56 e5 9d bd 34 87 bf bb
       -0.121905364 0.12127853 -0.07709758 -0.005844975
000010 79 e2 d4 3c 16 30 2b bc 6f 8b cb bd b2 8b a5 3d
       0.025986897 -0.010448476 -0.09938704 0.080832854
000020 56 be 83 3d 1f 2a 6b 3c 63 33 cf bd b6 fa 91 3d
       0.06432788 0.014353304 -0.10117223 0.071278974
000030 e3 d5 ba 3d 05 19 ea 3d 00 a0 c3 3d 78 9e 16 3b
       0.09122827 0.11430553 0.09552002 0.0022982638
000040 36 8f 0a 3d ed e4 ca bd 19 fc 6b bb 81 6e c2 3c
       0.033827983 -0.099069454 -0.0036008416 0.023734333
000050 41 30 e7 3d 5e 95 9f 3c 12 dc 37 3d 66 4a 97 3c
       0.112885006 0.019480404 0.04488761 0.018468093
000060 db 5d 73 3d 31 15 03 3d 99 4b 9b bd a0 df eb bc
       0.05941568 0.03200263 -0.075827785 -0.028793156
000070 12 0b db 3d dd a0 4e 3d c0 02 9d bc 6f ac 91 3d
       0.10695471 0.05044638 -0.01916635 0.07112967
000080 ef db 38 3d 58 cb b2 3c e5 72 59 bd f0 fa d7 3b
       0.04513162 0.021825477 -0.053088088 0.0065911934
000090 5f 5a 5b 3d f3 f0 88 3d e9 97 c5 3d 9b c7 fa 3d
       0.05355298 0.066865824 0.09648115 0.12245103
0000a0 1e 44 81 bd 08 4b 89 3d 1b 14 c3 3d ba ca 4c 3d
       -0.063118204 0.06703764 0.09525319 0.049998023
0000b0 8e 96 4d bd 29 5c 8f 3d ec 5e 2c bc da f5 c6 3d
       -0.05019241 0.07 -0.010520678 0.09714861
0000c0 d1 1a b7 bd 58 3f 8a 3d e1 9d e4 3d 24 7f dd bd
       -0.08940662 0.06750363 0.111629255 -0.10815266
0000d0 92 54 f1 bc c1 1a a2 bd 94 81 dd bd 62 3e c3 3c
       -0.029459272 -0.07915259 -0.10815731 0.023833457
0000e0 c6 d0 d0 3d b5 a1 9d bd 21 00 b2 3d f0 34 96 3d
       0.101960704 -0.07696859 0.08691431 0.07334316
0000f0 ce 1d f9 bd 67 df 4a 3c a8 b5 0a 3b 5e b8 eb bd
       -0.12163888 0.012382365 0.0021165404 -0.115097746
000100 8a cd 8a 3d dc 76 a6 bd 4d 8a 88 bd e1 ef 6b bd
       0.06777485 -0.081281394 -0.06667004 -0.057601813
000110 15 32 79 3d b4 99 b6 3d ea 01 cb 3d a2 10 2e 3d
       0.060838778 0.08916035 0.099124745 0.04249633
000120 35 65 8f 3a b0 7b 6e bc 0f 78 1a 3d f4 32 7a 3d
       0.0010940196 -0.014555857 0.037712153 0.06108375
000130 9e a5 9d 3d ce 7b d6 3d ce 6f 1c 3d c4 4a 92 3d
       0.076976046 0.104728326 0.038192563 0.07143167
000140 40 64 2c bb 18 df 76 3d f5 f2 6d 3d da d2 f8 bd
       -0.002630487 0.060271353 0.05809303 -0.12149592
000150 bd 8b e8 3d 20 e4 4a 3d 5c a8 94 bd 89 4b b8 bc
       0.11354778 0.049533963 -0.072586745 -0.022496955
000160 47 94 14 3e 64 63 d9 3d 22 ea 7c 3d 22 be b0 bd
       0.14509688 0.106146604 0.061746724 -0.08630015
000170 c8 3b a2 3c e0 9c 8b 3b 57 6a 94 bd 0c ca b6 bd
       0.019803897 0.0042606443 -0.07246845 -0.08925256
000180 e5 87 00 bc aa a5 bc bd a9 e4 65 bc 0a 09 a0 3d
       -0.0078449 -0.092112854 -0.014031568 0.07814224
000190 8a 42 ef 3d 22 c8 fb bd 4c 0a 7a bd 5c cb 43 3d
       0.11682613 -0.12294032 -0.061044976 0.04780136
0001a0 a8 bb fe bd 79 fd c8 3c cc 4a d1 bd 10 e6 93 3d
       -0.12438136 0.024534928 -0.102193445 0.07221615
0001b0 b8 74 31 3d 4e 55 9a 3c 3a 85 a2 3d a8 bd db bc
       0.043324202 0.018839505 0.07935567 -0.026823834
0001c0 60 2d 54 3d 10 32 a1 3d 71 5b 94 3d 68 8a f1 3b
       0.051801085 0.07870877 0.072440036 0.0073712356
0001d0 b3 f6 e9 bc e4 ec 67 3c 29 f5 26 bd 08 25 23 3d
       -0.028560018 0.0141556 -0.040761147 0.039830238
0001e0 40 2f de bc 90 5e a2 3c 74 de 40 bd 87 d4 75 bd
       -0.02712214 0.019820482 -0.047087148 -0.060017135
0001f0 6a 10 a6 bd 58 26 d3 bd 45 94 e2 bd 01 ff d9 bc
       -0.081085995 -0.10310048 -0.110634364 -0.026610853
000200 87 6d f0 bd 20 a6 ea 3d be ec a8 3d c5 57 ab 3d
       -0.11739641 0.11457467 0.0824828 0.0836635
000210 46 1e 23 3c 7e e2 31 bc be 3f 8b bd da d0 42 3d
       0.009955948 -0.010857223 -0.06799267 0.047562458
000220 60 98 fe bd 0c ae b9 3d 50 61 bc 3d 16 68 a1 3d
       -0.12431407 0.090664 0.091982484 0.07881181
000230 d7 48 55 bc f8 60 ce 3c 31 3d 4f bd c0 5d ae 3c
       -0.013017855 0.025192723 -0.050595466 0.021284938
000240 1b b8 ea bd 30 36 b9 bc 83 13 e8 bd 3f c2 c5 3d
       -0.114608966 -0.022608846 -0.113318466 0.0965619
000250 34 04 b8 bd 9a 04 22 3d 6e 99 b4 bb 32 d9 ca bd
       -0.08985177 0.03955517 -0.0055114543 -0.09904708
000260 6b bc e4 3d 6d 9f 5a 3c 92 2f fb bc df 36 fc bd
       0.111687504 0.013343674 -0.030662332 -0.12315153
000270 a7 37 3f 3d d8 88 e3 3d d5 6d b8 bc 89 60 13 3d
       0.046683934 0.11110085 -0.02251331 0.035980735
000280 03 44 3e 3d eb 80 c4 bd 7f a6 19 3e 60 c8 5a bd
       0.04645158 -0.09594902 0.1500492 -0.05341375
000290 43 04 d2 bd 21 a7 e6 bd b1 70 46 bc 8d 9d a0 3d
       -0.10254719 -0.11262346 -0.012111829 0.078425504
0002a0 35 af 0f bd 4d 4c 75 3d 4d 5a 23 bd e2 67 de bd
       -0.0350792 0.05988722 -0.03988104 -0.10859658
0002b0 01 f0 e5 3d fb 9f 92 3c 36 b5 f7 bd 56 98 90 3c
       0.11227418 0.01789855 -0.1209511 0.017650764
0002c0 80 eb ca 3d 4a aa 2d bc eb 08 de 3d ec 9b f8 3d
       0.09908199 -0.010599682 0.10841545 0.12139115
0002d0 2f 02 63 3d 44 90 bb 3d ad c0 5c bc ce 7d c2 3d
       0.055422004 0.09158376 -0.013473672 0.094966516
0002e0 12 36 a7 3d b9 37 c5 bd c2 78 21 3d 15 2c fc bd
       0.0816461 -0.09629769 0.039421804 -0.123130955
0002f0 84 20 2e 3d bc 5f af 3d 37 53 d7 3c 4e 1f 87 bc
       0.042511478 0.08563182 0.026284797 -0.01649442
000300 85 ba 52 3d 45 9c de 3a 68 81 b3 3c 23 15 b2 3d
       0.05144741 0.0016983828 0.021912292 0.08695438
000310 90 bd a1 bd aa 88 63 3c b3 5b 97 bd 9c 00 b4 3c
       -0.07897484 0.013887564 -0.07390537 0.021972947
000320 15 a9 83 bd 34 89 59 3d 73 ea 57 3d c2 6e a4 3d
       -0.06428734 0.053109363 0.052713823 0.08028938
000330 f2 bc e1 ba 43 b8 d7 3d cc 49 1a bd b0 29 fa 3d
       -0.0017222448 0.10533192 -0.037668034 0.122149825
000340 0c fc 4b 3c a5 10 c7 bd fe 52 a9 3d f5 3f 0c 3e
       0.012450229 -0.097199716 0.08267783 0.13696273
000350 e6 f7 be bc b1 88 dc 3d 6f 0b 00 3e 23 e0 89 3d
       -0.023311567 0.10768259 0.12504362 0.06732204
000360 97 01 e3 bd 41 6e 89 3c 56 a1 0f 3c 30 5b 84 bd
       -0.110842876 0.016776206 0.008766493 -0.06462705
000370 dd ca 9b bb 77 d3 47 bd 5d 8c 83 bc aa f9 ea bc
       -0.004754408 -0.048785653 -0.016058141 -0.028683502
000380 2c e5 a7 3d 6a 42 85 3d 4c c5 31 3d f9 fa 86 3b
       0.08198008 0.06506808 0.043401048 0.0041192737
000390 ad ef 9e bb 75 4a 4d 3d 9e 25 41 bd a2 3b be 3c
       -0.004850349 0.050119836 -0.047155015 0.023221795
0003a0 70 9c 04 bd 9d 36 03 bd d9 7f 9f 3c e8 a8 cf 3d
       -0.032375753 -0.032034505 0.019470142 0.10139638
0003b0 e1 0d de 3d c3 56 d6 3c 9e e8 8b 3d 2d 3e f0 3c
       0.10842491 0.026164418 0.068314776 0.029326523
0003c0 7d 95 f0 bd 16 4c ff bc 4a d9 8b bd a8 ee a9 3d
       -0.117472626 -0.03116421 -0.06828554 0.08297473
0003d0 22 a1 b8 bc 4e 90 d1 3d 77 ae f9 3c 5c 27 b9 3c
       -0.022537772 0.10232602 0.0304787 0.022601776
0003e0 3e 35 f6 bc 84 da d4 bc ce 9d a0 3d 79 72 ea bd
       -0.030054685 -0.025983103 0.07842599 -0.11447615
0003f0 09 d9 04 3d 24 b0 8a bd e3 6e 3b bd e4 dd b8 ba
       0.032433543 -0.067718774 -0.045760047 -0.0014104214

lstm.bias_hh_l0 f4 [256]
000000 0b 62 f0 bd a6 75 47 3d 41 ba 5b bd 18 a6 bc 3d
       -0.1173745 0.048696183 -0.053644422 0.09211367
000010 77 fd ce bd 58 d3 3c bd 3e 51 39 3d 2c 52 f0 bd
       -0.10106938 -0.04609999 0.045243494 -0.11734423
000020 3d dd 40 3d 9e 57 af bd 4f 71 8a 3d 08 c1 cd bd
       0.04708599 -0.085616335 0.06759893 -0.100465834
000030 71 a3 29 bd b6 84 57 3d 2c 19 d0 3d d5 9f b8 3b
       -0.041415635 0.052616797 0.10161051 0.005634288
000040 83 72 50 3d 29 e1 f3 bd 92 a8 16 bb 36 db 0b bd
       0.050890457 -0.1190818 -0.002298866 -0.034144603
000050 06 ef fe 3c ff c6 c8 3d 5c 19 8d bd a1 94 ad 3c
       0.031119835 0.098035805 -0.068896025 0.021189036
000060 db 5b 07 3d 8c 8c 9b 3d e5 a6 ce bd e4 2e 81 3d
       0.033046585 0.075951666 -0.10090426 0.06307772
000070 04 27 a1 bd 00 87 91 3c 86 15 a5 3d 37 a3 84 bd
       -0.0786877 0.017764568 0.08060746 -0.06476443
000080 61 14 21 3c a6 81 9a bd 54 45 f9 3c 6d 22 81 3d
       0.009831519 -0.0754426 0.030428566 0.06305394
000090 e6 38 00 be f1 00 1d 3d c9 5a cb bd 0d 1c f4 3d
       -0.12521705 0.038330976 -0.09929425 0.11919413
0000a0 84 f5 9b 3c d4 41 f0 3d 0d 47 e7 bd 46 83 fb bd
       0.01903797 0.11731306 -0.11292849 -0.12280898
0000b0 ae 53 0a 3d 2f 1e 47 3d bc 76 43 bc a9 a9 62 bd
       0.03377121 0.04861277 -0.011930164 -0.05533758
0000c0 6a 1d f3 bc a9 f2 c9 3d 01 b1 a2 bd 2d 2c 91 3c
       -0.029677112 0.09860737 -0.07943917 0.01772126
0000d0 50 97 60 bd fc da 3d bd b1 b7 4d bd e2 b2 0a 3c
       -0.054831803 -0.046351418 -0.05022401 0.008465501
0000e0 70 81 8e 3d 3d 1b 70 bc 1a 1b fb 3c b8 df ad bd
       0.06958282 -0.014654932 0.030652571 -0.084899366
0000f0 5b 6d 60 3d fa 02 c6 3d d1 b6 7e bd ec 1c 61 3d
       0.05479179 0.096685365 -0.062186066 0.054959223
000100 6c 1f 25 3d ab 15 e7 3b e3 7c 9d bd ec 5f 15 3e
       0.04031317 0.0070521436 -0.07689836 0.14587373
000110 e9 e9 10 3d 02 32 c5 bd 80 70 96 bd ad 9f dc bd
       0.035379324 -0.09628679 -0.073456764 -0.10772643
000120 29 db 0a bd 80 36 39 bb ab 3a 42 3d e0 a0 07 bd
       -0.033900414 -0.0028261244 0.04741923 -0.033112407
000130 d4 a7 d9 bc 0c ba 5c bd a9 99 c6 bc b3 77 ff bc
       -0.026569284 -0.053888366 -0.024243193 -0.031185007
000140 db a3 3a bd f8 3d df 3d 52 ab a3 bd a0 b6 c9 bd
       -0.04556642 0.109004915 -0.07991661 -0.09849286
000150 59 d1 c2 bc ec 16 30 bd 8c f6 20 3d 78 60 8e 3d
       -0.023781465 -0.04299061 0.039297625 0.06951994
000160 bc 9e b8 bd 60 22 4f 3c 9f 25 ee 3c 28 d9 ad bd
       -0.09014651 0.012642473 0.029070674 -0.08488685
000170 a0 b3 07 bd de a0 d6 3d 64 ba 5d 3b e9 03 20 bc
       -0.033130288 0.10479902 0.0033833021 -0.009766557
000180 2a c1 bd bd 1e d9 93 bb 23 30 b6 bd 6d 34 5e bd
       -0.09265359 -0.0045119664 -0.088959 -0.054249216
000190 b0 ed c5 bc b0 2b ce bc 88 c2 76 bd 30 61 73 3d
       -0.02416119 -0.025167316 -0.060244113 0.059418857
0001a0 8f 89 10 bd 77 6d 23 3d 7a ae f3 3d 38 20 9a bc
       -0.035287436 0.039899316 0.11898513 -0.018814191
0001b0 2c 15 2d bd ef d4 b9 3d 1d ef a9 3a f0 18 6f 3c
       -0.04225652 0.09073817 0.0012964938 0.014593348
0001c0 7a 7e fc bd 00 05 90 3d d0 3c a8 3d 8e 78 2d bd
       -0.12328811 0.07032204 0.08214724 -0.042351298
0001d0 96 fc 54 3d 42 6b a7 3d 71 0f f6 bd c8 da 48 bd
       0.051998697 0.08174755 -0.12014664 -0.04903677
0001e0 22 5c bb bd d0 42 2e bc 32 fd 89 3d 3d ff 51 3d
       -0.09148432 -0.0106360465 0.06737746 0.051268805
0001f0 c0 71 a4 3d ca cb 2d 3c c3 a5 3a 3d b5 4b 08 bd
       0.080295086 0.010607669 0.04556824 -0.033275325
000200 35 95 e8 bd 54 f8 90 bd 4d 9d 11 be 44 e1 df bc
       -0.11356584 -0.07078615 -0.14220162 -0.027329095
000210 f1 42 3e bd 79 ed c5 3c d0 cc 5d bd 54 d3 e9 bd
       -0.04645056 0.024161087 -0.054150403 -0.11417261
000220 f8 e7 16 bd 41 c0 70 3d 36 40 72 3d 68 07 9d bd
       -0.036842316 0.058777098 0.059143268 -0.07667428
000230 83 cd 6f 3d e8 e4 66 3d da d0 ce 3d b1 a4 4d bd
       0.0585456 0.056370646 0.10098429 -0.05020589
000240 9d b8 1c 3d 48 32 f8 3d 2b c5 e1 3d cc 04 1c be
       0.038262 0.121189654 0.11023935 -0.15236205
000250 3d e2 4c 3b 7a 2d ec 3d 7c 91 6c bd 38 f3 d2 3d
       0.0031262778 0.115321115 -0.057755932 0.103002965
000260 3d 87 d5 3d 00 d7 6e bb 37 e8 d4 3d 2f 25 ca bd
       0.10426185 -0.0036444068 0.10395854 -0.098703735
000270 0e 4e 99 bc a6 67 e2 3d 0a de bb 3d 97 69 35 bd
       -0.018713977 0.110549256 0.0917321 -0.04429015
000280 79 e8 9d bd 2f 32 ca bd c9 d9 24 3d 09 e2 ed 3d
       -0.07710356 -0.09872853 0.04024676 0.116153784
000290 e7 9b 7a 3d 27 ea a1 bd 5f 48 02 3d 63 d0 dc 3d
       0.061183836 -0.07905989 0.0318073 0.10781934
0002a0 ed 11 aa 3d 97 51 37 bd f9 6c ed bc bc 38 b9 3d
       0.083042 -0.044755545 -0.028982626 0.09044024
0002b0 45 ed 6d bd 56 24 e2 3d 0d 22 2f 3d 96 9e fc 3c
       -0.058087606 0.11042087 0.042757083 0.030837338
0002c0 37 c1 fb 3c 9f 66 2b 3d a3 8c b0 3d 0c 46 f0 3d
       0.03073178 0.041845914 0.08620574 0.117321104
0002d0 14 fd e5 3d a8 a8 84 bd 3d 9c 9b bd 26 cb db bd
       0.112299114 -0.06477481 -0.075981595 -0.10732107
0002e0 cb ae 48 3d 51 2b 0b bb dc 8a ea 3c e6 6f ae 3c
       0.04899482 -0.0021235535 0.028630666 0.021293592
0002f0 e8 ef 28 bd 52 5b 4f bd 05 80 63 3c e6 0d 56 bc
       -0.041244417 -0.0506242 0.013885503 -0.013064837
000300 e1 d3 6f 3d 30 3a c1 bd 53 de d0 bd 7d db f7 3c
       0.058551673 -0.094349265 -0.10198655 0.030256027
000310 94 51 35 3c 24 fa 1a 3d 82 46 2b 3d 9a 28 93 3c
       0.011066813 0.03783621 0.04181529 0.017963696
000320 b5 ce 00 3d 08 3e ab bd 9d 3e d5 bc 56 03 cc 3d
       0.03144713 -0.08361441 -0.026030833 0.09961574
000330 6b 93 c4 bc 07 ca d4 3d e4 fb 41 3c ac bc 86 3d
       -0.023996076 0.10390096 0.011839841 0.06578955
000340 8b 80 c8 bc 31 d0 54 3d c1 3a f6 bc 62 f5 7f bc
       -0.024475357 0.05195636 -0.030057313 -0.015622469
000350 02 a6 8a 3c cd 98 ea 3d c4 d0 97 3d ff 40 e9 3d
       0.016924862 0.11454926 0.07412866 0.1138935
000360 eb d9 ee 3d e5 79 e6 3d e7 a6 91 3c e6 72 8e 3d
       0.11662658 0.11253718 0.01777978 0.06955509
000370 e3 c5 55 bd 3f e0 94 bb d1 79 b9 3d 41 10 80 3d
       -0.052190673 -0.004543334 0.09056438 0.062531
000380 c5 6d 28 3e 28 f9 d6 bd 28 d0 68 3d bd 4f bf 3d
       0.16448124 -0.104967415 0.05683914 0.09341381
000390 4d 3d c8 bd 0a ff 8e 3d 6c 50 c7 bd 61 9d 4b 3d
       -0.09777317 0.069822386 -0.09732136 0.049710635
0003a0 b8 e7 43 3d d3 00 4b 3d db 3e 87 bd 90 97 ba bd
       0.047828406 0.049561333 -0.066037856 -0.091109395
0003b0 25 a9 c1 3b 40 5b 4f 3d e8 d3 b5 bd 94 23 de 3d
       0.005910056 0.050624132 -0.088783085 0.1084663
0003c0 57 65 b5 3d 5f 62 9b 3c 5f 81 b8 bc ff 84 0f bd
       0.0885722 0.018967805 -0.022522626 -0.035038944
0003d0 12 d5 d4 bc c0 d6 6a bd c6 35 ff bd 61 19 47 3d
       -0.025980506 -0.057333708 -0.12461428 0.048608188
0003e0 d0 01 38 bd 7e 64 d8 bd d2 6e 9c bd 11 87 8d bd
       -0.044923604 -0.10566042 -0.07638325 -0.069105275
0003f0 ad 4b a8 bb f0 72 56 bd 7c e3 bf bc ec d6 7e bd
       -0.0051359744 -0.052355707 -0.023423903 -0.062216684

lstm.weight_ih_l1 f4 [256, 64]
000000 c1 e7 b2 3d 39 94 76 be 49 4a 4b be e3 8c b1 3e
       0.0873561 -0.2407998 -0.19852556 0.346778
000010 54 1f a4 bf c9 c1 60 3d e5 ed 6f bd b8 e5 91 3f
       -1.282206 0.054872308 -0.058576483 1.139823
000020 98 d8 69 3f f0 03 a8 bc 9e e7 9d 3e fe d6 ae bd
       0.9134612 -0.02050969 0.30840772 -0.085371
000030 d3 52 85 be e2 b0 ac 3d 02 fa d7 bc c8 8d 9d bf
       -0.26039752 0.08432175 -0.02636433 -1.2308893
000040 13 58 8a 3e eb c4 e5 3c a4 b4 38 be e7 15 88 be
       0.2702032 0.028048 -0.18037659 -0.2657921
000050 56 c6 e5 bd 0b 4c 86 bd 6d 26 9b be 37 f0 8f be
       -0.1121947 -0.06557473 -0.30302754 -0.28112957
000060 2e 3b cb 3e b1 4f 8e bd cd ae 98 be 66 7f ac bc
       0.39693588 -0.06948794 -0.29820862 -0.021056842
000070 48 10 ee 3d c3 9e d0 3d cc c7 e0 be 72 e4 23 be
       0.11624199 0.101865314 -0.43902433 -0.16005114
000080 b7 61 01 c0 4d ac 06 3d 98 69 1d 3e ae f0 c8 3e
       -2.021589 0.032879163 0.15372312 0.39246124
000090 e1 fe 90 bd a4 2f 3f 3d 40 93 84 bd 92 28 f2 3d
       -0.07079864 0.046676293 -0.06473398 0.118241444
0000a0 d6 7a b9 be 67 8d 97 be 76 26 1f be 33 27 19 bd
       -0.3622653 -0.2960007 -0.15542015 -0.0373909
0000b0 23 43 3d 3e 41 c2 67 be f2 27 80 be 9f 22 73 bd
       0.18482642 -0.22632696 -0.25030476 -0.05935919
0000c0 77 07 84 bd fd 1c c0 3f 85 5f 8f be 3a 3e 68 3e
       -0.06446736 1.5008847 -0.28002563 0.22679988
0000d0 4a 74 b6 3e c3 43 6f 3e f4 23 ac 3d 5a 43 43 bd
       0.35635597 0.23365693 0.08405295 -0.047671653
0000e0 7d ae 06 3d 9f 5c 2e bd a9 93 09 bd 8a bb 71 3d
       0.03288125 -0.0425688 -0.033588085 0.05901674
0000f0 53 89 c1 3d 42 6a d9 3e 99 8c 8f be 6d 97 e7 bc
       0.09450021 0.4246388 -0.28036955 -0.028270448
000100 d5 ba 87 3d 17 e8 3d be 91 e7 9a be 8b 72 07 3e
       0.06627432 -0.18545566 -0.30254796 0.13227288
000110 3a e6 8e bf f7 fd d2 3d 28 52 ed 3c 84 41 8b 3f
       -1.116401 0.10302346 0.02896984 1.0879369
000120 4f fc 52 3f c2 5b c4 3d b6 83 af 3e 14 83 9f 3d
       0.8241624 0.09587814 0.34280175 0.07788673
000130 f6 92 9a be 51 bb 9d 3d da 91 d5 3d 7e 8f a6 bf
       -0.30190247 0.077017434 0.104282096 -1.301254
000140 bf 10 5e 3e b6 b9 9a 3d fe cb 86 be 41 63 9e be
       0.21686076 0.07554953 -0.2632751 -0.309351
000150 45 83 25 3d 14 b9 9b bd 82 04 06 bf 63 29 8e be
       0.04040839 -0.0760366 -0.5235063 -0.2776595
000160 14 34 02 3f 8a e5 86 bd cb 2d 47 be 74 2c d7 bd
       0.50860715 -0.0658675 -0.19451062 -0.10506526
000170 9c 66 b1 bd 54 ca 2b 3d 34 43 af be cc 92 2e be
       -0.08662149 0.041941002 -0.3423096 -0.17048186
000180 2d e3 f5 bf 9e fe fb 3d 71 64 58 3e 3b 08 f7 3e
       -1.9209954 0.12304424 0.21132065 0.48248467
000190 ca 5f 86 3d ae aa 81 3d f5 2f 97 3d a6 8f 1b bd
       0.06561239 0.06331383 0.07382194 -0.03797879
0001a0 48 0c 38 be b0 58 84 be 4a bd 9a be 97 32 b8 3d
       -0.17973435 -0.25848913 -0.3022254 0.08994024
0001b0 fd 91 e8 3d 52 6f 3c be 21 6e 8d be bf 35 63 3d
       0.1135597 -0.1840184 -0.27623084 0.05547118
0001c0 34 b4 42 bd 37 08 b2 3f cc f2 4b be c5 e0 92 3e
       -0.047535136 1.3908757 -0.19916838 0.2868711
0001d0 0d 8f 2f 3e ba 19 80 3e 6f 16 9e 3d 5c 85 72 3d
       0.17144413 0.25019628 0.077191226 0.059209213
0001e0 cf 93 7d bd 01 29 9e 3d 2e 78 36 3d 95 af 84 bd
       -0.06190854 0.077226646 0.044548206 -0.06478802
0001f0 d1 8f cb 3d bc 6e 5c 3e 79 f9 eb bd ae 36 f7 3c
       0.0993954 0.21526617 -0.115221925 0.03017744
000200 c7 38 64 3d 58 32 91 be 0d 6e 5c be 50 40 9e 3e
       0.05571821 -0.28358722 -0.21526356 0.30908442
000210 52 fb a0 bf 8e b5 6f 3c 46 89 f7 3d 75 d4 a9 3f
       -1.2576697 0.014630688 0.1208673 1.3267962
000220 27 79 7f 3f 45 4e 21 bd a0 e2 98 3e cf 67 22 bd
       0.9979424 -0.039381284 0.298604 -0.03964978
000230 f9 33 00 be 4c 2e b0 3c d2 96 5b 3d dd 2d 9c bf
       -0.12519826 0.021506451 0.05361063 -1.2201496
000240 58 d2 6d 3e 83 0c 79 bd 3e 16 5f be fa 7d aa be
       0.23224771 -0.060802948 -0.21785828 -0.33299237
000250 b7 07 d6 3d ae 32 b4 3d 1c df da be 32 95 6e be
       0.1045069 0.08798729 -0.42748344 -0.23299101
000260 0b e9 ed 3e 5a 13 dd bc 5e 5a 24 be 56 57 58 bd
       0.4646686 -0.026986767 -0.16050097 -0.052817665
000270 2d 1d 83 bc b6 71 4e 3d 87 2b 0c bf 73 53 b0 be
       -0.016005123 0.050401412 -0.5475392 -0.34438667
000280 f1 75 f0 bf ef 3b 9d 3d 87 01 8a 3e b1 8a 03 3f
       -1.8785993 0.07677447 0.2695429 0.513835
000290 a8 50 a5 bc fa f4 61 3d c7 54 8f bb 2e 8c ca 3c
       -0.020180061 0.05516527 -0.00437412 0.024725046
0002a0 85 af 8b be 9c 9a b4 be 6c 34 89 be cd 93 c5 3d
       -0.27282348 -0.35274208 -0.26797807 0.096473314
0002b0 44 0c e2 3d 5f 58 3c be d9 85 a1 be 69 27 f1 bd
       0.11037496 -0.18393086 -0.3154743 -0.11775095
0002c0 a6 1e 17 3d 8f 1f b4 3f 69 b1 2e be e9 ab 28 3e
       0.036894463 1.4072131 -0.17059864 0.16471829
0002d0 e0 bd 97 3e 02 3c a1 3e 07 5c bc bc 10 0c b8 bd
       0.2963705 0.31491095 -0.0229931 -0.08986676
0002e0 bb c0 58 bd 18 45 cd 3d 54 03 cb bb a7 19 47 3c
       -0.052918177 0.10022944 -0.006195465 0.012152112
0002f0 04 d1 ac bd ff 82 b5 3e e2 bb 89 be da 23 cc 3d
       -0.08438304 0.35451505 -0.26901156 0.09967776
000300 c5 57 ff 3c 0e 86 99 be 2e 2b 2a be 19 8c 2b 3e
       0.031169781 -0.29985088 -0.16618034 0.16752662
000310 5b 29 a2 bf 1e 46 ee 3c 06 07 ac 3d d5 92 95 3f
       -1.2668871 0.029086169 0.08399777 1.1685435
000320 2f d7 44 3f 9a 36 cc bd 16 e3 b2 3e 40 50 e8 bb
       0.76890844 -0.09971352 0.34938878 -0.0070896447
000330 2e d6 b0 be 69 47 2e bd 7f ce 9a bd 69 3b a5 bf
       -0.34538406 -0.04254857 -0.07558917 -1.2908756
000340 b7 a3 84 3e 26 e9 f2 3c 9c 6b 4e be 71 5a c7 be
       0.25906155 0.02965219 -0.20158237 -0.3893619
000350 05 75 5b bd e2 91 8a 3d 9a 6a c0 be 3f 29 ab be
       -0.053578395 0.06766106 -0.3758133 -0.33429906
000360 a9 75 f4 3e 50 30 25 bc 75 e0 a4 be 8d f2 a1 bc
       0.47746018 -0.010082319 -0.32202497 -0.019768978
000370 1d 7c bb bd 5a 62 0c bd 33 76 a3 be c1 3b 52 be
       -0.09154532 -0.034273483 -0.31926116 -0.20530607
000380 2a 51 f9 bf 85 59 f9 3c 57 52 0e 3e 60 bf db 3e
       -1.9477894 0.030438194 0.13898598 0.42919445
000390 41 f2 f0 3d ea d9 d0 3b c5 92 8c 3d 6f 4c 84 bd
       0.11764956 0.0063736336 0.068639316 -0.06459891
0003a0 3e d2 6d be c5 d2 42 be bd 10 57 be 50 58 bf bd
       -0.23224732 -0.19025715 -0.21002479 -0.09343016
0003b0 72 11 10 3e ca 22 86 be 1e f5 0d be 2a 4b 74 bd
       0.14069155 -0.26198417 -0.13863036 -0.059641995
0003c0 a6 5b 65 3d 56 35 bd 3f f7 8c 29 be 65 0f 62 3e
       0.055995606 1.4781902 -0.1655768 0.22076185
0003d0 42 98 b3 3e 7f 98 ac 3e 82 a7 4f bd 9a 50 ea 3d
       0.350771 0.33710095 -0.050696857 0.11441155
0003e0 51 5e ad bd 52 33 ff 3b cd 2f d8 3d ad 68 aa bd
       -0.08465255 0.0077881003 0.10555992 -0.083207466
0003f0 88 32 86 3b 1d 58 b3 3e e1 60 76 be c1 d5 c8 3d
       0.0040953793 0.35028163 -0.24060394 0.09806395

lstm.weight_hh_l1 f4 [256, 64]
000000 2d 7c 37 bd b9 07 2d bd c4 41 2f bd 6e a5 6c 3d
       -0.044796158 -0.042243693 -0.04278733 0.057774954
000010 b3 ad 0a 3d 06 d8 29 be 80 3a 62 3e 0b 0e 30 3e
       0.03385706 -0.16586313 0.22092628 0.17192857
000020 d2 9e 64 3d 18 74 1c be 9d bf a9 3d a0 bd e7 bb
       0.055815525 -0.15278661 0.082885005 -0.0070721656
000030 18 b3 73 bc 8f 7e a7 3d 36 30 85 3d e3 7c 85 bd
       -0.014874242 0.08178436 0.06503336 -0.06517961
000040 3d fc 9d 3d 9b 31 17 bd b5 d9 d5 3d 2c ea ec bd
       0.07714126 -0.03691254 0.10441915 -0.11568102
000050 8a bb 1a 3e d1 36 25 3d 2b cd d4 b9 b7 38 ef 3d
       0.15110603 0.04033548 -0.00040588653 0.116807394
000060 73 53 d5 bd 66 f9 b4 bd 81 10 2b be 7d 47 94 3d
       -0.10416307 -0.088366315 -0.16705514 0.07240198
000070 eb 8a 23 bd ae 25 47 bd 20 a1 de 3d 3a 8f 7f 3d
       -0.039927404 -0.04861992 0.10870576 0.06239245
000080 3b 49 bd bd a7 73 ca 3d 37 e3 c5 bc 42 50 90 3d
       -0.09242483 0.0988534 -0.024156196 0.07046558
000090 df 57 17 be f6 d9 e9 bd ed 06 a7 3d 29 82 ee bc
       -0.14779614 -0.11418526 0.08155618 -0.0291148
0000a0 c2 9e 2f 3d 0f d6 c8 3d 0e b0 29 3d 1e 6e 5f bc
       0.042876013 0.098064534 0.041427664 -0.013637094
0000b0 77 6d 9a 3d 6b c8 ea 3d 45 13 29 3d 9c 09 66 3d
       0.0754041 0.11464008 0.041278142 0.056161508
0000c0 0b 6d cd 3c 74 fb b9 3d 92 0d 01 be c1 ac 4f 3c
       0.02507641 0.09081164 -0.12602833 0.012675465
0000d0 f9 3c 14 be 04 6f 8b 3d 11 ca 0b be d5 d8 ed bc
       -0.14476384 0.06808284 -0.13651301 -0.029034058
0000e0 18 b6 ee 3c bf b5 ef 3c 83 06 3d be 6d e5 03 3d
       0.029139563 0.029261468 -0.18459515 0.03220122
0000f0 26 da a6 3d 1e b2 fe bd c2 90 81 bd 03 73 23 be
       0.08147077 -0.12436317 -0.063264385 -0.15961842
000100 64 9f 03 3e 16 1e e2 3d 6d ed 06 be 7a db 57 bc
       0.12853771 0.11040895 -0.13176508 -0.013174886
000110 b5 3b 0f 3c 9a db 90 bd fa cb 32 3e af 8d 9a 3d
       0.008742263 -0.07073136 0.17460623 0.07546555
000120 a6 9a 59 3d 21 f6 ad bd 58 f5 af 3d 16 3d 18 3d
       0.053126 -0.08494211 0.085917175 0.03716763
000130 42 85 1a be b3 35 d6 bb 96 b1 8b 3d 78 f3 cf bc
       -0.15089896 -0.006537163 0.06820981 -0.02538465
000140 95 d9 56 3d a7 fa 0c 3d dd e0 10 3d cd d6 e4 bd
       0.052453596 0.03441873 0.035370696 -0.111737825
000150 12 3a b2 3d 2f db 75 3d 81 23 26 be fc 04 fd bc
       0.08702482 0.060023483 -0.16224481 -0.030886166
000160 c0 0d 68 3d 49 1f 13 3d 57 e4 b3 bd 53 a1 04 be
       0.056653738 0.035918508 -0.08783787 -0.12952165
000170 4a ed 4f 3b 54 a0 66 bb 22 35 18 bd 9e 77 78 3b
       0.0031727129 -0.0035190778 -0.037160046 0.0037913094
000180 0e e7 23 3d 94 78 8b 3c b6 9e e2 bd ea 62 56 3d
       0.040015273 0.01702527 -0.11065428 0.052340426
000190 51 ed 33 be 97 51 46 bd 56 56 ab 3c e7 1f 27 3d
       -0.17570998 -0.048417654 0.020915192 0.04080191
0001a0 80 12 e8 bc 46 81 d0 3d af 8d d5 3c de a1 4e 3d
       -0.028329134 0.10180907 0.026068537 0.050447337
0001b0 14 5f b2 3d 64 88 66 3d 68 77 2b 3c 04 e2 7b bd
       0.08709541 0.056282416 0.01046548 -0.061494842
0001c0 e0 a5 f9 3d ce 26 6a bd 27 f5 d4 bd e1 df 13 bd
       0.12189841 -0.057165913 -0.103983216 -0.03610218
0001d0 bc 78 f8 bd 47 57 70 3d 67 b0 0b bd 2d 36 2c 3c
       -0.12132403 0.058676984 -0.034103777 0.010510963
0001e0 f2 4e 10 3d cc b0 c6 bd 2e fa 8e bd 81 f4 1b be
       0.035231538 -0.0970169 -0.06981312 -0.1522999
0001f0 50 11 04 bd 5b 42 65 3d aa 85 d5 3b e9 62 23 be
       -0.032243073 0.055971485 0.006516178 -0.159557
000200 64 c7 77 3d 68 4f fd 3c 25 4a 24 3d 5b b9 14 be
       0.060492888 0.030921653 0.040109772 -0.14523832
000210 17 27 43 3d 84 75 f3 3c c1 06 02 3e 20 0d b7 3d
       0.0476447 0.029719122 0.12697889 0.0893805
000220 37 ab cc bc be 52 18 bd a2 38 0c 3e 19 b3 59 bd
       -0.024983985 -0.037188284 0.13693479 -0.053149316
000230 bd 38 2a be 44 cd 09 3d 6c ea 0d 3d 91 e9 85 bd
       -0.16623206 0.033643022 0.03464739 -0.0653869
000240 c5 3b d1 3d e7 7e 39 3e 91 7d 60 3d 8b 4e 90 3d
       0.10216478 0.18114816 0.05480725 0.07046231
000250 69 b7 02 3e 89 88 28 3d b5 49 ea bd 8a c5 52 3d
       0.12765278 0.041145835 -0.1143984 0.05145792
000260 fa ee e1 bc 84 d2 f5 bc d2 b2 93 39 8b 4f bd bd
       -0.027579773 -0.030007608 0.00028171256 -0.09243687
000270 38 b3 31 3c a6 05 f6 bc 76 7e 06 3e 42 6d 61 bd
       0.010845952 -0.03003199 0.13134179 -0.055035837
000280 38 88 13 bd 02 a8 19 3e f0 79 8c 3d f0 b2 1b 3e
       -0.03601858 0.15005496 0.06859195 0.15204978
000290 a9 6c 82 bd 0b 73 8d be e0 62 96 bd d0 31 28 bd
       -0.063683815 -0.27626833 -0.07343078 -0.04106313
0002a0 95 a8 70 bd 7c e8 0b 3e 73 f7 16 3d ad 46 24 3e
       -0.058754522 0.13662905 0.03685708 0.16042586
0002b0 21 3b 1d 3c 9a f9 64 bd 21 cb f6 bd ab 36 41 bc
       0.009596617 -0.0559021 -0.120504625 -0.011792819
0002c0 a5 63 a2 3d c5 71 4e bd f4 ff ab bd c0 ac 8c 3c
       0.07929162 -0.050401468 -0.083984286 0.017172217
0002d0 21 6b ef 3c 13 54 2f be 43 bc 40 3d fa 42 29 bd
       0.029225888 -0.17121916 0.04705454 -0.04132364
0002e0 a7 c3 84 3d f2 94 0d be 4e 89 7b 3c 04 cb 1d be
       0.0648263 -0.1382635 0.01535256 -0.15409476
0002f0 e3 68 7c 3d 08 1d 86 3c de 6c a4 3c 16 98 6a 3c
       0.061623465 0.016371265 0.020071443 0.014318487
000300 c8 ba 87 3c 97 bc 26 3d 88 0a a9 bd 9d 3d 5b bc
       0.016568556 0.040707197 -0.08253962 -0.013381389
000310 eb 45 ce 3d c2 e7 d2 bc a1 b7 ca 3d 90 3c dc bc
       0.100719295 -0.025745276 0.09898306 -0.026884347
000320 4d 31 08 3e ac 2c 6d 3c a5 0a 7b bd 4e f5 21 3c
       0.13300057 0.014475983 -0.06128945 0.009885145
000330 8b 48 3b be 2a ea 49 3e fb d8 11 3d 66 73 66 bd
       -0.18289392 0.19718233 0.03560732 -0.056262396
000340 87 62 9d 3d 0e a2 6d 3d cd 1e 11 3e fa 03 bb 3c
       0.07684808 0.058015876 0.14171906 0.022829045
000350 c4 7e 81 3b b7 72 78 bc 89 5f 86 bd 40 53 13 3e
       0.003951879 -0.015164069 -0.06561191 0.14387226
000360 45 ba 0c be 97 bc 12 be 71 21 10 bd 8a a4 82 bc
       -0.13742931 -0.14329754 -0.035188142 -0.015947599
000370 12 70 55 bc 3e f6 71 bd 08 f1 29 3e d2 0d 72 bd
       -0.013027208 -0.059072725 0.16595852 -0.05909521
000380 e8 5c d9 bd 21 f0 20 bd 6a 6e fa bc 25 8e be 3d
       -0.106134236 -0.039291505 -0.030570228 0.09304456
000390 01 a1 1f 3d 0a 02 49 be 05 f7 29 3d a3 38 9b 3d
       0.038971905 -0.19629684 0.04149534 0.07579162
0003a0 3d e0 16 3d 75 07 40 3d e7 c0 06 3e fc 31 1d bd
       0.036834944 0.04688211 0.13159524 -0.038377747
0003b0 31 07 a1 bd f3 47 89 3d ed a7 ee bd 05 f7 fb 3d
       -0.078627 0.06703176 -0.11653123 0.123029746
0003c0 04 f8 15 bc 81 23 0b 3e 00 96 27 3c 33 f3 86 3c
       -0.00915337 0.13587762 0.010228634 0.016473388
0003d0 ba bd fe bd c3 27 97 3d c1 cf 91 bc 34 4b e8 3d
       -0.12438531 0.07380631 -0.01779926 0.11342469
0003e0 d8 2b 02 3e 47 4f 3e 3a 2a 20 e2 bc b8 0c 7d bd
       0.12712038 0.0007259738 -0.027603228 -0.061779708
0003f0 84 6f 35 3d 04 d4 2c 3d 70 a9 13 bd a7 ff e0 bd
       0.044295803 0.04219438 -0.03605026 -0.10986262

lstm.bias_ih_l1 f4 [256]
000000 88 77 ab 3e 6a c8 ba 3e 00 52 9e 3e 78 24 c2 3e
       0.33489633 0.3648103 0.30921936 0.37918448
000010 47 1f 8c 3e 67 28 88 3e 00 5d 3d 3e cc f0 ac 3e
       0.27367613 0.26593325 0.18492508 0.33777463
000020 28 e4 35 3e fd fb b9 3e a7 78 99 3e ef f2 9f 3e
       0.17762816 0.36325064 0.29974863 0.3124003
000030 4a 3e 56 3e 11 7c 90 3e bc 40 c3 3e 1c c9 b5 3e
       0.20922199 0.28219655 0.38135326 0.35504997
000040 2a 47 4b 3e c7 b2 ab 3e 79 5b 8d 3e d5 74 1f 3e
       0.19851366 0.33534834 0.2760885 0.15571912
000050 2e 7c 7c 3e 9e 2a 98 3e 99 bb 75 3e 00 ab b8 3e
       0.24656746 0.29720014 0.23997344 0.36067963
000060 a7 7c 2e 3e 71 3b 90 3e b2 ab c4 3e 8e 44 62 3e
       0.17039739 0.2817035 0.38412243 0.22096464
000070 8b 39 6d 3e e4 0e 84 3e 30 c8 b4 3e 4b 44 88 3e
       0.23166482 0.2579261 0.3530898 0.26614603
000080 d1 00 9d 3e e1 89 68 3e 44 cc c4 3e 32 ce 9d 3e
       0.30664685 0.22708847 0.38437092 0.30821377
000090 75 ca 95 3e 83 0e ab 3e 1a 05 a1 3e 2b 04 83 3e
       0.29256025 0.3340951 0.31449205 0.25589117
0000a0 c7 52 63 3e f1 41 97 3e 10 4a b5 3e 6b 38 af 3e
       0.22199546 0.29542497 0.35408068 0.3422273
0000b0 f2 11 58 3e 27 a6 ba 3e dc 2b c4 3e 74 80 73 3e
       0.21100596 0.3645489 0.38314712 0.2377947
0000c0 d9 e1 6b 3e 4d ec ad 3e 1a 63 57 3e 1c fb 40 3e
       0.23035373 0.33969346 0.21033898 0.1884579
0000d0 2b 3c ce 3e 1b 92 87 3e 4a 6c 24 3e a5 6e 4e 3e
       0.4028028 0.26478657 0.16056934 0.20159395
0000e0 73 ca a4 3e 66 e9 37 3e 31 d4 76 3e c4 cc 40 3e
       0.32185706 0.17960128 0.24104382 0.18828112
0000f0 86 80 b3 3e d1 67 aa 3e 4a 47 66 3e eb cf 88 3e
       0.35058993 0.3328233 0.22488132 0.2672113
000100 07 96 38 3e e9 51 06 3d 59 59 a1 bc d7 5f 93 3d
       0.18025981 0.03279296 -0.019695925 0.071960144
000110 2c f7 1a 3e 09 25 80 3d 37 0a 0d bc 79 69 fe bc
       0.15133351 0.06257064 -0.008608392 -0.031056153
000120 03 25 ee 3d 8f 76 19 3e 33 8b 8a bc f2 4e b2 3d
       0.11628153 0.14986633 -0.016912078 0.08706464
000130 39 54 cd bb 28 b4 e5 3d 45 ff 43 3e 2d a7 16 3e
       -0.0062661436 0.11216003 0.19140346 0.1471221
000140 a8 8d 0c 3d 9e b0 8b 3a 8b e7 16 3e 5e 26 fe bc
       0.03431478 0.0010657494 0.14736764 -0.031024154
000150 25 3a 1f 3e 43 c5 a8 bc e6 d9 8b 3d 79 7d fb bc
       0.15549524 -0.020601874 0.0682867 -0.030699478
000160 36 38 ee 3d 67 c5 1b 3d 3c d8 9d 3d 46 a1 7a ba
       0.11631815 0.038030054 0.07707259 -0.0009560775
000170 1b 24 0c 3e 95 fd 48 3d d0 75 c0 3c e7 f8 37 3e
       0.13685648 0.04906996 0.023493677 0.17966042
000180 dc 83 6a bd 39 54 95 3d 46 84 0c 3d b1 c8 2f 3e
       -0.057254657 0.07291455 0.034305833 0.17166401
000190 51 a3 5d bd f0 20 cd 3b cf b4 5e bc 59 30 3d 3e
       -0.05411083 0.00626003 -0.013592913 0.18475474
0001a0 40 68 17 3e f1 ff e2 3d be 1a 43 3e c8 a0 28 bc
       0.14785862 0.11083973 0.1905317 -0.0102922395
0001b0 7c 3a 32 3e a6 18 11 3e 33 9d e2 3d ff 0c 26 3e
       0.17405123 0.14169559 0.110651396 0.16215895
0001c0 ea 9f 06 3e 76 ee 25 3c 9e 94 09 bd b9 fb 4b bd
       0.1314694 0.010127654 -0.033588998 -0.04980061
0001d0 91 bf 78 bd a9 93 e1 3d 54 bc 93 bd dd fc 86 bb
       -0.060729567 0.11014492 -0.07213655 -0.004119499
0001e0 84 98 08 3e c6 68 ed 3d 75 bd 76 bd 7c e6 47 bd
       0.1333943 0.115922496 -0.060239274 -0.04880379
0001f0 ea f8 2d 3e 6b 51 2e 3d e8 28 1b 3e a7 4e 16 3e
       0.16989484 0.042558115 0.15152323 0.14678441
000200 2f 93 0f 3e 5d b5 64 3e 00 72 05 be a6 73 af bd
       0.1402099 0.2233481 -0.13031769 -0.0856698
000210 4d a4 0c 3e f8 c0 a9 bd d2 6d bc 3c a5 78 23 3e
       0.13734551 -0.08288759 0.023001585 0.15963991
000220 e4 fb fe 3b e1 22 43 be 34 3b b0 3d cd 6b 44 3d
       0.0077814925 -0.19056274 0.08605042 0.04795437
000230 6b 10 5c be ea 2b 78 3e a6 b5 9e 3d 9d 7b f5 3d
       -0.21490638 0.24235502 0.077494904 0.11986468
000240 08 ab 3f 3c aa b0 bd 3d df 6a a4 3d ad 8a e7 bd
       0.011698492 0.092622116 0.080281965 -0.11305747
000250 e7 67 a7 3d 77 db 0c be f1 0c 5c be 74 c5 80 3c
       0.08174115 -0.13755594 -0.21489312 0.015719153
000260 40 30 16 bd 4a e4 80 bd ad 62 b1 bc 5b e6 2a be
       -0.03666711 -0.06293543 -0.021653498 -0.16689436
000270 74 e9 42 be ce a3 06 be e8 32 cc 3d bb b3 2d 3e
       -0.19034368 -0.13148424 0.09970647 0.16963093
000280 c7 b0 06 bd 78 59 25 3e 6e 10 15 be ca 8e 78 3d
       -0.03288343 0.16147411 -0.14557049 0.06068305
000290 0e 39 58 be 88 95 83 be bb 71 73 3e e8 f1 9b 3d
       -0.21115515 -0.2570002 0.23773853 0.07614499
0002a0 95 b5 01 3e bb 51 dc 3c 0a 1d f8 3c 75 c6 26 3e
       0.12666924 0.02689444 0.030287284 0.16286643
0002b0 51 cc 6a 3e 0c 98 fa 3d d8 39 3e be 1f ac ac 3d
       0.22929503 0.12236032 -0.18576753 0.08431267
0002c0 42 be 5f 3e 9b 90 f3 3d e4 9c 07 be d4 5e 8c 3d
       0.21849921 0.11892816 -0.13243443 0.068540245
0002d0 62 79 58 3c b3 29 e9 bd 90 01 2e be 6a 38 0f 3e
       0.013212534 -0.113849066 -0.16992784 0.13986364
0002e0 f9 54 f7 3d a4 8b 2f be 49 3a ea bd c6 21 6d be
       0.12076754 -0.17143112 -0.11436898 -0.23157415
0002f0 5e 32 d0 3d 16 16 1c be 37 21 0f 3e 41 53 39 be
       0.10165857 -0.152428 0.13977514 -0.18098165
000300 b9 6a 66 3e a9 33 84 3e 3e 92 15 3e 0e 94 b7 3e
       0.22501649 0.25820664 0.14606568 0.35855144
000310 8d e6 86 3e a8 37 9b 3e c8 99 d0 3e 00 93 3f 3e
       0.2634777 0.303159 0.40742326 0.1870842
000320 d7 a9 4b 3e 02 09 9e 3e 1e 10 86 3e 6d 77 99 3e
       0.19889008 0.30866247 0.2618417 0.29973927
000330 8c 10 17 3e f0 fe 29 3e 48 aa a0 3e 2f 76 09 3e
       0.14752406 0.16601157 0.31379914 0.1342399
000340 c8 5c 43 3e fe 2a b2 3e 72 5d a1 3e df 36 75 3e
       0.19078362 0.34798425 0.31516606 0.23946713
000350 f4 14 60 3e 6e 9e 82 3e a9 44 47 3e ac dd a4 3e
       0.21882993 0.25511497 0.19459786 0.32200372
000360 8f 6a 91 3e d7 b9 ec 3d 90 89 64 3e 2e 52 41 3e
       0.2840161 0.11558884 0.22318101 0.18879005
000370 0b 42 95 3e ab 09 9f 3e ca 69 4a 3e 69 8b 4e 3e
       0.2915195 0.31062064 0.19766918 0.20170368
000380 1e 2d 0c 3e 39 b3 4f 3e d2 97 28 3e 51 e0 af 3e
       0.13689086 0.20283212 0.16464165 0.34350827
000390 e2 73 2f 3e f1 22 90 3e 07 6d 8b 3e d6 89 f0 3e
       0.1713405 0.28151658 0.2723162 0.4698016
0003a0 db 31 f1 3d 91 a5 6e 3e 4a e8 cb 3e 68 17 9d 3e
       0.11777087 0.23305346 0.3982566 0.3068192
0003b0 51 c1 15 3e 06 ae 10 3e ba 56 54 3e 34 78 20 3e
       0.14624526 0.14128885 0.20736209 0.15670854
0003c0 f3 af 70 3e 6e 8b 3e 3e 40 21 55 3e a3 c8 8b 3e
       0.2350462 0.18607876 0.20813465 0.2730151
0003d0 4a 48 84 3e e9 45 a2 3e fa 47 b2 3e 70 c8 54 3e
       0.25836402 0.31693962 0.3482054 0.20779586
0003e0 ea 9c 84 3e 65 be 2c 3e 77 67 89 3e 36 05 74 3e
       0.25900966 0.16869505 0.2683675 0.23830113
0003f0 2e 70 92 3e 7f 56 36 3e bd ac b2 3e 65 73 42 3e
       0.2860121 0.17806433 0.34897414 0.18989332
