checkpoints/short_term_forecast_m4_Daily_LSTM_m4_ftM_sl96_ll48_pl96_dm16_nh8_el2_dl1_df16_fc3_ebtimeF_dtTrue_Exp_0/checkpoint.pth (torch, 16875 bytes, 9 tensors)

lstm.weight_ih_l0 f4 [64, 1]
00000000: 1837 3dbe 3518 03bc 0662 f83d a916 dd3d
00000010: 16d4 3d3d 4b61 2bbe 5450 69be 58f0 6c3e
00000020: 2db9 d2bd 8439 4dbe b67f 1e3e c65a 77be
00000030: 2afc 243e 466d 40be cce2 fe3d c47a 723c
00000040: f4d2 183c e8fc d0bd da18 113e 0442 f63d
00000050: 4424 1c3e 6c16 c9bd 0e0e 7d3e 06e2 34bc
00000060: 48aa 81bd 3ed4 6abe f86a 2d3e 3612 61be
00000070: cc3c 25be f804 aebd 265c be3d 00ce c83d
00000080: 7e20 293e dea9 303c 40aa f93d 646d 283e
00000090: 94c9 74be 0a5d 56be 9834 77be 4611 35be
000000a0: e029 ff3d 0ad8 633e c4d4 b13d b4e4 45be
000000b0: a8eb f73d 1ce3 0f3e 8e9e 633e 56e5 68be
000000c0: c4a7 f4bc 81bf 03be 2a5c 5f3e 339a 0e3e
000000d0: d1b7 673d 334e 7f3c 285e da3d b8f2 48be
000000e0: e8a8 cebc 2cc1 3fbe bea7 c23d e4b2 9e3d
000000f0: 5cb7 5ebe ce24 2fbc 45c7 ee3d 1c5e 013e
-0.18478048 -0.008001377 0.121280715 0.10795338 0.04634484 -0.16736333 -0.22784549 0.23138559
-0.10289226 -0.20041472 0.15478405 -0.24155721 0.16111818 -0.18791685 0.12445602 0.014799777
0.009327639 -0.10204488 0.14169636 0.1202431 0.15248209 -0.0981873 0.24712393 -0.011040216
-0.06331307 -0.22932526 0.16935337 -0.21979603 -0.16136473 -0.084970415 0.0929492 0.098049164
0.16516301 0.010782687 0.12190676 0.16447979 -0.23905021 -0.20933929 -0.24141157 -0.1768237
0.12459159 0.22250381 0.0868316 -0.19325525 0.12105495 0.14051479 0.22228453 -0.22743735
-0.029865153 -0.12866022 0.21812502 0.1392601 0.056571785 0.015582609 0.1066249 -0.1962384
-0.025227025 -0.18726033 0.095046505 0.077489644 -0.21749634 -0.010689927 0.116591014 0.12633556

lstm.weight_hh_l0 f4 [64, 16]
00000000: d47f 713e 68d0 66be 3323 b6bd dbf7 e7bd
00000010: 9c34 4dbe be58 74be 55b1 3cbe 4420 ee3d
00000020: 4e55 5abe 384d eabd 3080 36be 16fe 44be
00000030: e623 673e 505e dabc 576c c1bd af64 673e
00000040: 82bc 13be 34c1 d8bd ce39 82bd 5056 19be
00000050: 14b1 0cbe c8d4 76bd 5ea2 983c 72ac 16be
00000060: 2083 1fbc a824 7c3e 0633 b23c 30d0 efbc
00000070: 6a04 7cbe ca82 3abe 0e97 143e b0af 143e
00000080: 9c6d 71be 7027 5c3d eec2 663c 131b 0cbe
00000090: 758b 6f3e a83d 173d 1c47 43be f47f 573e
000000a0: 80ac ec3d b0f9 f2bd 0e96 9ebc ae44 3a3e
000000b0: 06b3 433e 84fb f23d c252 f23c ad96 b8bb
000000c0: a0b0 263d dc7e 3abe 50ff 273c 524e 73be
000000d0: a333 0d3e b405 32be 1ebd 2bbe b41a 4d3e
000000e0: 2ca5 a1bd 2c7e 27be 9b7c 47be 74f3 e53d
000000f0: cc14 64be 5e23 433e 6eb9 af3d 6973 663e
00000100: e4c5 c7bd 4650 5ebe 140a b73c 854a 7b3e
00000110: 8541 29be 42fe 6cbe 60e9 453e dcf5 343e
00000120: 7ae9 4f3e 7c6b 243e eb76 683d 18d3 4ebe
00000130: a2eb 30be 8c7f ecbd bdca ecbd 41ba 51be
00000140: 86de 413e e855 3f3e aa61 18be 6921 66bb
00000150: 9ef0 693e e4fe f93d d648 52bd 4859 8fbd
00000160: 7e5b 023e d4f7 c7bd 46de 35be b436 8fbd
00000170: b2bd 223e 7cb7 cebd c2ca 26be 065e bfbd
00000180: c4bd c4bd 3437 3dbe d1f2 533c 3dc5 133e
00000190: 0b6d 5c3e 60a7 8b3d f702 4b3e 6812 c93d
000001a0: 8035 84bd 766b 42be 947f 41bd c0bd f33d
000001b0: b873 573d 80f1 88bd 893d ee3b 9f7c fb3c
000001c0: d00a 0fbd 18dc 3c3e 9874 31be 2d70 793c
000001d0: bc8c 133e d272 4c3e 5f76 0d3d 104c 8b3c
000001e0: ce5d 5f3e 1e98 35be 90c6 07be 389f 15be
000001f0: 9207 753e c043 3a3c e2b0 5ebe e7ec ee3c
00000200: f4d8 71be eee6 0b3e fca9 5b3e 8f26 fc3d
00000210: 5aae 91bd 4a01 0fbe f201 603e d869 31bd
00000220: 88e6 cf3d d099 83bc 268f 653e 803c 31bd
00000230: 4059 233e 5237 3ebe 36ed 43be 2528 283d
00000240: 6c4e 573e 04b3 26be 132c 4b3e 7cde 803d
00000250: 4637 81be c223 19be fdad 08bd a0d4 293d
00000260: 500a df3d 0e89 673e 5ada 833e 7acd 52be
00000270: 6eb8 103e d04b 88bd eb26 8a3c 6e8c 6a3e
00000280: 70d2 3bbd 6ce4 d2bd 9a60 e53d e17c acbc
00000290: 64c4 ca3d 2028 c73c 5a56 6e3e 8ec8 4c3e
000002a0: 64e7 a73d 90c6 da3c 49a3 4c3d 3c38 c5bd
000002b0: 743d 133e ac6a 4f3e c868 2c3e 2cbc 0bbe
000002c0: f077 ebbd e61a 5b3e eb1d 4a3e 4927 1b3e
000002d0: b327 533e 50ac 6a3e d75b 08be a83e 4bbe
000002e0: 8011 72bb 72e7 1b3e a381 e7bd ce32 1cbe
000002f0: ca91 7cbe 40fd 103d 5055 fb3c 5497 0bbe
00000300: b458 c33d 60a4 e1bc bfc9 33be 5639 17bc
00000310: 8471 8abe ceb3 753e 9668 6bbe e859 b33d
00000320: 7834 10be 981d 23be 47c8 1d3e 4c60 e13d
00000330: 3a5b 6b3e fc61 533e 1381 8ebd 99c3 51bd
00000340: 50cd 533d 86e1 393e 71dc 8abd 0765 ecbd
00000350: 53a0 e03d dad2 6f3e cefa 5f3c 4a47 40be
00000360: 561f 16be d281 68be 706b 2fbd 48c2 cf3d
00000370: 00ac b839 e095 d63d 12a3 b33d 2338 503e
00000380: a067 ea3d c677 393e 873b 213e 89f0 10be
00000390: 9d93 883d b4b9 7b3e 199a 223e e8a0 71bd
000003a0: 2837 53bd b08b f13d 2e2e f2bd 1a70 25be
000003b0: 8888 7e3d f484 bc3d 697a fe3d 6c85 abbd
000003c0: 9c12 bbbd 019d 78bd 5551 11be 3df8 0e3d
000003d0: 8009 a23d c040 55be e401 54bc ecee 703e
000003e0: 735a 11bc 87d8 cc3c 022c 273e 002c a2bd
000003f0: 4e40 6abe 1891 9fbd bbaa 953e e08e e1bd
0.23583919 -0.22540438 -0.088934325 -0.113265716 -0.200396 -0.23861977 -0.18427022 0.11627248
-0.21321604 -0.114405096 -0.17822337 -0.19237551 0.22572288 -0.0266563 -0.09444492 0.22597001
-0.14427379 -0.105837256 -0.063586816 -0.14974332 -0.13739425 -0.060261518 0.01863211 -0.1471422
-0.0097358525 0.24623358 0.021752845 -0.029274076 -0.24611059 -0.18213955 0.14510748 0.14520144
-0.23576969 0.053748548 0.014084561 -0.13682203 0.23393042 0.036924034 -0.19070095 0.21044904
0.11556339 -0.1186403 -0.019358661 0.18190262 0.19111261 0.11864379 0.029580478 -0.0056331963
0.040695786 -0.18212456 0.010253742 -0.23760346 0.13789229 -0.17384988 -0.16771361 0.20029718
-0.07892832 -0.16356725 -0.19481127 0.112280756 -0.22273558 0.1905646 0.0858029 0.22504963
-0.097545415 -0.2171031 0.022343673 0.24540146 -0.165289 -0.23143867 0.19327307 0.17671913
0.20303908 0.16056627 0.056754034 -0.20197713 -0.17277387 -0.11547765 -0.11562107 -0.20481206
0.18932542 0.18685114 -0.14881006 -0.003511513 0.22845694 0.1220682 -0.051338993 -0.06999451
0.12730214 -0.09764066 -0.17760572 -0.06992856 0.15892676 -0.100935906 -0.16288283 -0.093441054
-0.096065074 -0.1847809 0.01293631 0.14430709 0.21525972 0.068190336 0.1982535 0.09817964
-0.06455517 -0.18986306 -0.04724081 0.11901426 0.052600592 -0.066866875 0.007270519 0.030699072
-0.03492242 0.18443334 -0.17329633 0.015224499 0.14409155 0.19965675 0.034536716 0.017004043
0.21813127 -0.1773381 -0.1325934 -0.14611518 0.23928669 0.011368692 -0.21747163 0.029165698
-0.23617917 0.13662311 0.21451563 0.12312042 -0.07113333 -0.13965335 0.21875742 -0.04331383
0.10151392 -0.016064554 0.22417888 -0.043270588 0.15952015 -0.1857579 -0.19133458 0.04105391
0.2102601 -0.16279227 0.19841032 0.062924355 -0.25237483 -0.14955047 -0.033369053 0.04146254
0.10890639 0.22610876 0.25752527 -0.20586196 0.14132854 -0.06655085 0.01686426 0.22905132
-0.045854986 -0.10297474 0.11200066 -0.02105564 0.0990074 0.024311125 0.23275128 0.1999838
0.08198431 0.02670601 0.04996041 -0.096298665 0.14378911 0.20255536 0.16836846 -0.13646
-0.11497486 0.2139698 0.19737975 0.15151705 0.20620613 0.22917295 -0.13316284 -0.1984812
-0.00369367 0.15225008 -0.11304023 -0.15253755 -0.24664989 0.035397768 0.030680329 -0.13631946
0.09538403 -0.0275442 -0.17557429 -0.009229979 -0.2703973 0.23994371 -0.22989115 0.08757383
-0.14082515 -0.15929258 0.15408431 0.11004695 0.22984019 0.20642847 -0.06958213 -0.051211927
0.051709473 0.18152437 -0.06780327 -0.11542707 0.109680794 0.23420277 0.013670636 -0.18777195
-0.14660391 -0.22705773 -0.04282707 0.10144478 0.00035223365 0.10477805 0.087713376 0.20333914
0.11445546 0.18112096 0.15745364 -0.14154257 0.0666878 0.24582559 0.15879096 -0.058991343
-0.051566273 0.117942214 -0.11825214 -0.16156045 0.062141925 0.09205046 0.12425692 -0.083750576
-0.09134409 -0.060696606 -0.14191182 0.034904707 0.07911968 -0.20825481 -0.012939904 0.23528641
-0.008871662 0.025005592 0.16325381 -0.079185486 -0.22876093 -0.07791346 0.2923182 -0.11013579

lstm.bias_ih_l0 f4 [64]
00000000: a428 fcbd 9ec8 a6bd c365 c33d 07d1 43bc
00000010: db19 1a3e 8915 16bd 904e 973d 7d02 c63d
00000020: 04a8 4ebe 1df3 73bd a6d7 91be 7f49 ddbd
00000030: 9354 18be 0fb7 62be 5bf7 933e 859a 54bd
00000040: 8016 bfba e4c3 2ebe 0e61 903d 20ff 30be
00000050: 4a38 da3b e082 22bd 307d 273d cd8d 793a
00000060: fc60 203e 006c ddb9 5f2d 72bd 42c9 723e
00000070: 2372 c5bc 622e 643e 25e9 0bbe 2363 02be
00000080: c445 50be 8319 25be 2162 833d 9b55 773e
00000090: cdbc 7abe 1855 0c3d c1d2 4a3e bee4 873e
000000a0: b015 123d 9cba 14be 16de 24be 1c21 b83c
000000b0: 01ee 343e c619 d4bc 64e5 2e3e a22a 223e
000000c0: e5ec 16bd 6f83 38be db11 6d3a a8be 1ebd
000000d0: 5c26 433e 96df f13d 7fe1 9f3c 735a f43d
000000e0: 735d 7abe 45c6 fabd 6eb3 f83c f999 2c3d
000000f0: 274a 703e 3b9a 2f3d 6423 d7bd 8f6a e9bc
-0.12312439 -0.081437334 0.09540894 -0.0119516915 0.15048926 -0.03664163 0.073880315 0.09668443
-0.2018128 -0.059558023 -0.2848484 -0.10805034 -0.14876013 -0.22140144 0.28899655 -0.051905174
-0.0014578849 -0.17066914 0.07049762 -0.17284822 0.006659542 -0.039675593 0.040890872 0.0009519726
0.15661997 -0.0004223287 -0.0591253 0.23709586 -0.024102276 0.22283319 -0.13663156 -0.1273313
-0.20339113 -0.16123013 0.06415201 0.2415375 -0.24486084 0.03426084 0.19806959 0.26541704
0.035665214 -0.14524311 -0.16100344 0.022476725 0.17668916 -0.025891196 0.17079693 0.15836576
-0.036847014 -0.18018888 0.0009043493 -0.038756043 0.19057602 0.11810224 0.019516705 0.11931314
-0.2444971 -0.12244848 0.030358996 0.042139027 0.23465787 0.042871695 -0.10504797 -0.028493194

lstm.bias_hh_l0 f4 [64]
00000000: d925 37be ca88 eabd d189 aebd 2369 223e
00000010: 4549 943e b074 633d b867 2abe 6f23 6fbe
00000020: c190 d2bd 23e2 17be 38a6 5abe f55f 6dbe
00000030: 353a 9f3d 86a7 573d b33e 0a3d 218f 8b3d
00000040: 7b23 0e3d f109 583d 341f a33d 4e78 4e3b
00000050: 3474 203d 181c 69be 3851 3bbe 2e32 28be
00000060: f0a1 393e cab4 4a3e 720d 07be 9c28 da3d
00000070: 5fee 083a a81d 813d f16b 15be 4dc6 63be
00000080: 23e7 fcbd c82e ac3d fdff e33d 0558 973c
00000090: 6328 08be 362a 38bd 3a4a bfbd 7f61 ee3d
000000a0: 0891 583c a404 11be b7d6 0d3e 2c11 88bd
000000b0: cabd f43d a829 313d e4d7 8b3e f73e b63d
000000c0: 7143 67be eab5 c93c 3cc0 0c3c a47b f7bd
000000d0: 8ce9 33be a4a2 583e d2c3 38be d732 223e
000000e0: e503 083e a555 7abd 9d20 aebd cfd6 fa3d
000000f0: 43bb 1b3e cb82 2ebb ef7f 03bd 31b6 69bd
-0.17885531 -0.11451872 -0.0852238 0.15860419 0.2896215 0.055531204 -0.16641128 -0.2335336
-0.10281516 -0.14832358 -0.2135247 -0.23181136 0.07774774 0.052649997 0.0337512 0.06814409
0.034701806 0.052743856 0.07964936 0.0031504813 0.03917332 -0.22764623 -0.18292701 -0.16425392
0.1812818 0.19795528 -0.13188723 0.10652277 0.00052235083 0.063044846 -0.14591958 -0.22243614
-0.12348773 0.0840736 0.1113281 0.018474588 -0.13296656 -0.04496213 -0.093403295 0.1163969
0.013218172 -0.14161927 0.13851438 -0.066439 0.11950262 0.043252617 0.2731315 0.08898728
-0.2258432 0.024622876 0.008590754 -0.120841295 -0.1756956 0.21155792 -0.1804345 0.15839706
0.13282736 -0.061116833 -0.08502314 0.12248003 0.15208153 -0.0026628252 -0.03210443 -0.057058517

lstm.weight_ih_l1 f4 [64, 16]
00000000: 5ba8 16bd 5e8f 71be 2d20 cc3e 8d95 a53e
00000010: 5afa 26bf 8133 a53d dc28 17be 22ed b3bd
00000020: 34f8 c73d 1cab a73d 4eda ea3e 96a4 80be
00000030: 02ee 2e3d 9bd1 3bbe 4571 8f3e d27f 35be
00000040: 88f6 393e 6ab9 243e 2f3c 363e f09f 913e
00000050: 5f5b 11bf 04a8 2c3e 0abd 803e 0b18 44be
00000060: 894c 19be 45ea 4f3e bce2 0a3f 9a2a b1bc
00000070: a62f 693e b934 193e c2ff 553e d257 f2be
00000080: 4764 ab3c e2b4 3b3e 1573 d33e df67 bf3e
00000090: 565a 65be c767 45be 1c3c 48be b58b 9d3d
000000a0: 064a d3bd 4d28 8abe 533a 553e 3503 ccbd
000000b0: d74d 153d 0e2a fabc 15cf 3d3e 1aec aebd
000000c0: 853a b93d a28c 423e e3b8 973e 179b 2e3f
000000d0: f78f cebe ecb8 23be e667 4b3d db4a 2e3e
000000e0: 8c47 c7bd 3ac7 023e e700 9a3e c96b 7cbe
000000f0: b184 703e bea6 79bd 50e1 883e b726 20be
00000100: 4d85 e33d 12f8 abbd 56f5 1c3f b204 273e
00000110: 1960 5ebe e4b7 513c c939 763e a383 1fbe
00000120: 6b32 efbc ce4d 91be 03bb 063e cbdb 4c3c
00000130: 7eb1 3f3e 906c e83d 910a 5b3e 48ca 8fbe
00000140: c37f 0dbe 32f5 bf3b d644 9b3e e079 c33e
00000150: a154 acbe 082c 153e 0962 6b3c 3ad1 bc3d
00000160: 267c 3a3e ded4 71be 8b03 b13e 96b9 073d
00000170: 1aff c4bd 01a2 39be 18b8 ea3e 4ed3 76be
00000180: 0cc9 113e f27a 7cbe 978e b03e 46b2 ff3e
00000190: 5b00 93be 9557 81be 3249 0e3e 67b9 593e
000001a0: f9ac 5e3d 3a4d 443c 596f 053f 2c8c e7bd
000001b0: 4c5d 0c3e a95b ac3d 4615 e43e 4cc5 ccbe
000001c0: a909 023e b035 8b3d a7fa 173e 2c58 c33e
000001d0: 7802 13bf 0489 aabd 9898 a03d d004 9bbd
000001e0: 3fd4 4c3e 2fe7 013e 0deb b63e fb19 343e
000001f0: 98f8 afbc a6fd 71bd 2c3f 923e 8f39 60be
00000200: b988 90be ae99 4fbe 4115 483e 3f62 f03e
00000210: a6a5 a4be 3823 6cbe a9a0 303e 4ffe 4e3e
00000220: 1ae2 4b3e 3168 b1bb 11e2 a93e 4f4c 5fbe
00000230: 2446 b63d 3af3 683e c364 7d3e 991f 09bf
00000240: c06a 2dbe fb23 6f3d f7a3 8d3e ff1c 1e3f
00000250: a859 a8be 9399 b83d c2f8 7fbd 48d6 07be
00000260: 2f3d 5abe 5dc7 0fbd 7a18 1e3f bc9f 0a3e
00000270: 5fcb 543e 4793 8fbe 011a 183f 64e6 49be
00000280: 06f2 173e 31a9 55be 78a8 193f f2e4 bc3e
00000290: f2c0 a4be 9c64 43be 6c79 9d3d c7d4 cf3d
000002a0: 0562 e0bc 9b5e 41be 2bd0 9f3e ab0d e13c
000002b0: e49d c03c 7d6a 653c c4cc 963e d88f 85bd
000002c0: 7ec0 d1bb f984 5ebe 4ae6 d13e a41a c33e
000002d0: 711f a8be 8084 53be c9d0 5d3e 45df dc3d
000002e0: 3437 693d 23b2 773b 277c 9f3e 67f5 9f3d
000002f0: 3d3e f6bd f694 333e fb49 9c3e f945 cbbd
00000300: e520 553e 4b6e e63d a9c7 7b3e a11d 393f
00000310: 290a 1ebf ba6e 6f3c bd28 7b3e 6c7b 9ebd
00000320: 1085 b23d aba6 33bb 882f 283f 61d3 22be
00000330: 5029 023e c088 093e 96a5 d03e 947a 0cbe
00000340: 3ee9 55bd 5f73 363e e6b4 9c3e 4647 0f3f
00000350: 3ffa 25be d491 3d3e 5f74 323e 90c4 563e
00000360: 02ae 82ba e6b4 3f3e 70d4 1d3f ea90 bbbd
00000370: 382f 503e ffe9 c0bd c235 5b3e 9c83 07bf
00000380: 0363 80be 3e03 6a3d e636 203f 987c eb3e
00000390: 4c78 82be c7ba 55be 56f1 ce3c 5524 0e3e
000003a0: 4576 d3bd 6072 983d 2401 973e 61fc 433e
000003b0: f1ea 06be dd75 e23d d261 b33e 53d0 39be
000003c0: b978 3b3e 4c4c abbd 4dd3 083e 0312 b53e
000003d0: a077 1ebf aa48 133e 19d9 933d 6b9f 4fbc
000003e0: 1d6e 73bd f193 a8bd 250f 143f 9cfb 7bbd
000003f0: e78c 503e 5a9d 66be f830 0f3e b906 ecbe
-0.03678165 -0.23589846 0.39868298 0.3234066 -0.65225756 0.08066464 -0.1476168 -0.08785464
0.09764138 0.081869334 0.45869678 -0.2512557 0.04270745 -0.18341677 0.28016105 -0.17724541
0.1816045 0.16086355 0.17796396 0.28442335 -0.56780046 0.16860968 0.25144225 -0.19149797
-0.14970602 0.2030421 0.5425222 -0.02162676 0.22772083 0.14961518 0.20898345 -0.47332627
0.02092184 0.1833072 0.41298738 0.37383935 -0.22397742 -0.19277869 -0.1955418 0.076926626
-0.10316853 -0.26983872 0.2082303 -0.09961549 0.036451187 -0.030537631 0.18536027 -0.085411265
0.09044365 0.1899896 0.29633245 0.682054 -0.4034421 -0.15988511 0.049659632 0.17020743
-0.09730443 0.12771311 0.30078813 -0.24650492 0.23488118 -0.060950033 0.267344 -0.15639769
0.111094095 -0.08396925 0.6131185 0.16310385 -0.21716346 0.012800191 0.24045481 -0.15577559
-0.029198846 -0.28379673 0.13157277 0.012503575 0.18720052 0.11348832 0.2139075 -0.28084016
-0.13818268 0.005858087 0.30325955 0.3817892 -0.33658317 0.14567578 0.014366635 0.09219594
0.18211421 -0.23616359 0.34573016 0.033135973 -0.09618969 -0.18128206 0.45843577 -0.24104044
0.1423685 -0.24656275 0.34483787 0.499407 -0.2871121 -0.25262132 0.1389511 0.21262132
0.05436418 0.011981303 0.5212303 -0.113060325 0.13707465 0.0841592 0.4454748 -0.39994276
0.12698998 0.067973495 0.1484171 0.38153207 -0.5742564 -0.08326915 0.07841605 -0.07569277
0.2000284 0.12685846 0.35726205 0.17588036 -0.021480843 -0.05907979 0.2856382 -0.21896957
-0.2822931 -0.20273468 0.19539358 0.46949956 -0.3215763 -0.2306031 0.17248787 0.20214199
0.1991047 -0.005414032 0.33180287 -0.21806453 0.08900097 0.22749034 0.24745469 -0.5356384
-0.16935253 0.058383923 0.27664158 0.61762995 -0.32880902 0.09013667 -0.062493093 -0.13265336
-0.21312402 -0.035102237 0.617561 0.13537496 0.20780705 -0.2804205 0.5941468 -0.19716793
0.14838418 -0.20865323 0.6002269 0.3689342 -0.32178456 -0.19081348 0.07689175 0.10148006
-0.02739049 -0.18883745 0.31213507 0.027472338 0.023512788 0.01400244 0.294531 -0.06521577
-0.0064011207 -0.21730413 0.4099601 0.38106263 -0.32836488 -0.20656013 0.21661676 0.10784773
0.05693741 0.0037795387 0.31149408 0.07810479 -0.1202359 0.17537293 0.30525193 -0.099254556
0.2081333 0.112515055 0.24587883 0.72310835 -0.61734253 0.014613802 0.24527259 -0.077383846
0.08716786 -0.0027412574 0.65697527 -0.15900947 0.12711072 0.13431072 0.40751332 -0.13718635
-0.05222439 0.17817448 0.30606765 0.5596813 -0.16208743 0.1851266 0.17427205 0.2097342
-0.0009970071 0.18721351 0.6165228 -0.091584995 0.20330513 -0.09419631 0.21407226 -0.52935195
-0.2507554 0.057132 0.6258377 0.45993495 -0.25482404 -0.20872031 0.025261562 0.13881047
-0.103252925 0.0744369 0.29493058 0.19139244 -0.1317556 0.11057637 0.35035568 -0.18145876
0.18307771 -0.08364162 0.13361855 0.35365304 -0.61901283 0.14383188 0.072191425 -0.012672286
-0.059431184 -0.082313426 0.5783561 -0.06151925 0.2036625 -0.22520962 0.13983524 -0.4609888

lstm.weight_hh_l1 f4 [64, 16]
00000000: 80fa ca3d 3030 b2be 52b7 4f3d 700c bf3e
00000010: 6c66 1bbd f91e bdbe b482 bdbe 4140 9abd
00000020: 5b97 afbe 0c63 c1be 2637 b6be 1e5b d4be
00000030: ca70 ddbd 8051 2b3e ab4b 96be 3bc8 44be
00000040: 65b8 c83e dc78 18bd cee2 803e 015a b93e
00000050: 42b1 073d b88a b5be cec9 eabd d7d8 87bd
00000060: 162a 85be 47f1 81be 6276 59be 4981 00bf
00000070: 6cb8 bfbe a8d3 413d a67e cfbd ffe9 00be
00000080: a1b1 953e 54d5 6f3d 6a49 883c 598b 803d
00000090: 8a82 893d 0b02 8abd 3851 bdbe 14cc babe
000000a0: b487 4d3d 98c8 b0be 1988 ddbe 86d4 cdbe
000000b0: 4c76 25bd 5f44 1f3e c52b d4be d605 ef3c
000000c0: 236b 5e3e b4d5 b4be d3dc 403e f32f b03e
000000d0: e0e1 043e 6db8 babe 5eed 22be 98b7 8fbe
000000e0: ae9e 21be 7db2 3bbe a35a d3be 581a cebe
000000f0: eddc d1be fef4 cc3e 492a 41be 5169 50be
00000100: 1840 943e ebf3 adbe 5d73 bc3d 9d69 05bd
00000110: a6df ed3c 4e15 4cbe 6881 febe 4a0e b6be
00000120: 3001 14bd d097 bfbe e460 d6be 0eed 98be
00000130: 727c e4be d3a2 0cbd 37e5 87be 076a 7ebe
00000140: 5003 613d 951e 95be 1fb3 0a3f 7351 d83e
00000150: 3dcd ab3e 8ae8 80be f84c 45be ca2c a4bc
00000160: 3739 b9be ac18 cbbd 3305 ebbe b287 cdbe
00000170: 9160 d1bd 67bb f03d a145 b0be acb4 82bc
00000180: f7fe 983e 3dd2 08be 1adc db3e e7e4 b8bd
00000190: f6e4 8e3e 8312 23be 76d6 77bd 2758 2dbe
000001a0: 2194 b0be c774 aebd 1388 e8bd c8c4 22bf
000001b0: 6064 2ebe 3604 923e 27fa 4e3d acd1 82be
000001c0: 7867 2fbd e155 94be 3260 393e 4c07 213e
000001d0: 0432 323d 77d5 2dbe bdcd c9bd 35b5 f3be
000001e0: d899 dabd fffe a43b 2589 81be 4aa0 bdbe
000001f0: 7360 bc3c b98e 9c3e a723 babd 9812 7bbe
00000200: 593c 483e f3e1 0bbe b36d d33d 9a46 143e
00000210: 1eaf 843e 5821 c2be f640 6bbe cecf 7cbe
00000220: 51ad cb3c 19f1 cdbd a59f a2bd 530d c6be
00000230: be7d 7fbe 9ab5 0b3e d767 793c 553c 47be
00000240: ff7f 623d 6fab 993d 9fb4 453e ecaa b93e
00000250: 34fa 9e3a f093 1f3d 3887 bdbe 0755 d5be
00000260: ee16 20be d4df 8cbe b1ef a13c 6d5d bdbe
00000270: 045d 7fbe a00c b93e 910c b8bc 9fa9 7bbe
00000280: 0bf5 643d a204 a1bb 9d5a b73e fc9b c93d
00000290: 13ba 073e c4f3 89bd 24f6 ccbe 7bc0 cabe
000002a0: 4f03 11be e7dc cbbe 2fed bd3c 7196 22bf
000002b0: 027f 7bbe e0d8 313e bb09 a5be 6843 b8bd
000002c0: 395e 803e 4042 bebe 63f1 d13e 06aa 6f3c
000002d0: e207 563e b763 94bc 3b19 7abe 4582 41be
000002e0: 042a 25be 1d11 80be c0b0 efbe e64e 98be
000002f0: 561f 4abe 2a11 9a3e d624 ccbd 4734 bfbe
00000300: d90a 243e e44e 0ebe 521d 9d3e a096 9f3e
00000310: 8b1e ba3e 70c6 a3be c9ba a1be ffff bbbe
00000320: eb53 81be 386b d0be 38b1 e8bd b0a3 8dbe
00000330: 9f48 c3be 7b97 4a3e 1148 8b3d cfed 5f3d
00000340: b1d7 c73e ada5 16bd 31fb af3e c3d8 d0bd
00000350: 417b b9bd 57d2 bebe f76e b6be 1b79 26be
00000360: 9293 a5be aa11 bbbd 7ca3 63be 227b 02bf
00000370: aedc 82be 3914 ab3e 5788 bebe bec0 a3bc
00000380: df32 7a3e 9dbe 4ebe 30fb 1f3e 1630 983d
00000390: 01de 273e 5b2f bbbe 439f dbbd ffb7 fbbd
000003a0: 0cb5 69bd 9abb bebe 4c96 8fbe 7b76 b1be
000003b0: 907a 88be 4214 da3e 03d6 91bd 7632 8dbe
000003c0: 43da 9e3e 32e4 99be a8ab ca3e 66a4 35bd
000003d0: 984a 523e 23df 82bd f512 ccbe 4bbe bfbd
000003e0: 8c98 6fbe 80a4 8abe b0e7 13be 919c 98be
000003f0: e406 27be eaea 513c 7b64 193c 0bb0 77be
0.0991106 -0.3480239 0.050711937 0.37314177 -0.037939474 -0.36937693 -0.3701378 -0.07531787
-0.34295163 -0.3777088 -0.3558895 -0.41475767 -0.108125284 0.16730309 -0.29354605 -0.19217007
0.39203182 -0.037224635 0.25173038 0.3620148 0.03312803 -0.35457397 -0.114642724 -0.06633156
-0.26008672 -0.25379393 -0.21236566 -0.50197273 -0.3744539 0.04732099 -0.10131578 -0.12589262
0.29237083 0.058553055 0.016636569 0.062765785 0.067143515 -0.06738671 -0.36976027 -0.36483824
0.050178245 -0.3452804 -0.43267897 -0.40201205 -0.04039602 0.15553425 -0.41439644 0.029177587
0.21720557 -0.35319293 0.18834238 0.34411582 0.1297679 -0.3646883 -0.15910861 -0.28069758
-0.15783188 -0.18329807 -0.41280088 -0.40254474 -0.40988865 0.40030664 -0.18863787 -0.20352675
0.2895515 -0.33975157 0.09201691 -0.032571424 0.029037308 -0.19930002 -0.49708104 -0.35557777
-0.036133945 -0.3742051 -0.41870797 -0.29868358 -0.44626194 -0.03433497 -0.26542065 -0.24845134
0.0549348 -0.29124895 0.5417957 0.4224964 0.33555022 -0.25177413 -0.19267642 -0.020040888
-0.36176464 -0.09916815 -0.45902404 -0.4014259 -0.10223497 0.11754494 -0.34428123 -0.015955292
0.29882023 -0.1336145 0.42941362 -0.09028035 0.27909058 -0.1592503 -0.06050726 -0.16928159
-0.34488013 -0.08518367 -0.11354079 -0.63581514 -0.17030478 0.28518838 0.050531533 -0.25550592
-0.042823285 -0.2897177 0.18103102 0.1572544 0.04350473 -0.16975962 -0.098536946 -0.47599187
-0.106738746 0.0050352807 -0.25299945 -0.37036353 0.02299521 0.3057764 -0.090888314 -0.24518812
0.19554271 -0.13660412 0.10323658 0.14480057 0.25914854 -0.37916064 -0.22974 -0.24688646
0.024862917 -0.10055751 -0.07940606 -0.3868204 -0.2495031 0.13643494 0.015222511 -0.19456609
0.055297848 0.075034015 0.19307183 0.36263216 0.001212901 0.038959444 -0.37017226 -0.41666433
-0.15633747 -0.27514517 0.019767614 -0.3698534 -0.24937826 0.36142445 -0.02246693 -0.24576424
0.055897754 -0.0049138824 0.3581132 0.09844205 0.13254575 -0.06735948 -0.4003154 -0.39599976
-0.14161418 -0.39816973 0.023184387 -0.63510805 -0.24560168 0.17367887 -0.32233986 -0.08997232
0.25071886 -0.3715992 0.41004476 0.014627939 0.20901445 -0.018113954 -0.24423687 -0.1889735
-0.16129309 -0.25013056 -0.46814537 -0.29747695 -0.19738516 0.3009122 -0.099679634 -0.37344572
0.16019763 -0.13897282 0.30686432 0.31169605 0.36351427 -0.31987333 -0.31587818 -0.36718747
-0.25259337 -0.407068 -0.11361927 -0.27663946 -0.38141343 0.19784348 0.06800855 0.05467015
0.39031747 -0.036779094 0.3437133 -0.10197594 -0.09056712 -0.37269852 -0.35631534 -0.16257136
-0.3233915 -0.091342285 -0.22230333 -0.50969136 -0.2555899 0.33413866 -0.37213394 -0.019989368
0.24433468 -0.201899 0.15623164 0.07431047 0.16393282 -0.36559567 -0.10723736 -0.12290954
-0.057057425 -0.37252504 -0.28044355 -0.34660706 -0.26656008 0.4259358 -0.071208976 -0.2757756
0.31025895 -0.30056912 0.39584088 -0.044346236 0.20536268 -0.06390216 -0.39858213 -0.093624674
-0.23398036 -0.2707863 -0.1444385 -0.2980695 -0.16311222 0.0128123555 0.009362335 -0.24188249

lstm.bias_ih_l1 f4 [64]
00000000: 4fad 3f3f e759 2c3f f208 ec3e b14a e73e
00000010: 15d2 273f 7019 2c3f d312 193f 540b a13e
00000020: 5623 263e 8cc7 2c3f cba3 dd3e 9b70 373f
00000030: 0736 c53e 23c7 8a3e f62a 053f 34c3 313e
00000040: 6451 853e 3499 2f3e cd14 27bd 85b6 973e
00000050: 9a5b 7c3e 9063 cb3b 0678 bb3e 0d33 623e
00000060: 0431 94bc 30bc 883d 5491 cc3e 7b81 d93e
00000070: 616a 6f3e 2ffa 863d f141 573e 0a95 073e
00000080: e254 e03e 5183 38be a244 c63e 7ec3 d53e
00000090: 3937 013f b132 05bf 73fa 9ebe 0ac3 47be
000000a0: bb45 cfbe 4188 e6be 4bbb c5be 1920 75be
000000b0: aa0c d3be 9ca5 8e3e 378d c5bd 7764 01bf
000000c0: 43b3 1e3f 2476 dc3e 5f90 683e 7e6d 0f3f
000000d0: 3116 8c3e 1aef 5f3e 3bc2 323f 6216 fd3e
000000e0: 43f2 393e e1e8 f53e 5716 083f 0035 a33e
000000f0: 077f ce3e 5a08 fb3e 2961 b03e 5a8d 443e
0.7487382 0.6732468 0.46100575 0.45174173 0.65554935 0.67226315 0.5979435 0.31453955
0.16224417 0.67491984 0.43289027 0.716562 0.38517782 0.27105054 0.5201868 0.1735962
0.2603866 0.17148286 -0.04079132 0.2963144 0.24644318 0.006206937 0.36615008 0.22089787
-0.018089779 0.06676519 0.39954627 0.42481598 0.23380424 0.065906875 0.21021248 0.13240448
0.4381476 -0.18018843 0.38724238 0.4175071 0.5047489 -0.52030474 -0.31050453 -0.19507995
-0.40482888 -0.45025828 -0.38619456 -0.23938026 -0.412206 0.27860725 -0.09646075 -0.5054392
0.6199228 0.43058884 0.22711323 0.56026447 0.2736068 0.21868554 0.6982762 0.4943114
0.18158822 0.48029235 0.5315909 0.31876373 0.4033129 0.4902981 0.34449127 0.19194546

lstm.bias_hh_l1 f4 [64]
00000000: 56fd 9a3e f975 1c3f 4558 8e3e e48d e43e
00000010: 7379 c13e 92a7 f43e 4304 083f 7463 093f
00000020: 63ae f93e 1d39 853e 94ee 123f 3d82 d73e
00000030: 21df aa3e e65d 233f 010f 0a3f 3352 203f
00000040: 8bb5 aa3d 95a2 a73e 9d62 7fbd e2d4 00bd
00000050: 92ca 803e adcd b73e a47c 4c3c 2691 eb3c
00000060: 5ed9 613e d7aa 213e aecd 3ebd 4088 ce3e
00000070: 7df7 fb3d f84b 81bd 696d b53e 25cc ae3e
00000080: 2c98 e83e ea52 e4be a6fb dc3e cc7a 643e
00000090: c03d 733e 483e 07bf 54e8 1cbf 18ae 05bf
000000a0: e4b4 f7be 0ff9 bdbe e621 02be 8979 1dbf
000000b0: 2d14 d2be 582d b43e c472 02bf 1405 30be
000000c0: df32 103f 3c67 3c3e 9e51 013f 8597 ff3e
000000d0: c2f4 023f 9baf ce3e 0534 2c3f 3df6 c73e
000000e0: ff58 b93e 5b4d f03e 3983 0d3f 499f 1c3f
000000f0: 29ce 913e 67cd 0c3f 46ba ad3e 5d5d aa3e
0.30271405 0.6111751 0.2780172 0.44639504 0.3778797 0.47784096 0.531315 0.5366738
0.4876586 0.26020136 0.5739529 0.4209155 0.3337336 0.6381515 0.53929144 0.62625426
0.08335408 0.32741228 -0.062349904 -0.03145302 0.2515455 0.35899106 0.0124808885 0.028755736
0.22055575 0.15787826 -0.04658287 0.40338326 0.12303064 -0.06313318 0.35435036 0.34140125
0.45428598 -0.44594508 0.43160743 0.22312468 0.23754025 -0.5282941 -0.61292005 -0.5221877
-0.48380196 -0.3710408 -0.12708244 -0.6151357 -0.41031018 0.35190845 -0.5095637 -0.17189437
0.56327623 0.18398756 0.5051516 0.49920288 0.5115472 0.4036835 0.67266876 0.39055052
0.3620071 0.46934018 0.55278355 0.6118055 0.284776 0.5500092 0.33931178 0.33274356

mlp.weight f4 [1, 16]
00000000: 7bc0 5d3f 3fec 79bf 09a8 8e3f ff5e 643f
00000010: a978 893f c29f 6bbf 954a 6abf e9b5 75bf
00000020: 0b37 89bf 274a 5abf 334c 84bf 987f 78bf
00000030: 4f96 68bf 48b8 843f 984b 81bf c6fc 7fbf
0.86621827 -0.9762611 1.114503 0.8920745 1.0739948 -0.92040646 -0.91520053 -0.959807
-1.0719923 -0.852694 -1.0335754 -0.9706969 -0.9085435 1.0368738 -1.0101194 -0.99995077
