checkpoints/short_term_forecast_m4_Hourly_LSTM_m4_ftM_sl96_ll48_pl96_dm32_nh8_el2_dl1_df32_fc3_ebtimeF_dtTrue_Exp_0/checkpoint.pth (torch, 55083 bytes, 9 tensors)

lstm.weight_ih_l0 f4 [128, 1]
000000 52 66 ee bd ce 1c 61 3d 52 9a ea 3d f2 13 13 3e
       -0.1164061 0.05495911 0.114552155 0.14363077
000010 39 2e a9 3d d9 bc f7 bc 00 f1 95 bd 98 a4 64 3e
       0.082607694 -0.030241417 -0.07321358 0.22328413
000020 b5 f3 95 3b cf 97 89 bd 27 a6 0a 3e 6e cf c4 bd
       0.0045761713 -0.06718408 0.13539945 -0.096098766
000030 ac 2d 37 3e 04 55 78 bd 9e e6 18 3e bd d2 5d 3c
       0.17888516 -0.060627952 0.14931723 0.013539013
000040 66 b5 2f bc 09 ed 77 3c 98 5c 21 3e 15 cf 14 3e
       -0.010724401 0.015132197 0.15757978 0.1453212
000050 a7 60 05 3e 85 9d 52 3c c3 41 5a 3e 61 90 63 3d
       0.13025151 0.012854938 0.21314149 0.055557612
000060 8a 42 5e 3c 7f 83 c7 bd f7 7f 3c 3e 22 71 b8 bd
       0.013565669 -0.09741878 0.1840819 -0.09005953
000070 63 87 b3 bc f4 04 ae 3b 01 41 06 3e 5e 86 e4 3d
       -0.021915143 0.005310649 0.13110735 0.11158441
000080 4a 71 02 3e 1b b0 31 3d 57 f6 cb 3d 9a f9 2c 3e
       0.12738529 0.043380838 0.09959095 0.1689209
000090 d3 ea bd bd fc 6a 87 bd 4a ef c3 bd 19 c5 53 bd
       -0.09273305 -0.066122025 -0.09567125 -0.05170164
0000a0 21 12 06 3e 38 d2 50 3e 92 49 a4 3d 74 69 87 bd
       0.13092853 0.20392692 0.08021845 -0.066119105
0000b0 98 f0 0c 3e 55 26 1b 3e 25 3e 51 3e 54 b5 96 bd
       0.13763654 0.15151341 0.20433863 -0.07358804
0000c0 25 aa 3e bd 77 1b e6 bb 03 0a 52 3e 1d 65 1e 3e
       -0.04654898 -0.007022317 0.20511632 0.15468259
0000d0 08 3e 5d 3b 57 c4 90 3d 3e 41 df 3d 5d aa 90 bd
       0.0033758897 0.07068699 0.10901116 -0.07063744
0000e0 6e 82 b1 3c c1 a0 96 bd a9 cf c9 3d 69 20 d6 3d
       0.021668639 -0.0735488 0.09854061 0.104554005
0000f0 38 41 80 bd e3 03 21 3d 63 60 07 3e ec 58 ff 3d
       -0.062624395 0.039310347 0.13220362 0.124681324
000100 9e 3e 31 3e a1 13 54 be 7b d1 9b bd 40 c1 07 be
       0.17309043 -0.20710613 -0.076083146 -0.13257313
000110 6e 4d 48 be ff f3 69 be 94 62 46 be 19 c6 05 3e
       -0.19560787 -0.22846983 -0.19373542 0.1306385
000120 b7 e5 4f be 91 d5 09 be 2e 03 0f be 03 e9 3e be
       -0.20302473 -0.13460375 -0.13966057 -0.18643574
000130 7a 22 5b 3e b5 29 98 bd d6 b4 e6 bd 6f 96 63 3e
       0.2139987 -0.0742983 -0.112649605 0.22225355
000140 f9 59 83 bd c7 38 15 be 28 69 e0 bd ed 55 2c be
       -0.06413645 -0.1457244 -0.10957557 -0.16829653
000150 69 0a ab bd a9 c8 db bd 7b bd 73 3d fc 26 14 be
       -0.08351595 -0.10731632 0.059506875 -0.14467996
000160 81 e9 71 3d 0d 3d 5f 3e 83 f4 5c bc 6b c7 94 bd
       0.059060577 0.21800633 -0.0134860305 -0.072645985
000170 db c5 73 be f3 d6 32 be 83 70 16 3e 11 8c 11 3e
       -0.23805945 -0.17464809 0.14691357 0.14213587
000180 13 e0 1a be b1 c7 be 3d f3 6b 95 3d 9b 0b 69 3c
       -0.1512454 0.09315432 0.0729598 0.014223958
000190 fc b9 47 3e 66 98 d4 3d 99 55 3f bd 18 b0 59 3e
       0.19504541 0.1038063 -0.04671249 0.2125858
0001a0 dd 77 13 3e 8c 8b 12 bc 69 ba a5 3c c8 47 45 3e
       0.14401193 -0.008944403 0.020230489 0.19265664
0001b0 e9 21 48 3e e7 41 1c 3e da 70 de 3d 69 74 84 3d
       0.19544186 0.15259515 0.108613685 0.06467516
0001c0 49 c7 a7 3b 69 8c 03 bd 31 f8 9f 3c b7 b2 b7 bd
       0.005120192 -0.032116327 0.019527527 -0.08969634
0001d0 a8 f5 d2 3d 1a a2 f8 bc 91 71 1b bd 15 87 46 3e
       0.103007615 -0.030350734 -0.037950102 0.19387467
0001e0 c3 13 e8 3b fa 28 53 bd f8 35 63 bd b4 2f 0b 3e
       0.007082434 -0.05155275 -0.05547139 0.13592416
0001f0 05 ab 75 bd 49 71 45 3e e6 c3 ec 3d 4f 22 59 3e
       -0.05997755 0.19281496 0.11560802 0.21204494

lstm.weight_hh_l0 f4 [128, 32]
000000 04 f6 5a bd a3 eb 2f be 9d 71 09 bd 6a ac da 3d
       -0.053457275 -0.17179732 -0.033555616 0.106774166
000010 e0 ea ce bd 0c 66 49 be 4a ed cd 3d fb 14 11 3e
       -0.101033926 -0.19667834 0.10055025 0.1416816
000020 72 73 ee 3d e0 b4 9f 3d e2 75 21 bc 70 93 2f be
       0.11643113 0.07798171 -0.009854766 -0.17146087
000030 4e 72 db bd 66 d1 eb bd 08 8a 05 be 90 86 cd bd
       -0.10715161 -0.11514549 -0.13040936 -0.100354314
000040 6f db 15 3e 0e cd c0 3d 46 77 14 be 16 f9 2a bd
       0.14634489 0.09414111 -0.14498624 -0.041741453
000050 b4 78 24 3e d6 6f 4e 3d 34 19 bd ba e5 4a 8b bd
       0.1606167 0.050399624 -0.0014427067 -0.068013944
000060 cb 13 20 3e 4c b8 1c bd e0 0e 34 be a6 f9 b7 bd
       0.1563255 -0.038261697 -0.175838 -0.089831635
000070 1d b7 9d 3d 48 3d e3 bd 6b 84 dd bd 9f 96 50 bd
       0.07700942 -0.11095673 -0.10816272 -0.050924893
000080 16 4e 16 bd 2c 4c 31 be 2b c4 3b bd a1 22 32 3d
       -0.036695562 -0.17314214 -0.045841377 0.043490056
000090 c4 30 fa 3d 3a ac 69 3b 86 c7 bd 3d 44 08 e5 3d
       0.122163326 0.0035655634 0.09266572 0.11183217
0000a0 5b 86 ad bd 4f 1a 31 be a6 19 b4 bd 8a c3 22 3d
       -0.08472892 -0.17295192 -0.087939546 0.03973726
0000b0 68 bb 9e 3d 84 0a b4 bd 37 ca 45 bd 84 0a e2 3d
       0.07750589 -0.08791068 -0.04828855 0.11037162
0000c0 8d 88 5c bd 88 08 a8 3d 3c 80 21 be e3 a2 b3 bc
       -0.053841162 0.08204752 -0.15771574 -0.021928256
0000d0 3c b4 5c 3d 7d 96 c3 3d 9d 2b 91 3d 0d 5a 03 bd
       0.053882822 0.09550188 0.07088397 -0.0320683
0000e0 a9 2a 5b 3e 07 22 a0 bd b9 fc 0d be c4 1a 18 be
       0.21402992 -0.0781899 -0.13865937 -0.1485396
0000f0 6b fe f8 3d f1 bc 16 bd 8d cf d2 bd d5 49 77 3d
       0.121579014 -0.036801282 -0.102934934 0.060373146
000100 2d cd 25 be 7e a8 b6 3d 2a f1 03 3e 09 d2 71 3d
       -0.1619155 0.08918856 0.12884966 0.059038196
000110 72 1d 40 bd 4a 59 e3 bd 24 7e 0f 3e d5 57 a9 bc
       -0.04690308 -0.11101015 0.14012963 -0.020671764
000120 66 58 8f 3d 74 6f 6f bc 74 ed 04 3e 28 fc 33 bd
       0.069992825 -0.014613975 0.12981206 -0.043941647
000130 dc 52 f5 3d dd 6b 03 be 97 f0 1e be 7a 3d 45 3d
       0.11978695 -0.12834115 -0.15521465 0.04815433
000140 a9 d6 11 3e ef b1 06 be 1e 0b d7 3d 3b 9d 43 3c
       0.14242043 -0.13153814 0.10500167 0.011939342
000150 ae 84 26 be df bb ec bd c3 1e a4 bb 7b 5b 9a 3c
       -0.16261551 -0.11559271 -0.00500855 0.01884245
000160 6d 1f f3 3d b0 a8 36 3e a8 c5 18 3e f7 0c 1f be
       0.11871228 0.17837787 0.1491915 -0.1553229
000170 64 54 b0 3d 06 22 85 bd 0e 13 7d bb 03 b3 30 3e
       0.08609846 -0.0650063 -0.0038616094 0.17255788
000180 a6 46 0f 3c 3d 84 08 be 61 71 19 3d 6f 7f 43 bd
       0.008744871 -0.13331695 0.037461642 -0.047728952
000190 be 7a b9 bb 38 27 f5 bc 73 86 eb 3d 5e 14 49 3e
       -0.005660384 -0.029925928 0.115002535 0.19636676
0001a0 c4 6c 25 3c 86 69 ee bc ea 54 0d bb 1b 0b ec bd
       0.0100967325 -0.029103052 -0.0021565505 -0.11525556
0001b0 c9 35 20 3e 56 e0 c0 3d d5 fd a4 3d dc 70 33 bd
       0.15645517 0.09417789 0.08056227 -0.043808803
0001c0 30 86 f7 bd b4 75 ce 3d 75 5f ab 3d c8 a3 74 3d
       -0.12086141 0.10081044 0.08367816 0.059726506
0001d0 fa 8c b6 3d 02 9f e4 3d 70 68 43 bd 0f 0b 4b be
       0.08913608 0.11163141 -0.04770702 -0.19828437
0001e0 44 5e 0c 3d 72 fe 21 3e f8 a5 06 be c1 51 25 be
       0.034269586 0.1581972 -0.1314925 -0.16144468
0001f0 46 32 66 be 23 b8 c2 bc 26 49 a1 3d bf 77 22 bd
       -0.22480115 -0.023769444 0.0787528 -0.03966498
000200 4f 86 db 3d d4 78 8e bd bf 11 44 be fe 71 a8 bd
       0.10718977 -0.0695664 -0.19147395 -0.08224867
000210 e8 31 65 be 0f 6b e6 3d 3e bf 67 be 35 94 e3 3d
       -0.22382319 0.112508886 -0.22631547 0.111122526
000220 a5 1d 1a be 00 a2 2a be cd 62 23 3d 57 b9 bd 3c
       -0.15050371 -0.1666336 0.039889146 0.023159666
000230 23 51 57 3e 03 cf b6 3d b6 55 ea bd 57 fc f3 3c
       0.21027045 0.08926203 -0.11442129 0.029783411
000240 8b 94 32 3c a2 f0 7d 3d 8f 43 ff bd 01 01 24 be
       0.010899673 0.061997063 -0.12464058 -0.16016008
000250 26 a3 6b 3d 78 44 d7 3d 68 1a 88 3d a9 16 3c be
       0.057528637 0.10511106 0.066456616 -0.18368019
000260 06 ad bc bc bf 31 c5 bd f7 5f fb bd 66 8e d6 3b
       -0.023031723 -0.09628629 -0.12274163 0.006547737
000270 37 92 7d bd 06 5c 0e 3c 8d 54 b1 3d 33 03 47 3e
       -0.06190702 0.008688932 0.08658705 0.19434814
000280 3d bd 19 3e 96 cd 36 3d 72 5d 98 bc 1a 1b 6f be
       0.15013595 0.044629656 -0.018599246 -0.23350182
000290 39 4e 2d 3c 1e 25 be 3d 00 ca e0 3c b4 74 23 3d
       0.010577732 0.09284423 0.027440071 0.03990622
0002a0 eb e2 f1 bd 95 6e a9 3b 4d d7 5b be f2 60 47 be
       -0.11810859 0.005170653 -0.2146885 -0.19470575
0002b0 9c f1 fe 3d 45 51 8e bc 0a 76 20 bd d0 d4 20 3d
       0.12448427 -0.017372737 -0.03917507 0.039265454
0002c0 81 ab f4 bd a7 22 04 be e5 87 6a be b1 d8 d0 bd
       -0.11946774 -0.12903844 -0.22903402 -0.101975806
0002d0 14 87 b5 3c ae 50 6c be c2 86 93 3d ca c8 a9 3d
       0.022159137 -0.23077652 0.072034374 0.082902506
0002e0 16 a1 86 3d 26 11 d5 3d 8b e5 82 bb 46 31 17 be
       0.065736935 0.104036614 -0.003994649 -0.1476489
0002f0 3a 85 7c be b2 97 14 be 52 c9 77 3e f9 a2 c3 3c
       -0.24660197 -0.14510992 0.24197891 0.023881422
000300 55 52 4e 3e 5e 8b 99 b9 46 15 19 bd 77 b3 4e be
       0.20148595 -0.0002928627 -0.037373804 -0.20185648
000310 22 20 47 3d c4 c0 c4 3d c3 b0 7d be 5c b9 73 3e
       0.04861463 0.096070796 -0.2477446 0.23801178
000320 0c f9 6c be 21 8b 4f be 79 44 df 3b da eb 39 3d
       -0.23141879 -0.20267917 0.0068135825 0.04539094
000330 ac 4f e5 3c 2e 8b 12 be 0d 79 02 be d9 8c ba 3d
       0.027992092 -0.14310905 -0.1274149 0.09108896
000340 88 2d 77 3b 2f 89 07 be a0 26 79 be 29 a8 69 be
       0.0037716348 -0.13235925 -0.2433114 -0.22818054
000350 4e 54 8e 3d fb c5 42 be 78 42 c8 bc 5d 3d 7a bc
       0.069496736 -0.19020836 -0.024445757 -0.015273419
000360 dc 25 22 3e a5 fd 81 bc bd c9 d8 bd 99 01 e1 bd
       0.15834755 -0.015868017 -0.105853535 -0.10986633
000370 8a c0 e9 bd eb ee fd bd 0c a4 53 3e 28 a1 a3 bd
       -0.11413677 -0.123990856 0.20668048 -0.079897225
000380 e0 54 04 3e a7 73 f8 bc 4f a5 b2 3d 25 e2 a4 bd
       0.12923002 -0.030328585 0.08722936 -0.08050946
000390 d6 e6 dc bd 3e 4a ba bd 7e c9 9d bd 81 a5 d0 3b
       -0.10786216 -0.09096192 -0.07704447 0.006367386
0003a0 3c 4f 0f 3d 52 87 fb 3d 89 1c 02 be 96 82 b1 bd
       0.034987673 0.1228167 -0.12706198 -0.086674854
0003b0 d0 a7 1f 3d 85 f2 2e bd 2f a4 17 bd 51 f7 41 3e
       0.038978398 -0.042711753 -0.037021812 0.18942
0003c0 b1 c1 99 3a 0f c2 b2 3d 0e 95 05 3d 8a b8 f8 bd
       0.0011730698 0.0872842 0.032612853 -0.12144573
0003d0 d4 4d 56 be f2 08 e3 bd b6 8d 71 3d 29 42 9c 3c
       -0.20928127 -0.110856906 0.058973037 0.019074516
0003e0 ad 95 ab bd c7 6b b2 bc 50 93 fe 3c d0 e1 d0 bd
       -0.08378158 -0.021779908 0.031076103 -0.1019932
0003f0 8a a8 94 3d 08 e6 61 be 61 bf 16 3e 2e a4 73 3c
       0.07258709 -0.22060406 0.14721443 0.014870686

lstm.bias_ih_l0 f4 [128]
000000 ef 3c 42 3e 8f 56 4b bd ba 2e 42 3e db 45 8b 3d
       0.18968557 -0.049643096 0.18963137 0.06800433
000010 92 e9 27 3d 98 0b 6f 3b 03 8e 17 3e 39 13 ec 3c
       0.040994234 0.0036475416 0.14800267 0.02881776
000020 2a 03 94 3c d6 92 b7 bd 88 dd a4 3c bd c2 79 3c
       0.018067915 -0.089635536 0.020125166 0.015244183
000030 ee 37 00 3e d2 c6 77 3e 4e 20 e2 bd 8c 29 e4 3b
       0.12521335 0.24196938 -0.11041318 0.0069629606
000040 30 dc af 3d c0 69 7a 3d 0d ea 09 3e 84 60 07 3e
       0.08586919 0.061136007 0.1346819 0.13220412
000050 c0 dc e4 3d 3f a2 e3 bc 3c 36 47 bd ab c7 a3 3d
       0.11174917 -0.027787326 -0.048635706 0.07997068
000060 5e ff e4 3d d6 35 4a 3d 8b 13 72 3e 1b 4b ee bc
       0.1118152 0.04936775 0.23640268 -0.029088547
000070 fd f4 7b 3e e4 ac 14 3d fd 99 07 3e fc ac 1a 3e
       0.24605174 0.036297694 0.13242336 0.15105051
000080 96 66 35 3e 46 b2 0e 3e 29 e4 95 bd 3c 12 19 3e
       0.17714915 0.13935193 -0.07318909 0.14948362
000090 27 f6 8b bd 80 d4 f5 3d 49 a1 1b 3e 32 0f 5f 3e
       -0.06834059 0.12003422 0.15198244 0.2178314
0000a0 59 f8 3b 3e d0 74 3b 3e e2 cd a7 bd dd 33 78 3e
       0.18356456 0.18306279 -0.08193566 0.24238534
0000b0 61 e6 e2 3d 64 7f ed 3c b8 12 29 3e 7c 1b e2 3d
       0.110790975 0.028991409 0.16511047 0.110403985
0000c0 5a 2f 9a 3d 4b 49 61 3e 53 d1 f7 3d d2 8d bd 3d
       0.07528563 0.22000615 0.12100472 0.09255566
0000d0 8c 60 07 3e 79 49 4e 3e c6 45 1e 3e 09 c5 fa 3c
       0.13220423 0.20145215 0.15456304 0.030611532
0000e0 78 ad ba 3c 2f 5c 36 3e 4c 84 44 3e f5 3d b0 3c
       0.022787794 0.17808603 0.19191092 0.021513918
0000f0 0d 61 2b bd cb 4b 97 3d 66 39 15 bd a8 50 10 be
       -0.0418406 0.07387503 -0.036431693 -0.14093268
000100 89 5d 82 3d 45 dc 14 be 2f 20 de bd f1 2c d3 bd
       0.06365497 -0.14537151 -0.10845982 -0.10311306
000110 23 6c fd bc d6 e0 73 bd 92 54 4b be 6f de 6f bd
       -0.030935353 -0.059540592 -0.1985648 -0.05856174
000120 9c 37 b0 3d 5c de a1 3d e3 ff 1b be 95 36 ce bd
       0.08604357 0.0790374 -0.15234332 -0.100690044
000130 e0 34 54 3e ce 59 00 3c cc 23 80 bd cf c8 38 3d
       0.20723295 0.007833911 -0.06256828 0.04511338
000140 76 51 53 3e 05 5a ce 3d 98 61 93 3d 03 c4 c5 bd
       0.20636544 0.100757636 0.07196349 -0.09656527
000150 f4 df 54 bc 72 1c e8 bd e5 34 a2 bd 3c 28 a5 3d
       -0.012992848 -0.113335505 -0.07920245 0.08064315
000160 00 88 9f 3d 9d 6b 88 bc 2e e7 0d be 7d 3e 61 bd
       0.07789612 -0.016652877 -0.1385772 -0.054991234
000170 a5 41 4c bd 73 9f bf 3d 7a f5 60 3e f4 c2 ef bd
       -0.04986729 0.093565844 0.21968642 -0.11707106
000180 0f fe 25 3e 8e 4d 1d 3e 96 15 51 3d 51 2a c9 3d
       0.16210197 0.15361616 0.051045977 0.09822524
000190 66 b7 e3 bd e0 8a 95 bc 75 7d ff 3d 7e 93 42 3e
       -0.11118965 -0.018254697 0.12475101 0.19001576
0001a0 94 40 2d 3e 09 b6 08 3e be 77 bd 3d dd fa 29 3e
       0.16919166 0.13350691 0.09251355 0.16599603
0001b0 fd 92 78 3c 5e 55 27 3e 2c 47 bb 3d 97 bb cf 3d
       0.0151717635 0.16341159 0.09144434 0.10143202
0001c0 3a e8 c6 3c 95 b4 7b bd 75 6d 70 3d ea ca 50 bd
       0.024280656 -0.061451513 0.058698136 -0.050974764
0001d0 0c cf 98 3d 9d f8 c8 3d 32 87 66 3e 63 5b 12 bc
       0.07461366 0.09813044 0.2251251 -0.008932921
0001e0 ec 63 d8 3c 91 89 90 bd cd 4f 36 bd bf 69 d5 bd
       0.026414834 -0.07057489 -0.044509698 -0.1042056
0001f0 b6 3b bf 3d c3 c1 31 3c 99 c5 24 3e 50 31 c4 3d
       0.09337561 0.010849419 0.16091003 0.09579718

lstm.bias_hh_l0 f4 [128]
000000 ad 14 65 3d b9 8f ac bd 31 02 27 3e d4 f7 a4 bc
       0.05592792 -0.084258504 0.1630943 -0.020137705
000010 bc 32 be bc 09 5b d2 3d aa ba 5f bb 29 40 78 3d
       -0.023217551 0.1027127 -0.003413836 0.060608063
000020 00 52 e2 3d ad d2 5c 3e b5 58 ad bd af a3 67 3e
       0.110507965 0.21564741 -0.08464185 0.22621034
000030 90 88 52 3d d2 cd 39 3c 35 47 25 3d fc 26 3b 3e
       0.051399767 0.011340575 0.04035111 0.1827659
000040 fb 2b 3b be 34 55 2f bb 5b cf 53 3d 46 19 20 3e
       -0.18278496 -0.0026753666 0.05171142 0.15634641
000050 d4 d7 ff 3b 2e d8 b0 3d 17 5b 4e 3e 66 c1 04 bc
       0.007807711 0.08634983 0.20151936 -0.00810275
000060 18 9b 27 bb 42 9b 69 bd 59 38 14 3d 38 af 8d bd
       -0.002557462 -0.05703283 0.03618655 -0.06918186
000070 c4 8f 3b 3d d4 00 ea bd 1d 40 b5 3b ac 62 5c 3e
       0.045791402 -0.11425939 0.0055313245 0.21522015
000080 8d d6 d9 3d ad fc bd bd 95 22 ec 3d 25 17 dc 3d
       0.106366254 -0.0927671 0.115300335 0.10746602
000090 14 2b df 3d 3c 35 52 3e 97 da 66 3e 27 7d dd bc
       0.108968884 0.2052812 0.22544323 -0.027037216
0000a0 56 d9 f3 bd 13 2e 31 bb dc 7e 39 bd 34 43 1a 3d
       -0.11906688 -0.002703552 -0.045287 0.037661746
0000b0 13 4e 59 3e bb 2c 88 bd 4b 5d 90 bd 77 a5 11 3e
       0.21221189 -0.06649157 -0.07049044 0.14223276
0000c0 1e 13 3a be 1d 36 b3 bd b5 85 eb 3c 1d 23 1f 3e
       -0.18171355 -0.08750556 0.02875028 0.15540738
0000d0 d3 da 3a be 14 43 41 3d 3c 8b 73 bd 3e ec fe 3d
       -0.18247537 0.04718311 -0.059458956 0.12447403
0000e0 bf f8 03 3e 0d 30 cb bd 6f 8c bb 3d d9 46 54 3e
       0.12887858 -0.09921274 0.09157645 0.20730151
0000f0 fb b5 7d bd 88 25 d6 3d 91 eb 7e 3d 96 f6 e2 3d
       -0.06194113 0.10456377 0.062236372 0.11082189
000100 5b f6 a3 bd 8a 80 0f bd b0 e5 c9 3c 95 d8 33 3c
       -0.08005973 -0.035034694 0.024645656 0.01097693
000110 73 12 09 be 5c 7d 9f bd db 2d 0c be 44 5e f5 3c
       -0.13385944 -0.07787582 -0.13689367 0.029952176
000120 c8 a1 59 be 69 87 86 bc 65 29 09 3c c5 55 f3 bd
       -0.21253121 -0.01642199 0.008371686 -0.118815936
000130 cc a5 41 3e 58 b0 4f bd b5 04 2f be 54 47 96 3d
       0.18910903 -0.050705284 -0.1709164 0.073378235
000140 e0 94 45 3e 42 88 51 3d 08 a4 c6 bc e8 40 30 be
       0.19295073 0.051155336 -0.024248138 -0.1721226
000150 8b 0d 22 3e a6 d8 27 3d 95 10 88 bc 77 2c 2e be
       0.15825479 0.040978096 -0.01660947 -0.1700915
000160 13 95 e6 bc 94 08 d0 bd 6b 92 7c bd df 2d 37 3d
       -0.028147256 -0.10157886 -0.061663073 0.04472148
000170 59 8e 6d bd d2 87 86 bd aa 3f 45 3e dd 6c 46 3e
       -0.05799708 -0.065688744 0.19262567 0.19377466
000180 e1 d0 1f be db cb 74 bc 0f 5e 4d ba 6e e8 42 3e
       -0.15607025 -0.014941181 -0.0007834145 0.19033977
000190 c2 16 28 3e 8b f4 a1 3c 27 c5 b0 bd 23 3c 22 bd
       0.16414931 0.019769927 -0.08631354 -0.039608132
0001a0 f5 57 e0 bd 37 66 3a 3e 2d b0 ab 3d 2d fc 53 3e
       -0.109542765 0.18203054 0.08383212 0.20701666
0001b0 7c 91 04 3e b3 8c 6c bc 5b 6a c5 3d 3d cf 2f 3e
       0.12946123 -0.014437842 0.09639426 0.17168899
0001c0 b9 d0 d5 3c 2e 68 97 bd f2 9b fb 3c 13 56 68 3d
       0.026100503 -0.073929176 0.030714009 0.05672271
0001d0 a1 4c a6 bd bc b1 48 bc 10 64 4c bd 6a f4 f1 bc
       -0.081200846 -0.012249406 -0.049900115 -0.029535491
0001e0 b1 e4 a2 bd 7f 17 0b bc 31 ab 37 bd 08 a4 0a 3d
       -0.07953776 -0.008489489 -0.044840995 0.03384784
0001f0 39 cc 89 3e 54 38 38 3d be 4a cb 3d 75 37 c7 bd
       0.26913622 0.044975594 0.09926365 -0.097273745

lstm.weight_ih_l1 f4 [128, 32]
000000 ab 4c ac 3d 6b e9 18 bd 72 2b 3b be c1 6e 12 3e
       0.08413061 -0.03733198 -0.18278292 0.14300062
000010 78 02 8e 3c c8 cb 7e 3d 5c 42 e5 bd d7 6c 7b 3c
       0.017335162 0.06220606 -0.11194298 0.015345774
000020 92 7b a6 3d 3e 85 8e bd 2c 8c bb 3c 9d 4f 1e 3d
       0.08129038 -0.06959008 0.022893988 0.038650144
000030 7a 61 39 3e 33 42 1e be 01 92 43 3d d8 90 20 3e
       0.1810359 -0.1545494 0.047746662 0.15680254
000040 05 dd 6c bc 4e 72 1c be 28 a5 fc bc c2 d3 85 3d
       -0.014456992 -0.15277979 -0.030840471 0.0653453
000050 4e e4 f7 bd 84 c0 ad bd 0a 22 52 3d 84 f9 d6 bd
       -0.121040925 -0.08483985 0.051301993 -0.1049681
000060 d2 6f c3 3d 84 d5 ab 3d 0a 96 f4 bc 9f 17 ae 3d
       0.095428124 0.08390334 -0.0298567 0.08500599
000070 8e 2f 30 be 69 b0 88 bd c2 52 f7 3c 56 33 22 3e
       -0.1720564 -0.066742726 0.03019083 0.15839896
000080 1f 6a 1c 3d 8f 0d ff bd c7 7c 72 bd 80 2d 45 bc
       0.038187142 -0.12453758 -0.05920103 -0.012034774
000090 a4 d9 92 bd 2b c6 2d 3d e3 f0 e1 bd 2e 25 b8 3d
       -0.07170418 0.042425316 -0.110322736 0.089914665
0000a0 fb 95 6a 3d 93 d5 37 bd 58 cb ab 3d b6 fb ac 3d
       0.05727194 -0.044881415 0.08388394 0.084464476
0000b0 c4 e2 31 3e 31 76 6d be f7 b5 0e be a7 5a 88 3d
       0.1737166 -0.23189618 -0.13936602 0.066579156
0000c0 1e 81 00 bb 26 df 66 3d c8 39 5d be f1 03 e9 bb
       -0.001960821 0.056365155 -0.21604073 -0.0071110656
0000d0 dd 06 ca bb f1 92 60 bd 3f 27 8d 3d 97 d7 fb bc
       -0.006165369 -0.054827634 0.06892251 -0.03074245
0000e0 16 b3 86 3d 3d bb 70 3d 62 ee 84 3d 6a 9c d7 3d
       0.06577127 0.058772314 0.064907804 0.105278805
0000f0 89 2e 6b be 9b e9 3d be 1f ef 05 3e 12 8b 73 3d
       -0.2296697 -0.18546145 0.13079499 0.0594588
000100 12 8b d0 bd 3f ac b4 3d 17 0c a1 bd cb 88 30 be
       -0.101827756 0.08821916 -0.07863634 -0.17239682
000110 8e 9a 85 3d c7 c9 f7 3d 02 fc be 3d 85 16 a1 ba
       0.065236196 0.12099033 0.093254104 -0.0012290037
000120 4e 73 7c 3d 58 56 c5 bd 85 2b 94 bc d3 dd e5 3d
       0.0616334 -0.096356094 -0.018087158 0.1122395
000130 3a 33 d2 3d 21 fb 29 be 45 6d 64 3d e1 7e ce bd
       0.10263677 -0.16599704 0.05576827 -0.10082794
000140 e0 54 ab 3d 02 67 46 be 72 13 78 3d 34 7a a4 bc
       0.08365798 -0.19375232 0.06056542 -0.020077802
000150 d3 8c 34 bb c8 aa 66 be 00 8f 5f 3e 7f 1e 46 be
       -0.0027549758 -0.22526085 0.21831894 -0.19347571
000160 ee cc 4b 3e 8f 3a 58 bd 3f a8 46 3d d5 45 3e 3d
       0.19902393 -0.05279022 0.048500296 0.046453316
000170 71 bc 1c 3d c3 5c ab bc 5d 25 f3 bd 3d 24 1a 3e
       0.03826565 -0.020918256 -0.11872361 0.15052886
000180 8d d8 26 3e 90 ad 35 bd 11 e5 b4 3d 3b e8 28 be
       0.16293545 -0.044354975 0.088327534 -0.16494839
000190 6e 45 fb bc e8 28 e0 bc 6e 28 c4 3d 14 cd ff bc
       -0.030672755 -0.027363256 0.09578024 -0.031225719
0001a0 cd b4 b6 3d 78 5e 1a be 15 34 c1 bd 23 5d 41 be
       0.08921204 -0.150751 -0.09433762 -0.18883185
0001b0 11 36 99 bd fe da 2c bd 46 f8 d7 bd d9 27 b7 3d
       -0.074810155 -0.042201035 -0.10545401 0.08943147
0001c0 d6 11 0a be 45 79 01 3e 97 08 18 3e 33 d8 13 3e
       -0.13483366 0.12643917 0.14847027 0.14437942
0001d0 89 10 dd 3c 03 1b d3 bd 7d d9 20 3d cb b2 60 3d
       0.026985424 -0.103078865 0.039269913 0.05485801
0001e0 00 43 19 3e 65 98 c6 3d 5a 8d 95 3d 50 43 cb 3d
       0.14966965 0.09697036 0.07302351 0.09924948
0001f0 70 5e be 3d 3c 76 a4 bd 56 4b de 3d 1f f4 10 be
       0.09295356 -0.08030364 0.10854213 -0.14155625
000200 22 14 2f 3e 7b df a2 bc e3 7a 02 be e4 ac 8b 3c
       0.17097524 -0.019881954 -0.1274219 0.017050214
000210 ec fb f7 3c 0a e6 7f 3d 13 b0 61 be 63 e9 3f bd
       0.030271493 0.06247524 -0.22039823 -0.046853434
000220 35 21 0d be 9d 61 d4 3d b0 ab 1d be 6c 8b ea 3b
       -0.13782199 0.10370181 -0.15397525 0.0071577337
000230 d1 a8 93 3d ed cd ba bd dd 64 33 be 79 e9 f5 3d
       0.072099335 -0.091213085 -0.17518945 0.12007422
000240 e5 3a 2b be 2c 69 c1 bd a9 ef 63 3d c5 8a a0 bc
       -0.16721685 -0.09443888 0.05564848 -0.01959742
000250 fe c5 04 3d ea c1 37 be 18 f6 bb 3d 56 2f 18 be
       0.032415383 -0.17945066 0.09177798 -0.14861807
000260 4d fd 2f 3e e8 fe cf 3d 26 82 a1 3d c7 ff 0e be
       0.1718647 0.101560414 0.07886152 -0.13964759
000270 a2 28 c1 bd 73 f1 3c be bf a2 b2 3d 18 41 ab 3d
       -0.09431578 -0.1845148 0.087224476 0.08362025
000280 d3 37 27 3e 67 ef 02 bc 96 e0 2f bd 61 d6 d7 3d
       0.16329889 -0.007991648 -0.04293879 0.105389364
000290 14 a7 17 be f1 b0 d2 bd e2 32 70 be 3c cb 4f 3e
       -0.14809829 -0.10287655 -0.2345691 0.20292372
0002a0 ef ad 52 be c3 45 4e 3d 21 16 58 be c2 ad b3 3d
       -0.20574163 0.0503595 -0.21102192 0.08773376
0002b0 55 73 31 bd 76 a4 0d be 2c b7 4c bc cf 4a 8e 3d
       -0.04332288 -0.13832268 -0.012494843 0.06947862
0002c0 77 fb a2 bd d7 f7 5b be aa 11 ae 39 91 95 31 bd
       -0.07958119 -0.21481262 0.00033201027 -0.04335553
0002d0 d1 5f 12 be cd 84 da 3d 31 31 e1 bd 1b 5c 43 bc
       -0.14294364 0.10669861 -0.10995711 -0.011923815
0002e0 da 96 5d 3e 3c 96 66 3e df 08 49 be 91 04 d2 bd
       0.21639577 0.22518247 -0.1963229 -0.10254777
0002f0 2a 2c 2f bd bc df 32 be b7 ba 54 3d 8d 12 59 3e
       -0.042766728 -0.1746816 0.051935878 0.21198483
000300 e6 e7 45 3d 00 b9 96 3d 75 49 16 be 4f 0f 93 bc
       0.04831686 0.07359505 -0.14676459 -0.017951636
000310 49 cd a5 bc 57 d3 38 3d bf 5b 2c be 90 e5 ec 3c
       -0.02023949 0.045123424 -0.16831873 0.028918058
000320 81 c0 18 bd d9 70 26 be 0a 6b 8b 3b 3a 1c bf bb
       -0.03729296 -0.16253985 0.0042547034 -0.0058322223
000330 c8 52 36 3e ea 3a 91 3c 46 ea 79 be 43 a6 c7 3a
       0.17805016 0.017728288 -0.24405774 0.0015232045
000340 72 fb 45 be 80 c7 e9 bd b5 ff 87 bd 71 46 24 be
       -0.193342 -0.11415005 -0.06640569 -0.16042496
000350 40 af 03 be 3e 89 26 3d 17 1d bb bd a4 a8 b8 bd
       -0.12859821 0.040658228 -0.09136408 -0.09016541
000360 26 6b 5e 3d c8 2c 35 3e 14 c0 c9 3d 68 cf bc bd
       0.054301403 0.17692864 0.09851089 -0.09219247
000370 d4 aa 6b be ce 9c 84 be be 33 f9 3d de e1 88 bd
       -0.23014385 -0.25900882 0.12168072 -0.06683706
000380 31 4e 54 bd 94 15 60 3d 3c 2a ce bd 52 11 ad ba
       -0.05183238 0.05470808 -0.10066649 -0.0013204014
000390 d3 49 d8 3d 67 e9 06 3d 2c f4 07 be 79 67 83 3d
       0.10560956 0.032937434 -0.13276738 0.0641622
0003a0 29 3d d4 bd d3 ee c9 bd a1 20 d1 bd ce 35 d7 bc
       -0.10363228 -0.09860005 -0.102113016 -0.026270773
0003b0 e1 34 24 3c 2b 27 86 3d 83 f3 4b be 51 72 5d 3c
       0.010022373 0.065504394 -0.19917111 0.013516025
0003c0 4d eb 0e 3d 6c 50 6e 3d 99 fb 0e bd 0b ae e8 bd
       0.03489237 0.058182165 -0.03490791 -0.11361321
0003d0 f4 95 09 bd 5c 1f 37 be ab ef 1c 3d 50 58 0f bc
       -0.033590272 -0.17883056 0.038314503 -0.008749083
0003e0 1c 07 cb 3d ca f4 a4 ba dc 93 75 be 5d f2 72 3b
       0.099134654 -0.001258516 -0.23982185 0.003707073
0003f0 65 ca ae 3d 78 b1 f4 3c 14 d6 9e 3c ba 86 12 bd
       0.085346974 0.02986978 0.01938919 -0.035773017

lstm.weight_hh_l1 f4 [128, 32]
000000 c6 0e a2 bd 4e 41 f3 3d b9 2a 71 3a 75 63 19 3e
       -0.07912974 0.1187769 0.00091997866 0.14979346
000010 9a 16 09 3e 08 36 26 3d e9 9d e1 bd 7c 2f e0 3d
       0.13387528 0.040578872 -0.11016447 0.10946557
000020 dc c1 a8 3d 28 42 eb 3c 20 b8 1d bd 02 de 94 39
       0.08240101 0.02871807 -0.038505673 0.00028394168
000030 06 7c 27 bb 4c 10 dd bd 56 bc 80 bd 94 54 cd 3d
       -0.0025556101 -0.10794124 -0.06285922 0.100258976
000040 17 04 ee bd b8 48 aa bc 6d dc 9c 3d 89 bc 02 be
       -0.11621874 -0.020786628 0.076592304 -0.12767233
000050 33 b8 47 3e 5a 16 e2 3b 3e cd 57 3d 00 f9 53 3e
       0.1950386 0.006899637 0.05268597 0.20700455
000060 7f 3b 85 bc 9a 31 0f 3d 5d 22 87 3d d6 49 20 3e
       -0.016263722 0.034959413 0.06598351 0.15653166
000070 34 54 ae 3d 59 d7 5d 3d 28 6c da 3d f7 87 14 bd
       0.08512154 0.05416045 0.106651604 -0.03626248
000080 57 2b 0a be d8 d2 73 bc d7 6f cb bc f5 e2 9b bd
       -0.13493095 -0.014881812 -0.024833603 -0.07611648
000090 30 f6 a2 bd f5 9e 34 3d 27 90 50 be 5c e2 0b be
       -0.07957113 0.044096906 -0.2036749 -0.13660568
0000a0 49 37 2f 3e f1 de 43 bd 44 df 3f 3e 07 b7 3d be
       0.17110933 -0.047820035 0.18737513 -0.1852685
0000b0 87 4d 1d be 25 44 3e be 0a 77 b1 3d 8b 69 a2 3d
       -0.15361606 -0.18580683 0.08665283 0.07930287
0000c0 a1 41 69 bd c1 89 4c 3d 58 ef 87 bc 75 d9 2b 3e
       -0.056947354 0.04993606 -0.01659362 0.16782172
0000d0 a8 58 51 bd ed 92 25 3d 36 33 a4 3b 05 f7 9b 3d
       -0.05110994 0.040423322 0.0050109876 0.076154746
0000e0 a3 a2 35 be db 47 33 3e 20 49 38 be 78 20 35 3e
       -0.17737822 0.1750788 -0.17996645 0.17688167
0000f0 64 87 70 bd 9a 36 d3 bd 91 b5 16 3e d3 6d b6 bc
       -0.05872287 -0.10313149 0.147177 -0.022269165
000100 67 36 61 3e 14 e2 ff 3b 98 a6 ba 3d 4a 4b 28 3e
       0.21993409 0.007808933 0.091138065 0.1643497
000110 14 f4 a7 3d 75 2e 7f 3d 9a 7b 88 3d 7d 65 94 bc
       0.08200851 0.062300164 0.066642 -0.0181148
000120 a1 fc 8e bd 7a 98 3b 3e cd fb 1d 3e 36 f1 99 3d
       -0.06981779 0.18319884 0.15428086 0.075167105
000130 02 5d 98 bb 9d fa 45 bb 1f af f1 3d 61 d4 42 bd
       -0.0046497593 -0.0030209192 0.1180098 -0.04756582
000140 f4 f9 58 bc 4d 3f bb bd f7 5a 82 bd 62 f6 10 bd
       -0.013243187 -0.09142933 -0.063650064 -0.03539122
000150 13 16 c6 3d 31 fe 6a 3e 77 ea 09 3e df 72 cc 3d
       0.09672179 0.22948529 0.13468347 0.099828474
000160 53 88 c0 3d 7c 09 eb bd 81 6f 2b bd c6 3e fe 3d
       0.09401002 -0.114764184 -0.041854385 0.12414317
000170 1b 4a 55 bb 3e 6f c0 3c de 0a ce bd f5 4f ad 3c
       -0.003254539 0.023490544 -0.100606665 0.02115629
000180 7b 87 42 bd 47 0a 96 bd 01 78 ce 3d 48 c4 5f 3e
       -0.047492485 -0.07326179 0.10081483 0.21852219
000190 64 86 07 bd b4 92 65 3e cc 5d e5 3d bc 0f c0 3c
       -0.03308715 0.22419244 0.11199531 0.023445003
0001a0 22 25 75 3c d3 3a 93 bd d1 24 c2 bb 25 e5 ce 3c
       0.014962466 -0.07188954 -0.005924799 0.025255749
0001b0 53 b4 4f be 7a 4a cc 3c 54 b8 d0 bd 88 13 21 bc
       -0.20283632 0.024937857 -0.10191408 -0.009831317
0001c0 ef 93 24 3e 68 8d 3a 3e ea 18 37 be 79 cd 0b bd
       0.16072057 0.18218005 -0.17880598 -0.0341315
0001d0 87 14 d3 bd 78 00 e0 bd 20 70 8e 3c 10 0f ec 3d
       -0.1030665 -0.109375894 0.01738745 0.115263104
0001e0 97 6e 4e be e2 f9 41 3e 68 a8 d7 3d b3 24 8a bc
       -0.20159374 0.18942979 0.10530168 -0.016863203
0001f0 c3 3a d0 3d b1 ba 41 3e 98 fc 02 3d 7e 11 f6 bd
       0.10167458 0.18918873 0.031979173 -0.12015055
000200 3e db 34 3e b7 29 d3 bd ad 7e a6 bd 2a 47 4f 3e
       0.1766176 -0.10310691 -0.0812963 0.2024199
000210 0f 04 6d bd d6 8e 41 3e d6 ab 4e be 7b 3d 4e 3d
       -0.0578652 0.18902144 -0.20182738 0.0503516
000220 2d 87 3f 3d d1 f0 38 bd 0b 60 01 3e ed 84 59 be
       0.046759773 -0.045151535 0.12634294 -0.21242113
000230 86 0f 0a be c7 5e ee 3c c0 da b7 bd 2e 72 9f bd
       -0.13482484 0.029097928 -0.0897727 -0.0778545
000240 7b 2e cc bc 27 ee d1 bd 47 b6 69 be dc f0 49 be
       -0.024924507 -0.10250502 -0.2282344 -0.19720787
000250 3a 3a db bd 5b 29 45 3e 21 ae 9b 3d 61 64 4d 3e
       -0.10704465 0.19254057 0.07601572 0.20057823
000260 65 4b da bd c0 08 aa bd 5e 3e c1 bd 4a b2 54 3e
       -0.106589116 -0.0830245 -0.09435724 0.20771137
000270 63 5e f6 bd 4d 2a 58 3e 08 9e 1a bd d9 5e 1d 3e
       -0.120297216 0.21109886 -0.037748367 0.15368213
000280 5e 6f 83 3d 00 68 a7 3d b8 83 35 be ef 41 08 bd
       0.06417726 0.08174133 -0.17726028 -0.033266004
000290 79 fc 4a 3d 9d 17 36 bd f6 90 93 3d 4d 00 08 be
       0.049557183 -0.044456113 0.072053835 -0.13281365
0002a0 ae ab 1d bd dc 4c 91 bd b4 0f 56 3e 25 cb de 3d
       -0.038493805 -0.07094738 0.20904428 0.108785905
0002b0 b6 81 1d be 83 0f 3f be b1 2a d5 3d 1f cf 12 3e
       -0.15381512 -0.18658261 0.10408533 0.14336823
0002c0 c0 b8 07 bd f0 a6 5f 3e 12 72 a9 bc 08 a6 7d 3d
       -0.033135176 0.21841025 -0.020684276 0.061925918
0002d0 17 14 11 bd 02 35 de bc 71 8c bd bd 78 7c e1 3d
       -0.03541955 -0.027124885 -0.09255303 0.11010069
0002e0 c0 82 ec bc 88 a7 0f 3e 27 9f 27 be 0e f5 43 3e
       -0.02887094 0.14028752 -0.16369306 0.1913645
0002f0 77 7f b2 bd 3d 0a 0d 3d 1a b3 c0 bc 09 be 75 bd
       -0.08715718 0.034433592 -0.023522902 -0.059995685
000300 85 7e 36 3d d9 c8 97 3c ee c3 0b 3d 44 aa 9c bd
       0.044554252 0.018528389 0.0341224 -0.07649663
000310 d3 a9 b4 bc ee e4 8a bd 5e bb 11 be 1d 21 d1 bd
       -0.022053635 -0.06781946 -0.14231631 -0.10211394
000320 a7 e6 ff bc b9 c9 53 3e 5d ed cf 3d 2f 80 87 3d
       -0.031237913 0.2068242 0.10152695 0.06616246
000330 de 04 96 bc c1 02 8e 3d f0 04 82 3d e7 0a bd bc
       -0.018312868 0.06934119 0.06348598 -0.023076488
000340 a5 1d d8 bd 09 8f a7 bc 49 79 c4 bd 66 61 66 3d
       -0.10552529 -0.020453947 -0.09593446 0.05624523
000350 53 d1 bc 3c 12 3a 88 bd 14 40 3c 3e 1c bb 24 3e
       0.023049032 -0.06651701 0.18383819 0.16087002
000360 75 06 15 be 07 80 ff bc 3d 44 a4 3c 68 4b 1f 3c
       -0.14553244 -0.031188978 0.02005207 0.009722568
000370 49 78 92 bd fd d3 e0 3d 63 dc 10 3e 76 c7 54 bd
       -0.07151849 0.109779336 0.14146571 -0.051948033
000380 3f dc d4 3c a2 95 2f 3a 0e db cf bb d5 86 07 3e
       0.025983928 0.0006698017 -0.006343252 0.13235028
000390 c7 7d 94 bc 17 ab c5 3d 5c 60 50 be 29 f0 4c 3d
       -0.018126382 0.096517734 -0.20349258 0.050033722
0003a0 c9 fc 46 3e 79 72 ab 3d 6e a5 ee bc d9 fe 34 be
       0.19432367 0.08371443 -0.029131617 -0.17675342
0003b0 80 f5 0f be 68 5b 6c 3c b0 b1 19 3d 95 d9 33 3e
       -0.14058495 0.01442609 0.03752297 0.1756347
0003c0 5a c0 36 3e ce 03 0a 3e 33 1f b3 bd 82 60 ef 3c
       0.17846814 0.13478014 -0.08746185 0.029220823
0003d0 40 8c 8e bd 97 73 13 3e 58 15 36 3e 13 30 15 3e
       -0.06960344 0.14399563 0.1778158 0.1456912
0003e0 37 73 84 3d 54 bd 6d 3e a7 24 13 3c 59 a7 93 3a
       0.06467288 0.23216754 0.008980907 0.0011265083
0003f0 24 5f 91 3c e1 c0 8c bc d9 fc 28 3e b2 c4 c3 3d
       0.017745562 -0.017181816 0.16502704 0.09559001

lstm.bias_ih_l1 f4 [128]
000000 75 6e f4 3d 4f 88 7d bd 25 bd 26 bd 9e 27 21 be
       0.119351305 -0.061897572 -0.040707726 -0.15737769
000010 e7 11 08 3c 76 fe 5a bd 57 af 03 3e 37 df 08 3e
       0.0083050495 -0.05346533 0.12859856 0.133664
000020 45 d8 24 bc 9e 09 30 3d b0 95 da 3d fa ff 42 bc
       -0.010061328 0.04297792 0.10673082 -0.01190185
000030 4e f1 91 3d da bc 66 3e b3 e4 76 bd a2 1a 4c bd
       0.07126103 0.22532979 -0.0602767 -0.049830087
000040 c9 e1 16 3e 72 02 29 3e 1b 7d 0d bd d6 0c eb 3c
       0.14734568 0.16504839 -0.034543138 0.028692644
000050 fc 6b 2a 3e c7 b0 50 bd bd 18 22 3e 5d 9d ff 3b
       0.16642755 -0.050949838 0.1582975 0.0078007416
000060 db db 16 bd 7c f3 0f 3e 90 4a 8c 39 27 25 32 3e
       -0.036830764 0.14057726 0.00026758434 0.17396985
000070 26 9b 08 bd cb 50 c1 bd f4 a6 bc bd e8 89 5b 3e
       -0.033351086 -0.09439238 -0.09211531 0.21439326
000080 b6 a2 85 3d eb 95 8d bd 2d 37 2a 3e c1 4c 0d bd
       0.06525175 -0.0691336 0.1662261 -0.034497026
000090 2b 25 b3 3d 2e a4 9c 3d c8 53 3d 3d 76 62 d6 bd
       0.087473236 0.07648502 0.04622248 -0.10467999
0000a0 d1 af f0 bb f6 ba d5 3c 35 d7 bc bd 3e 3d 95 3d
       -0.0073451777 0.026090126 -0.09220735 0.07287072
0000b0 37 34 29 bd a1 00 b3 bd 72 cd 79 bd 38 97 91 bd
       -0.04130956 -0.08740354 -0.060986944 -0.07108921
0000c0 ae d7 1d 3e f3 a0 ac bd d1 2e 07 bd b4 0c 0c be
       0.15414307 -0.08429136 -0.033003632 -0.13676721
0000d0 f9 a8 1a 3e f8 63 43 3d c5 79 0a 3e c2 7d 0b 3e
       0.1510352 0.04770276 0.13523014 0.13622192
0000e0 ca d1 2a 3e 98 88 2f 3e 6c b4 3d 3e 56 86 5c 3e
       0.1668159 0.1714195 0.18525857 0.2153562
0000f0 f1 0e 50 3e 8a 74 ba bd 83 01 13 3d 1d 1b 96 3d
       0.203182 -0.09104259 0.035890114 0.0732939
000100 a2 ed d2 bd 5b e2 1f bd 8e c2 18 3d 14 02 05 be
       -0.10299231 -0.03903423 0.037294917 -0.12989074
000110 ae 53 de 3b 56 d8 52 3e b3 2d 77 3d d9 4b 36 bc
       0.0067848777 0.20590338 0.060346317 -0.011126482
000120 7a d8 36 3e 8a 53 1e 3e 82 4a 46 3d 48 1d 49 bd
       0.17856017 0.15461555 0.0484109 -0.04910019
000130 46 6e cd 3d 97 59 09 3d 99 c4 2a 3e 7c 9a 04 3e
       0.100307986 0.033532705 0.16676559 0.12949556
000140 ea 1a f6 3d 17 09 9a 3d 2f 12 5b be cb bd 9c 3b
       0.12016852 0.07521265 -0.21393655 0.0047833673
000150 70 ee 74 3d 84 61 36 bd 9e 70 14 3e ee 27 56 3e
       0.059797704 -0.044526592 0.14496085 0.2091367
000160 73 25 bc bd f4 89 e7 3d bf 97 1c 3d 27 b2 3d 3e
       -0.0918683 0.11305609 0.038230654 0.18524991
000170 0c 1d 00 3e 7a a6 94 3d 93 26 e1 3d 1e 4a 19 3d
       0.1251108 0.072583154 0.109936856 0.0374242
000180 9c 4b 98 bd a4 24 7b 3e 2f 91 51 3d 95 8a 17 be
       -0.07436296 0.24525696 0.05116385 -0.14798959
000190 e6 1e 0f 3b 0a d4 20 3e 3f 95 47 bd 81 84 62 3e
       0.0021838485 0.15705886 -0.048726317 0.22120859
0001a0 4e e5 ff 3c 53 20 30 3e 94 ab 65 3d f3 3f 58 3e
       0.03123727 0.1719983 0.056071833 0.21118145
0001b0 9e 9f 79 3e 43 e8 fd 3d 61 db 5a 3c 8a ff 31 3e
       0.24377295 0.12397816 0.013357968 0.17382637
0001c0 ed 8a 00 3d a6 2f 80 3d 69 c7 c3 3d 1f 04 65 bd
       0.03138249 0.06259088 0.09559519 -0.055912133
0001d0 e9 2b bc bd dc 0b dc 3d cf 97 b2 3d 5e 69 3c bd
       -0.09188063 0.107444495 0.087203614 -0.045998923
0001e0 de 3a 4f bb 0f 77 72 bd 3b ae 58 bc bb 91 65 bd
       -0.003162078 -0.059195574 -0.0132251335 -0.056047183
0001f0 86 be 47 3e f0 01 4e 3e a7 94 cc bd 57 2f 89 39
       0.19506273 0.20117927 -0.09989291 0.00026165947

lstm.bias_hh_l1 f4 [128]
000000 6e 55 1b be 3c b3 af bd b7 e9 f0 3d fe 89 91 bd
       -0.15169308 -0.08579108 0.117633276 -0.07106398
000010 bf 3c c1 3c 67 e4 b1 3d db e0 5c bd 23 9c 74 bd
       0.023588536 0.086861424 -0.053925376 -0.059719216
000020 62 08 82 bd 71 41 83 bd 8d f7 57 3e 1b ee 02 3e
       -0.06349255 -0.06408966 0.21090527 0.12786143
000030 21 c9 2e 3e f7 61 4c 3d 5c a4 c1 3c e1 0e 04 3e
       0.17068912 0.049898114 0.023637943 0.12896301
000040 d3 e8 49 3e e8 8a bd bd 36 a6 4b bd 51 d3 e6 bd
       0.19717722 -0.0925501 -0.049719058 -0.11270774
000050 9f 79 ec 3d b9 db f9 bc 07 5b 36 3e c6 13 81 3c
       0.11546635 -0.03050028 0.17808162 0.015756499
000060 32 dc f3 3c 9e a4 c5 bc 9b 53 08 3e 10 34 05 bd
       0.029768083 -0.024126347 0.13313143 -0.032520354
000070 eb 0c 6e 3d eb ff 12 3d aa 1c 85 3c 98 3a 96 3d
       0.05811779 0.035888594 0.01624902 0.073353946
000080 84 0f c4 bd ba ae d8 3d d8 a2 9d 3c 0a da b2 3c
       -0.09573272 0.105802014 0.019242689 0.021832485
000090 26 69 4b 3e 81 f8 eb bc 87 f3 aa bd b5 20 85 bd
       0.1986433 -0.02880502 -0.083472304 -0.06500379
0000a0 71 e7 4c bd ae 3b fe 3c 94 3b 93 bd 05 aa d3 ba
       -0.050025407 0.031034317 -0.07189098 -0.0016148692
0000b0 a4 7d c1 bd d0 66 32 3e e8 bc 84 bd dc 72 5e 3e
       -0.09447792 0.17422032 -0.064813435 0.21723503
0000c0 62 4c 0a 3e 94 36 24 3e 78 e3 2a 3e e2 0c 22 be
       0.135057 0.16036445 0.16688335 -0.15825227
0000d0 07 74 35 3e af f2 d2 bb 90 38 0f be 99 f8 11 3e
       0.17720042 -0.0064376215 -0.1398642 0.14254989
0000e0 21 94 38 3d 00 20 00 3e 19 a5 1c 3d 92 fc 4a 3c
       0.04506314 0.12512207 0.038243387 0.012389319
0000f0 33 f6 74 3d a7 57 9a bd e1 8c 6f bd c3 50 44 bd
       0.059805106 -0.075362496 -0.058483962 -0.047928583
000100 92 f2 bf 3d b4 1c c2 3d 6b 03 bc 3d ce 9d 90 bd
       0.093724385 0.09478131 0.091803394 -0.07061349
000110 8b 14 2e bd 57 fb a2 bd b6 14 70 3d d5 cf f5 bc
       -0.04250006 -0.079580955 0.0586135 -0.030006329
000120 03 55 57 3c b1 3d 2f 3e 3f 0b bb 3d 6b 73 a6 bc
       0.013142827 0.17113377 0.091330044 -0.020318707
000130 7b 14 ae bb 29 e0 4d bd bd 4a 26 3e 04 46 ad bd
       -0.0053125 -0.050262604 0.16239448 -0.0846062
000140 f0 58 1d bd cf 94 6c 3e 38 00 b8 3d 0a d7 b4 3d
       -0.038414896 0.23103641 0.08984417 0.08830078
000150 03 96 10 bd e4 be e9 3d 93 77 32 3e 07 e6 8b 3d
       -0.035299312 0.114133626 0.17428426 0.068309836
000160 ca 2c 23 3d 9e ab 4e 3e e6 8c 4b be 99 8d 78 bd
       0.039837636 0.20182654 -0.19877967 -0.060681913
000170 55 27 f2 3d 6c 8c 97 3d 81 dd 8e ba 9a a7 d2 bc
       0.11823908 0.0739983 -0.0010899754 -0.025714684
000180 c6 25 21 3e e8 3d 2c 3e 6e 1f e3 bd f4 ab 05 be
       0.15737066 0.1682049 -0.11089979 -0.13053876
000190 b7 72 36 bd 0f 58 ec 3d 6f 5c ca 3d dd 92 08 3e
       -0.044542994 0.11540233 0.098809116 0.13337274
0001a0 a6 13 fe 3d 4a 1c 52 bc 4d 44 b0 bb 91 83 d3 3c
       0.124060914 -0.012824127 -0.005379236 0.025819572
0001b0 c0 40 22 3e 22 71 b2 3c d8 c5 41 3d 90 59 2f 3e
       0.15845013 0.021782462 0.04730782 0.17124009
0001c0 17 35 48 3e ea 51 07 3d 1f 0d 36 3e cf 55 d3 bd
       0.19551502 0.033037104 0.17778443 -0.10319101
0001d0 b3 30 2d 3e 3e ac 31 3e a8 66 ed 3d 26 6f bb 3d
       0.16913109 0.17350861 0.11591846 0.09152059
0001e0 06 f0 d2 bd 55 b0 c5 3d 1a de 59 3e 7e 49 ad 3c
       -0.10299687 0.09652773 0.21276131 0.021153208
0001f0 c0 6f af 3d a5 01 09 3e f8 c1 03 3e e4 25 c9 3d
       0.085662365 0.13379534 0.12866962 0.0982168

mlp.weight f4 [1, 32]
000000 30 41 cb 3d 5a e8 4c be 15 fc 40 be 3c a5 a8 3d
       0.09924543 -0.2001051 -0.18846162 0.08234641
000010 6a d7 cf 3d c3 6c 79 3e 4c 49 f2 bd dd c6 56 be
       0.10148509 0.24357896 -0.118303865 -0.20974298
000020 72 d0 f8 3d 94 3d 35 3d 91 d9 05 3e 80 50 30 be
       0.12149133 0.04424818 0.13071276 -0.17218208
000030 35 09 02 be f3 72 1c be 60 b6 79 3e d8 0e 86 3d
       -0.12698825 -0.15278225 0.24385977 0.065458
000040 f1 a2 b9 3d e2 03 30 3e 25 69 ea bd 86 94 4a be
       0.09064282 0.17188981 -0.11445836 -0.1978322
000050 b3 20 d0 3d 03 c7 f0 3d a6 fc 02 3d f8 d6 56 3e
       0.10162487 0.117567085 0.031979226 0.20980442
000060 4d 02 45 be 77 14 67 3e 44 7e cf bd 07 2c 5f 3e
       -0.19239159 0.225664 -0.10131505 0.21794139
000070 41 bd 52 be aa f8 e6 3d 61 5c c5 bd 2a 5a de 3d
       -0.20580007 0.11277898 -0.096367605 0.10857041
