checkpoints/short_term_forecast_m4_Weekly_LSTM_m4_ftM_sl96_ll48_pl96_dm32_nh8_el2_dl1_df32_fc3_ebtimeF_dtTrue_Exp_0/checkpoint.pth (torch, 55083 bytes, 9 tensors)

lstm.weight_ih_l0 f4 [128, 1]
00000000: b0d1 05be d8bf 163c 58d5 b13d 5252 9c3d
00000010: 2dde 133d 8989 ecbd 4efa 24be 838a 273e
00000020: 8c90 8bbd 0e1d 11be ba26 e03d 8fe2 2ebe
00000030: f652 e93d c16e 05be a23b b83d 30c3 eabc
00000040: 16fc 36bc e0c6 93bd b8a5 cd3d ca20 ae3d
00000050: 4ed1 dc3d d5c7 86bd d5ef 323e 65fd 4ebc
00000060: 8a8a 3ebd 9a0c 26be f63f f53d ae28 1fbe
00000070: 5cae e9bd 5074 95bd a78f 923d c72e 993d
00000080: 7e2e ef3d cde3 493c 7d9d b03d 3231 ee3d
00000090: 2713 2dbe ed93 17be f7cc 2ebe 942a fdbd
000000a0: 8a6d b43d 271c 213e dc60 823d 87ee 0bbe
000000b0: a96c af3d b67c cb3d 81f3 203e a6ae 24be
000000c0: 4f67 fcbc ba50 babd 7bf0 1d3e 8a94 c93d
000000d0: e430 cd3c e38d 343c ca68 9a3d 7f17 0ebe
000000e0: 60f4 91bc 4997 07be 082f 813d f091 603d
000000f0: f27b 1dbe eed1 41bc 838a a83d 5d8e b63d
00000100: 0dc4 2a3e d035 23be d216 62bd 7512 94bd
00000110: 7614 19be 78c7 2cbe 126d 05be 62e4 a83d
00000120: 8962 1abe 20ad a5bd bb23 f2bd 744b 0bbe
00000130: d970 233e b58a 9cbc 24a2 71bd 0b06 253e
00000140: 46ee d0bd cb44 99bd 8693 6bbd 2f8e f2bd
00000150: a643 adbd 948a 2ebd 133a 683c ad15 d5bd
00000160: ab91 dcbb cb4a 323e a6c5 3a3c 4893 a9bc
00000170: fe33 32be 14e2 03be 266f b83d 26cd d83d
00000180: 2ab7 2abe 8345 443d aa66 2f3d ade0 58bd
00000190: ecab 0d3e b6e8 d73c 0d15 0abe 1f7f 183e
000001a0: 214e a73d 26cf abbd 780b ac3c 29b6 033e
000001b0: be0b 0b3e 88d0 ab3d 246a 7c3d 76ef 213c
000001c0: c051 c63b 4cdf 03be d947 d03c 6be6 30be
000001d0: f6d2 d63d 1dc3 fbbd e66e eebd 6ef9 103e
000001e0: 62c8 6bbd e4de ecbd f60f 12be 9299 a23d
000001f0: 1d47 21be c7fb 093e 89cf 8d3d 97a2 293e
-0.1306827 0.009201013 0.0868327 0.07632889 0.036100555 -0.1154967 -0.16111109 0.16361432
-0.068146795 -0.1417124 0.109448865 -0.17078613 0.11392777 -0.1303053 0.08995749 -0.028657526
-0.0111685 -0.07215667 0.10041374 0.08502348 0.10782109 -0.06581084 0.17474301 -0.012633656
-0.04651884 -0.16215745 0.1197509 -0.15542862 -0.114102095 -0.072975755 0.07156306 0.07479625
0.116787896 0.012322378 0.086237885 0.11630477 -0.16901837 -0.14802523 -0.17070375 -0.12361637
0.088099554 0.15733396 0.06366131 -0.1366521 0.08565647 0.09935896 0.1571789 -0.16082248
-0.03081098 -0.090974286 0.15423767 0.09842785 0.025047727 0.011020157 0.07539518 -0.1387615
-0.017816722 -0.13241304 0.063077986 0.054826677 -0.15379313 -0.011829836 0.08229544 0.089138724
0.1667635 -0.15938497 -0.055197544 -0.07230083 -0.14949211 -0.16872966 -0.13029888 0.082466856
-0.1507665 -0.080896616 -0.11823221 -0.13603002 0.15961017 -0.01910911 -0.05899252 0.16115586
-0.10201697 -0.07483824 -0.057513736 -0.118435256 -0.084601685 -0.042612627 0.014174002 -0.10404525
-0.006731232 0.17411344 0.011399662 -0.020700112 -0.17402646 -0.1287921 0.09005575 0.10586004
-0.16671434 0.047917854 0.042822517 -0.052948643 0.13835114 0.026356082 -0.13484593 0.14892243
0.08169199 -0.0838912 0.021001562 0.12862457 0.13578698 0.083893836 0.06162466 0.009883752
0.006052226 -0.1287815 0.025424885 -0.17275397 0.10489456 -0.12293074 -0.11642246 0.1415765
-0.057564147 -0.115659505 -0.14263901 0.079394475 -0.15749784 0.13474952 0.0692435 0.1656593

lstm.weight_hh_l0 f4 [128, 32]
00000000: 4c43 8dbd 11ac 10be 9b20 50bb 102d 103e
00000010: 2714 90bd f796 27be ecee 0b3e 309c e33d
00000020: 4f4f 153e 3788 e83d d74e ad3c 4642 12be
00000030: 5129 0bbe 7b40 a8bd ad4c cebd 0576 0cbe
00000040: 4762 123e ca4c 073e 7cde ccbd db1a 35bc
00000050: ee39 3c3e d7c5 b03d ac9f 14bd a28b 33bd
00000060: 385b b83d 1e6d 8dbd 6953 09be 905d 49bd
00000070: 2b2c e63d b32d 92bd d5be 0cbe f828 a3bd
00000080: d63a 80bd 6eee 0ebe 9cf2 39bc b331 a93d
00000090: b25d 203e 5c2e 2d3d a78f 093e f217 9f3d
000000a0: 4e9c 55bd 90c5 03be 2dbe 5cbd 6949 a03d
000000b0: 6488 383d d01f 28bd 5d6d 7bbc 667d 873d
000000c0: aed6 b7bc 0049 0b3e 0013 f6bd 3b0b 733c
000000d0: ca85 ab3d 8dd8 153e 483a 003d 08ec ae3b
000000e0: d7c7 193e 8e95 06be 648e 9dbd 05eb e1bd
000000f0: 6960 333e 014c 133b b6e9 0abe 488b e63c
00000100: 45c9 2abe 401f d23d 7294 113e f39a 983d
00000110: ad51 09bd 1bf7 c8bd e40b 1f3e 8ee3 0bbd
00000120: fa7e 953d ce2b 41bc f195 183e 6666 f5bc
00000130: ba64 df3d b5ad 06be 5e46 14be db57 ed3c
00000140: f447 143e c8c4 ecbd fdf6 f83d 3f99 ba3c
00000150: 57f0 1bbe d151 d8bd 4bba c6bc 7c5e ed3c
00000160: 9636 9d3d 7565 243e 43c6 223e 5394 14be
00000170: 925e cb3d 25eb 3ebd 336a 69bc 7e02 263e
00000180: 78d3 04bd 2f4a 73bd 0531 e23d ff45 6f3b
00000190: 026d 823d e1a0 8c3c 8480 283e 2b31 043e
000001a0: 17bf 6c3d 85c4 9a3c 4658 883d a483 8bbd
000001b0: 5167 b63d e1ab 123e b3e8 193e 89c0 cabd
000001c0: 1dbb a2bd d5f0 1a3e c15a 1c3e 1550 dc3d
000001d0: 7db2 213e beef 253e 30ac c0bd dc8e 0fbe
000001e0: 1619 2bbb e66b dc3d a981 a2bd f2f6 dcbd
000001f0: 9391 32be 72fa cc3c 1d35 1d3c bddf dcbd
00000200: 17ad 893d 1ebc 35bd 4b74 2bbe 582d c5bc
00000210: f795 4dbe c90b 2d3e 4f28 27be ecb3 b43d
00000220: 42b1 dabd 80c7 e5bd ab76 863d 62f1 9d3d
00000230: 4c95 413e 1c48 193e 3173 bdbd 749a 02bd
00000240: 18cc 1a3d 42f9 033e 0ac9 c8bd 871d d9bd
00000250: cac7 983d ea74 293e 018f 2a3c 3986 08be
00000260: 2dc7 d3bd 9325 25be dc73 59bd cdb7 8d3d
00000270: 4258 763a 86c3 963d 6112 853d f652 313e
00000280: 5e75 a53d 8bf0 cd3d 01ed 153d b0e0 15be
00000290: f8e8 823d 2e72 313e 43d5 e43d 7b00 53bc
000002a0: 87c9 30bd 496d ab3d 2428 22be bc1c ebbd
000002b0: c2a2 953d 53bf 8c3d b1fb 563c a444 45bd
000002c0: 1593 95bd 053e 2ebd ed80 33be 25fa b2bc
000002d0: 06c8 943d eede 16be 2464 33bc b712 263e
000002e0: 7f73 c8bb 4707 8c3c 58e8 8f3d f32c 6fbd
000002f0: 8213 25be cf07 63bd 168f 423e 6724 e2bc
00000300: 3cde 0d3e b908 673d f3e0 9c3c eed1 efbd
00000310: 29d6 d33d 9ee4 303e 93a6 2dbe 7829 3c3e
00000320: 4574 21be a4ac 06be 2937 853d 76ac f73d
00000330: 8049 cabc 3a65 82bd f473 97bd d0d2 a33b
00000340: 27c7 633d 25f3 55bd 6052 41be 4735 1cbe
00000350: 8981 fa3d 872c e5bd 2ee1 d4bd a859 813d
00000360: ed32 bf3d c75f c2bd 7847 1cbd 87e0 d4bc
00000370: 1acb 10bd 4a87 1dbd 4e2c 1d3e 29cf 07be
00000380: c25f b83d 9a28 c83c b5f9 0f3e c497 bdbc
00000390: a08e 61bd 4d71 17bd 9273 a3bc e8b8 3dbd
000003a0: f09e be3d c436 2f3e 3874 91bd 8f71 0dbd
000003b0: ffcf 4ebc 8bc1 ae3b 042d 753c d765 023e
000003c0: 5508 dc3c 40f9 163e 132f af3d 4921 90bd
000003d0: 064f 24be cfa9 66bd e2d5 c03b 14e9 853d
000003e0: 467c 20be 9ec7 a4bd e5e6 b83d aac6 07bd
000003f0: c292 023e 759f 1dbe 4a53 c33d 445e 16bd
-0.068976015 -0.14128138 -0.0031757716 0.1407969 -0.07035094 -0.16366182 0.1366536 0.11113775
0.14581035 0.11354106 0.021155758 -0.14283094 -0.1358998 -0.08215424 -0.100732185 -0.13716896
0.14295302 0.13212886 -0.10003373 -0.011053766 0.18381473 0.08631485 -0.036285087 -0.043834336
0.090017736 -0.06905578 -0.13410725 -0.049161494 0.11238893 -0.07137623 -0.13744672 -0.079667985
-0.06261222 -0.13958141 -0.0113493465 0.082614325 0.15660742 0.04228054 0.13433705 0.07768239
-0.052151017 -0.12868333 -0.053892303 0.07826502 0.045051947 -0.041045964 -0.015345898 0.06615715
-0.022441234 0.13602066 -0.12015343 0.0148342205 0.083751276 0.14633389 0.03130558 0.0053381957
0.15017639 -0.13142988 -0.076931745 -0.110311545 0.17517246 0.0022475722 -0.13565716 0.028142586
-0.1667834 0.10259867 0.14216784 0.07451429 -0.033525158 -0.09812757 0.1553188 -0.03415256
0.072996095 -0.011790229 0.14900948 -0.029956054 0.10907884 -0.13152201 -0.14479968 0.028972557
0.14480573 -0.115609705 0.12156484 0.022778152 -0.15228401 -0.1056248 -0.024258753 0.028975718
0.07676427 0.16054328 0.15895943 -0.14509706 0.09930147 -0.04661097 -0.014246511 0.16211888
-0.032428235 -0.05939692 0.11044506 0.0036510227 0.06368448 0.017166557 0.16455275 0.12909381
0.057799425 0.018892536 0.06657462 -0.06812218 0.08906425 0.14323379 0.15030174 -0.099000044
-0.07945845 0.15130933 0.15268995 0.10757462 0.15790744 0.16204736 -0.09407842 -0.1401934
-0.0026107482 0.107627675 -0.07934887 -0.107892886 -0.17438345 0.025021765 0.009595183 -0.10784862
0.067224674 -0.044368856 -0.16743581 -0.024069473 -0.20076738 0.16899027 -0.1632397 0.0882338
-0.106783405 -0.11219692 0.06565603 0.07712056 0.18904608 0.14968914 -0.09250487 -0.03188558
0.037792295 0.12888053 -0.0980397 -0.10601335 0.07459982 0.16548505 0.010410071 -0.13332452
-0.10340724 -0.16127615 -0.053089008 0.06919823 0.0009397307 0.07361512 0.06497646 0.17316803
0.08079027 0.100556456 0.036602978 -0.14636493 0.063920915 0.17328712 0.11173489 -0.0128785325
-0.04316094 0.08370454 -0.15835625 -0.1148009 0.07306434 0.0687243 0.013121531 -0.048161164
-0.07303444 -0.042539615 -0.1752965 -0.021847794 0.07264714 -0.14733478 -0.010949168 0.16218077
-0.006117284 0.017093314 0.07026738 -0.058392476 -0.16120723 -0.05542737 0.18999895 -0.027605249
0.13854307 0.056404803 0.019150233 -0.11709963 0.10343582 0.1727471 -0.16958074 0.18375194
-0.1576701 -0.13151795 0.065046616 0.12093441 -0.02469325 -0.06366964 -0.07395163 0.004999496
0.05560985 -0.052233834 -0.1887908 -0.15254699 0.12231738 -0.111901335 -0.10394512 0.06315929
0.09335885 -0.09490924 -0.038154095 -0.02598597 -0.035349943 -0.0384591 0.15348932 -0.13262619
0.09002639 0.024433423 0.140601 -0.023143657 -0.05506766 -0.036973286 -0.01995257 -0.04631892
0.09307659 0.17110735 -0.07102245 -0.034532126 -0.012622832 0.0053331307 0.014964346 0.12734161
0.026859442 0.14743519 0.085539006 -0.07037599 -0.1604577 -0.056314286 0.005884872 0.06538597
-0.15672407 -0.080458865 0.09028415 -0.033148445 0.12751296 -0.1539286 0.095373705 -0.036710992

lstm.bias_ih_l0 f4 [128]
00000000: 365b 273e 974e bfbd d72f 203e 0f73 46bc
00000010: 5f2e 3f3c 90b5 4fbd 154e bf3d 1bac 08bd
00000020: 1a63 24bd 6382 33be debb 14bc 38a9 e9bc
00000030: eb0e 9c3d bc54 163e f529 1bbe 9299 22bd
00000040: 64b3 b33d ae83 edbc 2b4b 863d b669 a03d
00000050: 57e8 913d a7fc f9bd f3a5 b6bd d0fb 4a3a
00000060: 5078 273d 4ea2 923c 1f1b 243e 7168 dabd
00000070: 9aed 2e3e 60e7 06bd 02b4 b53d 5de4 d53d
00000080: ea00 273e 938f f03d c4fd a9bd 4e59 e93d
00000090: d9d1 e8bd b09f 2b3d 34ae a03d 0c74 193e
000000a0: cf07 0c3e 0f3e 0d3e 2c89 cabd a4fc 313e
000000b0: b3c8 953d 915a f2bc 8057 0b3e 80e1 d53c
000000c0: 0ac6 ba3d 8cd4 103e 05ac a83d e8e2 403d
000000d0: 2b9f 2a3e f069 0e3e d08e fa3d 19d0 ecbc
000000e0: ea78 d1bc fcba f73d b595 2d3e 6867 e1bc
000000f0: a7f7 05be cdd9 ad3c 3c1c 82bd 18d9 29be
00000100: 4ccb 103d 9f61 ebbd 70fa b7bd 47fa 7dbd
00000110: 4c01 8fbc 222d 04bd f7b5 2bbe c0c9 d3bd
00000120: 19fe 003e bf92 f63d 0cb6 07be 816f a7bd
00000130: 968f 2c3e 3eaf 0e3d 4d0f d9bc baed 383c
00000140: fc42 453e eb4b 2c3e d197 eb3d d06a 4ebd
00000150: 9706 02bd cc3b 8bbd f3de fcbd 8961 e43d
00000160: 96ba 1f3d d66c b7bd fa7f 6abd cdb8 233c
00000170: bbc8 f83c 8cd7 1a3e 934c 3e3e 7d6d 16be
00000180: 72e1 093e 6720 063e e86b ca3c 96d1 143d
00000190: 1e98 0cbe 8909 85bd e7ce 8e3d 0b4d 043e
000001a0: 617b 023e 54cc 4e3d 4efd a33d 53c8 073e
000001b0: f8ca d1bc 6cf7 b43d 84b8 703d 775c 563d
000001c0: f17d 253d 5b9d 23be acc8 9a3b 0869 0cbe
000001d0: a53b d53d 831e f1bb 0906 0f3e c5dc 6dbd
000001e0: a45d 5bbd 8d98 cfbd bbd2 e0bd dc0a 29be
000001f0: c986 383c 7300 62bd 0bc8 043e cbdc 683d
0.16343388 -0.09341162 0.1564325 -0.012112393 0.011668771 -0.05071026 0.09341065 -0.033367258
-0.040133573 -0.17530207 -0.009077994 -0.028523073 0.07620033 0.14680761 -0.15152724 -0.039697237
0.087744504 -0.028993454 0.06557306 0.07832663 0.071243934 -0.12206393 -0.08918371 0.00077432115
0.040886223 0.017899659 0.16025971 -0.10664452 0.17082825 -0.0329355 0.088722244 0.104439475
0.16308942 0.117461346 -0.08300355 0.11393987 -0.1136815 0.041900337 0.078457266 0.14985675
0.13674854 0.13793205 -0.09889445 0.17381531 0.07313671 -0.029584201 0.13607597 0.026108503
0.09119804 0.1414358 0.08235935 0.047091395 0.1666228 0.139076 0.122342706 -0.028907822
-0.025570352 0.12096211 0.1695164 -0.027515128 -0.13082753 0.02122202 -0.063530415 -0.16586721
0.03535013 -0.11493229 -0.08983314 -0.06200626 -0.017456673 -0.032269605 -0.16768633 -0.10341215
0.1259693 0.12039708 -0.13253039 -0.081755646 0.16851649 0.034835093 -0.026496554 0.011287147
0.19263834 0.16825835 0.11503566 -0.050394833 -0.031744566 -0.06798515 -0.12347212 0.11151416
0.0389963 -0.08956306 -0.057250954 0.00999279 0.030369153 0.15121287 0.18583898 -0.14690204
0.13464907 0.13098298 0.024709657 0.03633269 -0.13729903 -0.06495959 0.06973057 0.12920015
0.12742378 0.05048783 0.080072984 0.13260011 -0.025609478 0.088362545 0.058769718 0.052334275
0.04040331 -0.15977995 0.004723629 -0.13711941 0.10411767 -0.0073583736 0.13967146 -0.05807187
-0.0535561 -0.101365186 -0.10977694 -0.16508049 0.011262604 -0.05517621 0.12966935 0.05685119

lstm.bias_hh_l0 f4 [128]
00000000: a71b f33c 8819 03be 4f03 053e 2e52 cdbd
00000010: 6137 57bd d40f 463d ac97 6dbd 00b2 ceba
00000020: 573f 563d b619 053e 9a27 e9bd 55d2 3a3e
00000030: b36b 1c3b 6faa abbd 1503 48ba 525f 0b3e
00000040: 6340 39be 7510 bebd 4585 8ebc 3edb d13d
00000050: d8ed 05bd 66df 01bc b1d5 243e e4c9 b2bd
00000060: 0c80 96bd f53f b5bd 4aa9 23bd 7a42 16be
00000070: 321b f1bc 6fe5 3bbe f557 1cbd e1a7 2c3e
00000080: 170b bd3d aed1 eabd fa08 d83d 034c 933d
00000090: 644f 823d e932 023e 6490 1b3e 9c95 c2bd
000000a0: 2edd 29be f7ed 43bd 6ef5 7ebd 5233 fdbc
000000b0: 37bf 323e 9a11 00be c7d3 cbbd a34f 6d3d
000000c0: bec7 29be c80f 2abe 451f 22bc e029 e13d
000000d0: 339c 17be b8eb 78bc 54c2 bbbd f806 853d
000000e0: e6e7 a43d b216 20be 39af 8d3d 2d12 223e
000000f0: e38c 1abe 5ea0 543d 7bec 0f3d a6e5 af3d
00000100: 33ee ddbd c895 96bb 793e 313d c955 553d
00000110: 1b8a f6bd 0647 4fbd 7d1e d9bd bb17 74bc
00000120: 80bf 30be 214a cc3c 65e3 e63c b38e ccbd
00000130: 8200 1a3e 2a2f c2bc c114 0abe 4c01 223d
00000140: 6686 373e 0a02 f33d ea34 9a3c 9af9 00be
00000150: ddd9 0e3e facc b03d 755c 79bd d28f 0ebe
00000160: f74f 89bd 3bad 32be b814 a13c 47ad e03d
00000170: 542f b63c 83c1 03bc c396 223e e0e0 273e
00000180: 7eed 3bbe 85e7 19bd 432a debc b187 033e
00000190: 585a 0d3e a9a6 dcbc ddb9 10be f7aa cdbd
000001a0: 31f1 1abe 83c6 ca3d ba35 923d a3c9 313e
000001b0: c99d b53d ee44 b7bd 6a7f 823d 2b11 fb3d
000001c0: 31f2 2c3d 4b64 30be c38c bebc 3906 f1bc
000001d0: 19c0 53bd bd20 f1bd 2a9a 0abe 0f20 a1bd
000001e0: 3156 23be c1e3 20bd 6d80 e1bd bf67 ddbc
000001f0: fa82 3f3e 3571 acbc 934f 8b3d 2d7d 0bbe
0.029676272 -0.12802708 0.12989543 -0.1002544 -0.052543048 0.04835494 -0.058005974 -0.0015769601
0.0523065 0.12998089 -0.113845065 0.18244298 0.0023867905 -0.08382117 -0.0007629854 0.1361058
-0.18090968 -0.09280483 -0.017397532 0.10246895 -0.03269753 -0.0079267975 0.16097142 -0.08729914
-0.07348642 -0.088500895 -0.03995637 -0.14673796 -0.029431913 -0.1834924 -0.03816982 0.16860916
0.09230631 -0.114657745 0.10548587 0.071922325 0.06362799 0.12714733 0.151918 -0.09501192
-0.1658828 -0.047834363 -0.06224578 -0.03090826 0.17455755 -0.12506714 -0.09952503 0.057937276
-0.16580102 -0.16607583 -0.009895151 0.10994315 -0.14805679 -0.0151929185 -0.091679245 0.0649547
0.080520436 -0.15633658 0.06918187 0.15827246 -0.15092807 0.05191075 0.035137635 0.08588724
-0.108364485 -0.004595492 0.04327247 0.052083764 -0.1203806 -0.050604843 -0.10601518 -0.014898236
-0.17260551 0.024937691 0.028184602 -0.09988155 0.15039256 -0.02370413 -0.1348448 0.039552018
0.17922363 0.11865623 0.01882406 -0.12595215 0.13950296 0.08632846 -0.06087919 -0.1392205
-0.06704705 -0.17448895 0.0196632 0.1097055 0.022239365 -0.008041742 0.15877824 0.16394377
-0.18352315 -0.03757431 -0.027119761 0.12844731 0.13803995 -0.026934939 -0.14133401 -0.100423746
-0.1513107 0.09901144 0.07139154 0.17362075 0.08867986 -0.08948694 0.063719586 0.12259134
0.04222316 -0.17225759 -0.02326048 -0.029421913 -0.05169687 -0.117738225 -0.13535371 -0.07867443
-0.15950848 -0.039279703 -0.110108234 -0.027027009 0.18702307 -0.021050075 0.06802287 -0.1362197

lstm.weight_ih_l1 f4 [128, 32]
00000000: b04f a73d 2ccf 9ebc 9d73 26be 504d 073e
00000010: eb3c 0b3d 31ca 493d 02ea 00be 148e 4fba
00000020: 9a8a d13d fff8 1abd 1668 233d 1348 d43c
00000030: 4918 2a3e d283 24be 8db4 823d eb1a 2e3e
00000040: 6c0a 40bc ed42 ecbd 49e2 38bc a2ad 563d
00000050: 9104 e0bd d3b3 84bd ba26 7e3d 1b07 a3bd
00000060: 4649 223d d451 213d 0cb3 553c 2099 e23d
00000070: 0cf3 0abe 858e 8fbd ce53 713c 3cc4 123e
00000080: adfc f93b 03b8 fcbd 815a 73bd 5478 023d
00000090: b944 92bd 7c89 b73d 0fa6 5dbd 0211 b73d
000000a0: 6552 bb3d f104 193d 99db a83d 0a54 053e
000000b0: ea80 333e 7f8f 1ebe 7fad 0fbe 6435 aa3c
000000c0: d5ee b43c 5af4 283e 04b7 56be a959 123d
000000d0: 1ed4 44bc 9115 173d 1f58 ab3c 9517 683c
000000e0: 63fd 2cbc 7c62 3abd d63d 1a3e de9a 263e
000000f0: 2efb fbbd a686 0bbe 3453 073e 8321 7b3d
00000100: 140f 1cbe c079 ab3d 0986 aebd 3f01 00be
00000110: ec02 753d e295 2a3e 3a6b 123e fe91 873b
00000120: f7c1 c23d 28f1 46bd 0073 d9bc 3e96 213e
00000130: d939 df3d 05a0 e6bd 86bd 4c3d e912 13be
00000140: b977 e33d bb48 0abe b1b1 693d 882c da3c
00000150: b59d 0abc d9f7 37be eaf2 2d3e 9595 14be
00000160: 9e70 0a3e 379f e3bd 1bc4 f43d 7ced ad3d
00000170: 7aad c93d 37f0 af3c f9dd e6bd 64c4 203e
00000180: b503 143e b74c 90bb 2b33 033e df2f 0bbe
00000190: c55c 013c 0177 a23b e9d6 043e fe91 8ebd
000001a0: 8124 f03d 932e 19be 42c5 65bd 5a00 23be
000001b0: 34d9 e2bd 3f1b 2abd 1892 8bbd 589a 713d
000001c0: 2c93 09be 205c 053e cadb 443e d9e8 313e
000001d0: 4799 6f3d 53e8 cbbd e402 0f3c 9146 9a3d
000001e0: 3851 d53d 5dd0 bc3d d145 a83d 1685 083e
000001f0: c55d c33d 7c30 39bd 6340 933d 44d0 35be
00000200: f934 ec3d f468 51bc bc18 f7bd 2ccb 813d
00000210: bc41 253d 81fe cf3d fbb5 36be 1215 6bbd
00000220: 33da e3bd 3dc1 263e dd9d 16be 487e 443d
00000230: bd06 813d aba4 66bd 90ac 2abe b4cd 9d3d
00000240: 6d0a 17be 3a80 aabc 866c 983d d356 c23c
00000250: 36f9 243d 0451 04be 5e2f 2b3d ad07 e6bd
00000260: 162a d93d ec5a f03c 1e92 203e cd42 d8bd
00000270: 939e bcbc 2dbe 10be cad5 a03d 3ced 983d
00000280: 2e5e d53d 6396 8b3b 1ebd f3bc abd0 283e
00000290: 548e 0bbe 17d7 3bbd f8b2 33be 8d96 433e
000002a0: 68b3 28be 633f da3d 64a3 49be d40f 143e
000002b0: 8842 5ebd 8bf9 9fbd 862e c6ba a7f3 2f3c
000002c0: 90df b3bc 9f77 0ebe 6dd5 633c 093b 4c3c
000002d0: d329 07be 73c7 293e 3c46 2bbe 6691 383d
000002e0: edbe 113e b441 193e 13e5 f5bd cc82 5dbd
000002f0: 6910 e53c d23d e1bd 37ba 273d 8301 4e3e
00000300: 118a 593b fd22 9f3d 1905 11be 6518 113d
00000310: aa4a 89bc ae4c d43d 5824 cebd db0f d23c
00000320: 9ea5 333b c44e adbd 3860 4f3c 0117 633d
00000330: 9785 343e 725c d43d aaa4 77be ea2a 65bd
00000340: dadc 1bbe 9497 7cbc 16dc 72bd 6b62 dbbd
00000350: d0ea 04be d3a4 043e 962c 15be bffa 22bd
00000360: 93dc b9bc f2b7 913d 1b3f 433e b7db eebc
00000370: 9380 00be 40ba 4bbe d03f f53d 2045 8cbd
00000380: 76e2 d4bd 0a20 6e3d 93d4 c5bd c071 603d
00000390: dee3 dd3d 0cea b43d 4734 94bd 113c 7c3d
000003a0: 9221 84bd 1ed5 7cbc 2b11 c6bd 93d3 013d
000003b0: 2545 163c 78a6 193e 3079 4abe 1e2e 33bd
000003c0: 6f27 913d f3e6 263e ed8f edbc 4458 70bd
000003d0: a419 15bd 487e b9bd a3e5 afbc 39b7 173d
000003e0: 72f0 db3c 42e1 dcbd ef68 1ebe 9959 7f3d
000003f0: 48bc 3f3e 20e1 be3d a9db 953c 508a 15bd
0.08169496 -0.019385897 -0.1625504 0.13213086 0.033993643 0.04926509 -0.12589267 -0.00079175946
0.10231514 -0.037835117 0.039894186 0.025913274 0.16610827 -0.1606591 0.063820936 0.17002456
-0.011721235 -0.115362026 -0.011284419 0.052411683 -0.10938371 -0.06479611 0.06204865 -0.0796034
0.03962066 0.039384678 0.013043176 0.110643625 -0.13569278 -0.07009605 0.014729453 0.1433267
0.0076289983 -0.12339785 -0.059412483 0.031853035 -0.07142014 0.0896177 -0.054113444 0.08938791
0.09146575 0.037358228 0.0824501 0.1302034 0.17529646 -0.15484427 -0.14031027 0.020777412
0.02208654 0.16499463 -0.20968252 0.035730038 -0.012013463 0.0368858 0.020916043 0.014165779
-0.010558459 -0.04550408 0.15062651 0.16270015 -0.12303768 -0.13625583 0.13215333 0.061311256
-0.15240127 0.08372831 -0.08521659 -0.12500475 0.05981724 0.16658738 0.14298716 0.0041372767
0.09509652 -0.04856983 -0.026544094 0.15779969 0.108997054 -0.1126099 0.04998543 -0.14362682
0.1110682 -0.13504307 0.057054225 0.026632562 -0.008460452 -0.1796564 0.16987196 -0.14510186
0.13519523 -0.11114352 0.11951467 0.08492562 0.09847541 0.021476848 -0.11272807 0.15699917
0.14454539 -0.0044036764 0.12812488 -0.1359248 0.007895653 0.004958034 0.12972607 -0.069614395
0.117257126 -0.14959173 -0.056096323 -0.15918103 -0.110765845 -0.04152989 -0.068149745 0.058985084
-0.13435048 0.13023424 0.19224468 0.1737398 0.058495786 -0.09956422 0.0087287165 0.07532991
0.10415882 0.0921943 0.082164414 0.13332018 0.095393695 -0.045212254 0.07190015 -0.17755228
0.11533541 -0.01278137 -0.120652646 0.0633758 0.040345892 0.10155965 -0.17842858 -0.05739314
-0.111256026 0.16284652 -0.14708658 0.047971994 0.06300113 -0.056309383 -0.1666739 0.077052504
-0.14750071 -0.020813096 0.07442574 0.023723042 0.04027673 -0.1292153 0.04179322 -0.11231933
0.106037304 0.02934023 0.1568074 -0.10559616 -0.023024833 -0.14135046 0.07853277 0.07467124
0.10418354 0.004259871 -0.029753264 0.1648585 -0.13628513 -0.045859423 -0.1754874 0.191004
-0.16474688 0.10656621 -0.19691235 0.14459163 -0.054262668 -0.078112684 -0.0015120066 0.010739244
-0.021957189 -0.1391282 0.013905865 0.012465247 -0.13199548 0.1657999 -0.16726011 0.045060538
0.14232989 0.1496647 -0.12006583 -0.054079816 0.027961927 -0.109981194 0.040949073 0.20117764
0.0033193866 0.07770345 -0.14162101 0.035423655 -0.016759235 0.10366188 -0.10065526 0.025642326
0.0027411948 -0.08462289 0.012657218 0.05544186 0.17629085 0.10369195 -0.24183908 -0.05594913
-0.15220967 -0.015416998 -0.05929192 -0.10712131 -0.12980199 0.129535 -0.1456779 -0.03978991
-0.022688186 0.07115163 0.19067042 -0.029157503 -0.12549047 -0.19895267 0.11975062 -0.06849122
-0.103947565 0.058136024 -0.09659686 0.05479598 0.10834478 0.088337034 -0.072365336 0.06158072
-0.064517155 -0.0154316705 -0.09671243 0.031695914 0.009171759 0.15004909 -0.19772792 -0.043745153
0.070875995 0.16299038 -0.028999293 -0.058677927 -0.036401406 -0.09057289 -0.021471804 0.03703997
0.026848052 -0.10785152 -0.15469716 0.062341306 0.18724167 0.09320283 0.018293219 -0.03650886

lstm.weight_hh_l1 f4 [128, 32]
00000000: 3840 c3bd 269a 143e 085f 2b3d d596 f73d
00000010: 57a7 e63d 12e7 703c 06ef a7bd 815f 0d3e
00000020: f4e2 7e3d b762 be3b 0646 85bd 5893 023d
00000030: 49ae ce3c 0cd2 bebd 4dec b1bd 61cd 933d
00000040: 87ea 0ebe 773f 33bd 498b db3d fa48 d5bd
00000050: 63ba 1b3e c32e 88bc 37ae bc3c 41bd 413e
00000060: 7613 1d3c 2fc1 043c 92e1 b13d acbd 003e
00000070: a0a2 e33d 8140 9c3c 8957 ff3d 9147 c3bc
00000080: 58d4 13be a7dd 9fbc 9614 16bd 1157 c0bd
00000090: 43c9 9dbd 5626 223d df45 53be a619 0fbe
000000a0: d6d4 1b3e 86d5 34bd 9126 443e 26c5 48be
000000b0: ba8b 1dbd c379 3ebe 8f7f b93d 257e a13d
000000c0: 6166 5fbd d61b 603d 5f35 8ebc 104e 113e
000000d0: 86d6 47bc 91cc 223d d680 d1bd 85b5 813d
000000e0: c455 31be 7610 373e 5c9c 3bbe e788 333e
000000f0: e1ea 82bd c94e 84bd 1217 1d3e 0262 0dbe
00000100: 80fc 1e3e 68c1 893a cc04 b63d d080 b93d
00000110: c224 bd3d 6a07 803d e367 7a3d 9699 cfbc
00000120: 8842 acbd 518c 423e 98a2 253e 2bc4 a33d
00000130: ef9a ef3d fde7 85bb 9ad8 fe3d 37c8 2cbd
00000140: d619 04bc d310 afbd 1709 84bd 72fb f7bc
00000150: 1491 ce3d 01e1 773e 01a3 013d 0167 a43d
00000160: 0d03 c13d 9917 e0bd c4da 43bd 2846 063e
00000170: b84e 04bc aaf9 ce3c 8d8c 51bd be7e a6bd
00000180: 9883 98bd 218b a8bc b5cb 2a3e af4e 483e
00000190: 12ce a1bd 023a 1e3e 5c02 2c3e 8c4f a43d
000001a0: a4a2 dbbc 1ed1 f4bd d8c4 71bd d07b 983d
000001b0: 6158 36be 3104 973d a024 1cbe 1618 85bd
000001c0: 6b2e e63d 7d55 083e 08b8 ebbd 0155 863b
000001d0: bbc4 23be e404 26be 9a84 ae3b 5dbf a83d
000001e0: ab11 19be 89c1 063e 94f6 1a3e 1142 a0bd
000001f0: ee6f 1c3e 037d 0d3e dd36 7d3d ed62 bebd
00000200: 99bb 1f3e 3908 cdbd 8064 99bd 4b7c 323e
00000210: 3347 7dbd fedb 413e deb1 4bbe bb9e 5e3d
00000220: 2e33 293d a592 45bd 539f fb3d a9f3 55be
00000230: bcf9 43bd ef4c db3c d6c2 bfbd a1de a7bd
00000240: c448 eabc 78b7 d7bd f412 6abe 0c76 4dbe
00000250: ef37 d7bd 6716 4b3e 371f 0dbc a487 4a3e
00000260: 5105 debd 10d7 b0bd 2d0b babd e1c7 503e
00000270: 0e7d f3bd 020f 553e d59c d6bc d40d c43d
00000280: 2cda 103d 1b53 b73d 051d 36be 22bb b2bd
00000290: 45fc 233d f0a9 36bd ffdd a43d 1827 ffbd
000002a0: 778a 28bd b5b5 a2bd 661d 4e3e e32d d33d
000002b0: 434d 3ebd c9cb 3ebe fe02 c33d 59dc 083e
000002c0: bc90 2dbd 250c 573e f1c7 a0bc 3736 3f3d
000002d0: a9a1 c0bc 595d f2bc edea 56be fd2e c83d
000002e0: 94ac e8bc a106 063e 4939 1ebe 7b49 3b3e
000002f0: 38da 9fbd 9092 4e3d 496a 583b a9c6 1abe
00000300: 0ab4 eb3c 1bfe 843c 484c ea3c c77a e8bd
00000310: 8baf e2bc 5933 92bd 2bde 12be 17d8 d2bd
00000320: 273b 46bd f118 543e 8cdb d23d 73c1 793d
00000330: 4807 d73d f643 913d 36d8 843d 0a57 dbbc
00000340: 707a d8bd 770d 95bc e6f3 c2bd b91e 2a3d
00000350: 7e3d 193d 4a2d 90bd 8731 543d 6650 053e
00000360: d52c 0dbe 6741 f8bc c2f4 9c3c 9d54 ae3b
00000370: de08 97bd afa3 043e 7fa5 1e3e 1764 35be
00000380: 4a12 183c 4f3c d8ba a8dd 56bc 8386 cd3d
00000390: 9742 afbc d980 bd3d 5a84 51be d055 493d
000003a0: 6bbe 353e d9fd ac3d 534c e1bc f358 38be
000003b0: f759 a9bc 8b11 953c 8fa5 1f3d 457f 303e
000003c0: 33c3 363e 9a4b 0c3e 0fe7 b0bd be3c 723c
000003d0: b471 42bd 1101 0f3e e48b 553d 0bf1 f93d
000003e0: f6f3 933d c698 6e3e daaa 003c 9976 10bb
000003f0: 6e6e 803c 41a1 e33a 4635 373e 9f8a eebc
-0.09533733 0.14511928 0.041838676 0.12089316 0.11262386 0.014703529 -0.08199887 0.13805963
0.062228158 0.0058101076 -0.065074965 0.0318788 0.02522959 -0.09317407 -0.08687649 0.07216907
-0.13956653 -0.043761697 0.10719926 -0.1041431 0.1520782 -0.01662386 0.02303229 0.18919851
0.009587159 0.008102699 0.08685602 0.12572354 0.11115003 0.019073727 0.12467868 -0.023837836
-0.14436471 -0.019514872 -0.036640726 -0.093916066 -0.07704403 0.03958734 -0.20632122 -0.13974628
0.15217909 -0.044148944 0.19155337 -0.19606456 -0.03846333 -0.18601136 0.09057533 0.07885388
-0.054540996 0.054714046 -0.017359434 0.14189935 -0.0121971425 0.03974587 -0.10229652 0.0633345
-0.17317873 0.17877373 -0.18321365 0.17532693 -0.06392456 -0.064603396 0.15340832 -0.13806918
0.15526009 0.001050991 0.08887634 0.09057772 0.092355266 0.06251414 0.06113423 -0.02534179
-0.08411127 0.18998839 0.16175306 0.079964004 0.11699473 -0.004086493 0.12443657 -0.042183127
-0.0080628 -0.08548131 -0.06447046 -0.030271266 0.10086265 0.24206926 0.031649593 0.08027459
0.0942441 -0.10942001 -0.047816053 0.131127 -0.008075409 0.025265533 -0.05115943 -0.08129643
-0.074469745 -0.020574154 0.1667927 0.19561265 -0.07900633 0.15451816 0.16797775 0.08022985
-0.026810952 -0.119539484 -0.059025615 0.0744549 -0.17807151 0.07373846 -0.15248346 -0.06498735
0.11239322 0.13313861 -0.115097106 0.0040994887 -0.15993015 -0.16212803 0.005325866 0.08239625
-0.14948146 0.13159765 0.15133125 -0.07825101 0.15277073 0.1381722 0.0618199 -0.09296212
0.15598907 -0.10011334 -0.07489872 0.17430227 -0.06183548 0.18931577 -0.1989207 0.054350596
0.041308574 -0.048235554 0.12286248 -0.2089373 -0.047845587 0.026770083 -0.09363334 -0.0819676
-0.02859915 -0.10533041 -0.22858793 -0.20064563 -0.10508715 0.19832765 -0.008613399 0.19778305
-0.10840858 -0.0863477 -0.09084163 0.20388748 -0.11889087 0.20806506 -0.02619783 0.0957295
0.035364315 0.08951398 -0.17784508 -0.08727099 0.040035505 -0.04459566 0.08050155 -0.124586284
-0.041147675 -0.07944814 0.20128402 0.103114866 -0.0464604 -0.18632425 0.09522055 0.13365306
-0.042374358 0.21000727 -0.01962659 0.046682563 -0.023514586 -0.029585527 -0.20988055 0.09774587
-0.028402604 0.13088466 -0.1545154 0.1828975 -0.07805294 0.05043274 0.0033022335 -0.15114845
0.028772373 0.016234448 0.028600827 -0.11351543 -0.027671596 -0.071387 -0.14342563 -0.10295122
-0.048396256 0.2071264 0.102957815 0.060975503 0.10499436 0.07093041 0.064865515 -0.026774902
-0.10570228 -0.018194897 -0.09519176 0.041533206 0.03741216 -0.07039888 0.051805045 0.13018951
-0.13786633 -0.030304624 0.019159678 0.0053201453 -0.07374738 0.12953065 0.15492819 -0.17713962
0.009281704 -0.0016497466 -0.01311437 0.10035422 -0.021394057 0.09253091 -0.20460644 0.049154103
0.1774842 0.08446855 -0.027502215 -0.18002681 -0.020672781 0.018196842 0.03897625 0.1723605
0.178479 0.13700715 -0.08637821 0.01478499 -0.047471717 0.1396525 0.052135363 0.122041784
0.07224266 0.23300466 0.007853234 -0.0022043346 0.015677657 0.0017366783 0.17891416 -0.029118834

lstm.bias_ih_l1 f4 [128]
00000000: cea4 d73d cab8 78bd 81e0 0cbd 0ba8 45be
00000010: 7cab 18bb ce75 85bd 383c 013e a079 073e
00000020: 1f87 16bd 09d0 673d a56f e03d 7aa2 b0bc
00000030: 6e37 4b3d 8394 5f3e 24b2 6fbd 9b5a 85bd
00000040: 21d1 173e e91e 283e 9fe5 2abd 3bc5 e83c
00000050: 2e7c 3f3e f681 85bd 57aa 1c3e 8403 06bc
00000060: c484 36bd 5afc 0e3e 2bed a4b9 1138 2c3e
00000070: 286f 05bd 2aa0 adbd 5d5c eabd 0391 543e
00000080: a1a5 463d f7d1 7ebd 2841 323e 2c89 8bbd
00000090: 58ac ab3d 9c1b 913d 9b9a 453d 4b2a d4bd
000000a0: 5a65 97bc 03fa 253d b25f b5bd f014 973d
000000b0: 01db 5bbd 5d71 bcbd c6be 6cbd 2990 a1bd
000000c0: 056b 1f3e b3d3 a3bd ba09 08bd 3079 04be
000000d0: 6b32 2d3e 5450 273d 78ba 183e a6e4 003e
000000e0: b319 283e 5114 303e 58d3 3c3e c47c 593e
000000f0: 5be8 523e 500f a4bd 36d5 a73c 0346 903d
00000100: e7a8 f0bd 0bb8 22bd 8d27 0c3d cb08 0fbe
00000110: 8389 68bb f528 563e 4199 663d cd58 58bc
00000120: beec 353e 3e9b 343e e9dc 583d 205f 61bd
00000130: bfb5 523e 7b6d ea3c 3e43 2b3e 62ec fa3d
00000140: 5419 ff3d 6108 963d 4b5b 5abe 1c34 903b
00000150: 197d 823d 3116 29bd 1631 4c3d 91d8 563e
00000160: 32da bebd fe72 ee3d 0406 113d fedc 393e
00000170: 482e 003e 1141 a13d 8fe3 dd3d fd83 a4bd
00000180: 5b12 c3bd 63f9 7c3e e98c 5b3d d1c1 41be
00000190: 66c2 5bbc 1ca3 123e 5014 52bd e4d7 633e
000001a0: c9c1 8b3a 4ad6 3a3e 9f53 593d 2405 473e
000001b0: 0a92 5f3e f72a e33d 7e8a 703c d2db 223e
000001c0: 361b d23c d7dd 803d 738f b33d eae4 83bd
000001d0: 57c7 95bd ca67 b63d 3498 a43d 767d 8dbd
000001e0: 8f03 74bc 114a 6fbd 5915 83bc 3616 89bd
000001f0: 92c9 473e 9c45 543e 1910 0cbe 10a8 2abc
0.10529481 -0.060723104 -0.03439379 -0.19302385 -0.0023295572 -0.0651661 0.12620628 0.1322999
-0.036749955 0.056594882 0.109587945 -0.02156185 0.04961341 0.21833996 -0.058519498 -0.06511422
0.1482587 0.16418041 -0.04172289 0.02841436 0.18699715 -0.06518929 0.15299354 -0.008179549
-0.04456021 0.13963452 -0.00031457221 0.16818263 -0.03257671 -0.084778145 -0.11443398 0.20758443
0.0484978 -0.062211957 0.17407668 -0.06813273 0.08382481 0.07085344 0.048243146 -0.10359629
-0.018480945 0.040521633 -0.08856143 0.073770404 -0.053675655 -0.0920131 -0.057799123 -0.078888245
0.15568168 -0.07999363 -0.0332124 -0.12936854 0.16913764 0.04084809 0.14914882 0.12587222
0.16416053 0.1719525 0.18439996 0.21239 0.20596449 -0.08010733 0.02048741 0.07044604
-0.117509656 -0.0397263 0.034217406 -0.13968198 -0.0035482354 0.20914061 0.056298498 -0.0132047655
0.17766091 0.17637345 0.05294505 -0.05502236 0.20577143 0.028616657 0.1672487 0.12252118
0.12456003 0.07325817 -0.21323888 0.004400743 0.06371517 -0.04128093 0.0498515 0.20981051
-0.09318961 0.11643027 0.035406128 0.18150708 0.12517655 0.078737386 0.10834419 -0.08032987
-0.095249854 0.24704508 0.05360118 -0.18921591 -0.013413047 0.14320034 -0.051288903 0.22250324
0.0010662611 0.18245807 0.053058263 0.19435555 0.21833053 0.11092179 0.014681457 0.15904167
0.02564774 0.062923126 0.08767595 -0.06440146 -0.07313412 0.08906515 0.08036843 -0.069086954
-0.014893427 -0.058420245 -0.01600139 -0.066936895 0.19510487 0.20729679 -0.13678016 -0.010416046

lstm.bias_hh_l1 f4 [128]
00000000: 44ba 29be 834b adbd 04d8 fd3d ec8a dabd
00000010: a73c 543c dbed 993d 68ad 66bd 9132 7abd
00000020: e9b0 b8bd 84bc 4ebd 8ce4 5a3e 9a13 f23d
00000030: 449e 183e 90c0 2f3d 7809 d03c 7dd0 e83d
00000040: 2dd8 4a3e e851 bfbd b40e 69bd 3865 e7bd
00000050: 004d 0b3e f740 37bd a1ec 303e 24a8 6ab9
00000060: 748a b43c 065e cdbc fdba 073e 60e8 1cbd
00000070: ee38 713d 1c61 3a3d 37e4 c6bb bf48 883d
00000080: 6f5f e6bd addb e63d a7f2 dd3c 8962 41bc
00000090: c4ac 473e 750d 0dbd 1bd0 a6bd 7de8 82bd
000000a0: 2084 7abd 603a 3a3d 0bc4 8bbd 427f 3bba
000000b0: 01d1 dabd 71ae 2d3e 2b6b 7cbd 6176 563e
000000c0: b6df 0b3e 359d 283e b8ac 2a3e 5f79 1abe
000000d0: 7bfd 473e 03c8 59bc def7 00be 835f 073e
000000e0: ccb3 2d3d b9ab 003e d120 193d f063 1a3c
000000f0: e12d 803d 72f2 83bd e551 97bd f3fa 4fbd
00000100: 4537 a23d e3b1 c03d f1b5 b53d 2dab a4bd
00000110: 9f67 58bd 1c5a 9cbd 4180 5f3d 226b 03bd
00000120: 7b98 483c 6385 453e 7c54 c43d 00f7 d6bc
00000130: fa1b cd3d ff02 62bd 63c9 263e 918e bbbd
00000140: 275c 0bbd 7294 6a3e f76d b93d 630e b43d
00000150: 428a 00bd 8864 f03d 6926 a23d 4447 8d3d
00000160: 71c3 1d3d 2520 523e 4c71 4ebe 1df1 83bd
00000170: c249 f23d 0427 a43d b2d0 2fbb 80e9 12be
00000180: 61c2 0b3e a412 2e3e 9021 debd 30e3 2fbe
00000190: 3655 76bd 19f6 cf3d eb1c c53d 48e6 093e
000001a0: 5349 c03d c0f4 1abb df81 09bc a05a 133c
000001b0: 2f33 083e f8f7 0e3c 9831 473d da35 203e
000001c0: c355 423e 4dae 083d 2cf1 2d3e afb8 e4bd
000001d0: fd62 403e 29da 1e3e 1267 df3d 5726 8c3d
000001e0: 8cf6 eabd c646 c73d 4b06 573e 0628 283c
000001f0: d685 af3d 5145 0f3e 50f8 bb3d a647 b33d
-0.16574961 -0.08461668 0.12394717 -0.106710285 0.012953914 0.075160705 -0.056317717 -0.06108338
-0.09018118 -0.05047275 0.21376246 0.11820145 0.14904124 0.04290825 0.02539514 0.11367891
0.19809027 -0.09341794 -0.056898788 -0.11298603 0.13603592 -0.04473969 0.17277767 -0.00022378616
0.022038676 -0.025069248 0.13254924 -0.038307548 0.058892183 0.045502767 -0.006069686 0.066545
-0.11248671 0.112723686 0.027093245 -0.011803278 0.19499499 -0.03443666 -0.08145162 -0.06392
-0.06116116 0.045465827 -0.068245016 -0.0007152447 -0.106843956 0.16961075 -0.06162564 0.20943595
0.13659558 0.1646622 0.1666745 -0.15085362 0.19530289 -0.013292315 -0.12594554 0.13220029
0.042407796 0.12565507 0.03738481 0.009423241 0.06258751 -0.06442727 -0.07388667 -0.050776433
0.07920698 0.09408929 0.08872593 -0.08040462 -0.052833196 -0.076343745 0.05456567 -0.03208459
0.012243385 0.19289164 0.095864266 -0.026240826 0.10015102 -0.05517864 0.1628776 -0.09158052
-0.03402343 0.2290819 0.09054177 0.087918065 -0.031381853 0.11737925 0.079174824 0.068983585
0.038516466 0.20520075 -0.20160407 -0.06442473 0.118304744 0.08015254 -0.0026827273 -0.14346886
0.13648368 0.16999298 -0.10846245 -0.17176509 -0.060139857 0.10154361 0.09624656 0.13466752
0.093889855 -0.0023644418 -0.00839278 0.008993775 0.13300775 0.008726113 0.04863128 0.15645543
0.18978028 0.03336935 0.16986531 -0.11168038 0.18787761 0.15512909 0.10908331 0.0684325
-0.11472806 0.09730296 0.20998494 0.010263449 0.08570449 0.13991286 0.09178221 0.087539

mlp.weight f4 [1, 32]
00000000: 6256 7c3d c876 40be 32af 3cbe a710 113d
00000010: 6fb7 a83d 1e06 623e e4f5 d5bd 1466 48be
00000020: 40b5 a93d a1c6 f93c 0361 f13d 059d 1abe
00000030: 954e 0d3d 116f 05be d62b 6c3e 6c9f 4b3d
00000040: 1df8 9b3d 001f 233e bcfe c8bd 9453 3fbe
00000050: d84f f83d 0d15 be3d f5ef d7bd 5aac 353e
00000060: 4174 2fbe 2daf 583e 34a0 b3bd 902c 4c3e
00000070: f1ae 45be cf43 ea3d 9dc5 74bd 189b 85bd
0.06160582 -0.18795311 -0.18426207 0.03541627 0.08238112 0.22072646 -0.104472905 -0.1957019
0.08286524 0.030490221 0.11786082 -0.1509896 0.03449877 -0.1303065 0.23063597 0.049712583
0.07615683 0.15929794 -0.09814212 -0.18684226 0.12124604 0.09281359 -0.10543815 0.17741528
-0.17134191 0.21160574 -0.08770791 0.19938874 -0.19305016 0.11438715 -0.05975877 -0.065237224
