checkpoints/short_term_forecast_m4_Yearly_LSTM_m4_ftM_sl96_ll48_pl96_dm16_nh8_el2_dl1_df32_fc3_ebtimeF_dtTrue_Exp_0/checkpoint.pth (torch, 16875 bytes, 9 tensors)

lstm.weight_ih_l0 f4 [64, 1]
-0.18894927 0.013513577 0.16256014 0.15603203 0.12325793 -0.18282479 -0.23110165 0.23138559
-0.027686259 -0.20041543 0.1861714 -0.24063158 0.16111898 -0.19577137 0.16253312 -0.09250884
0.006665939 -0.10205765 0.14364393 0.12861717 0.153945 -0.0981873 0.24712393 -0.005629761
-0.06331311 -0.22932526 0.16972217 -0.21979603 -0.16136473 -0.084970415 0.11585613 0.09800626
0.16516301 0.006166223 0.13268638 0.16451883 -0.23905021 -0.20933929 -0.24141157 -0.1768237
0.124602586 0.22250381 0.11627725 -0.19325525 0.12105499 0.14051479 0.22228499 -0.22743735
-0.039271593 -0.1274869 0.2379587 0.19856265 0.12741537 0.010790064 0.1066189 -0.20849879
0.03143872 -0.18726104 0.17650907 0.07749747 -0.20709303 -0.016383257 0.18979566 0.11544787
00000000: eb7b 41be 0d68 5d3c 2a76 263e dcc6 1f3e
00000010: a76e fc3d 6c36 3bbe e9a5 6cbe 58f0 6c3e
00000020: 4bce e2bc b439 4dbe b7a3 3e3e 2068 76be
00000030: 60fc 243e 4a78 48be 156f 263e 4675 bdbd
00000040: f36d da3b 9a03 d1bd 6517 133e 38b4 033e
00000050: c2a3 1d3e 6c16 c9bd 0e0e 7d3e dc79 b8bb
00000060: 4eaa 81bd 3ed4 6abe a6cb 2d3e 3612 61be
00000070: cc3c 25be f804 aebd fb45 ed3d 82b7 c83d
00000080: 7e20 293e 070e ca3b f0de 073e a077 283e
00000090: 94c9 74be 0a5d 56be 9834 77be 4611 35be
000000a0: a42f ff3d 0ad8 633e c422 ee3d b4e4 45be
000000b0: aeeb f73d 1ce3 0f3e ad9e 633e 56e5 68be
000000c0: 40db 20bd ed8b 02be 72ab 733e 0254 4b3e
000000d0: 2d79 023e cfc8 303c 035b da3d b580 55be
000000e0: e3c5 003d 5cc1 3fbe cbbe 343e feb6 9e3d
000000f0: 3210 54be 2e36 86bc cb59 423e ef6f ec3d

lstm.weight_hh_l0 f4 [64, 16]
0.23583679 -0.22539954 -0.071016744 -0.09534842 -0.21831253 -0.23862083 -0.18376477 0.116264395
-0.21321684 -0.11440862 -0.16030864 -0.19237562 0.22573775 -0.02665863 -0.076526515 0.22794206
-0.14427413 -0.10583648 -0.08581371 -0.17197007 -0.115167856 -0.06026169 0.019246291 -0.14714345
-0.0097359875 0.24623306 -0.00047507248 -0.029274095 -0.2461082 -0.18213987 0.122881144 0.1497491
-0.23577543 0.053760093 0.024333859 -0.1265778 0.22368447 0.036921415 -0.19070512 0.21043003
0.11556141 -0.11864866 -0.009112646 0.18190232 0.19114771 0.11863831 0.039831053 -0.013819479
0.040630788 -0.18199499 0.0038499783 -0.24402194 0.14428888 -0.17387943 -0.16761476 0.20008348
-0.07895092 -0.1636614 -0.20127805 0.11227681 -0.22234458 0.1905027 0.0794279 0.23430096
-0.09762668 -0.21694121 0.023277046 0.24632026 -0.16622742 -0.23147562 0.19346742 0.17645228
0.2030108 0.16044854 0.057630785 -0.20198205 -0.17228635 -0.11555505 -0.11466135 -0.19396605
0.18932487 0.18685229 -0.15567617 -0.010375256 0.2353229 0.12206795 -0.051598296 -0.06999649
0.12730199 -0.09764153 -0.18447243 -0.06992856 0.1589304 -0.10093646 -0.16974853 -0.09326602
-0.096113585 -0.18468457 0.0076805186 0.1390428 0.2205238 0.068168275 0.19010174 0.09802028
-0.06457196 -0.18993337 -0.052498404 0.119011335 0.052892905 -0.066912964 0.0020150866 0.08370081
-0.03492517 0.1844388 -0.17376173 0.014759916 0.14455664 0.19965555 0.03503576 0.016994933
0.21813038 -0.17734206 -0.13306075 -0.1461153 0.23930341 0.011366069 -0.21793608 0.028700463
-0.23618014 0.1366251 0.19876702 0.10737257 -0.05538627 -0.13965377 0.21901289 -0.043317202
0.101513594 -0.01606603 0.20842905 -0.04327064 0.15952635 -0.18575883 -0.20708261 0.041855022
0.21025574 -0.1627835 0.19065511 0.055171363 -0.24462128 -0.1495524 -0.03315725 0.04144795
0.10890487 0.2261024 0.24976847 -0.20586218 0.14135534 -0.06655503 0.009113296 0.23453897
-0.04588284 -0.10291918 0.118414365 -0.014642755 0.09259061 0.024298457 0.23260625 0.19989203
0.08197464 0.026665581 0.05635892 -0.096300334 0.14395778 0.20252885 0.17478845 -0.14004256
-0.11497514 0.21397036 0.19238004 0.14651729 0.21120577 0.22917284 -0.1332616 -0.19848219
-0.0036937774 0.15224968 -0.11803942 -0.15253755 -0.24664807 0.03539749 0.02568251 -0.13469326
0.095374525 -0.027525172 -0.19113544 -0.024789356 -0.2548333 0.23993944 -0.22932261 0.08754236
-0.14082845 -0.15930633 0.13851951 0.110046394 0.22989802 0.20641947 -0.08514023 -0.045993388
0.051708423 0.18152644 -0.08183936 -0.12946232 0.123716965 0.23420234 0.015227008 -0.1877754
-0.14660423 -0.2270592 -0.05686442 0.101444736 0.0003586922 0.10477707 0.07367747 0.20750374
0.11432223 0.18138586 0.15216991 -0.14683382 0.07196135 0.24576491 0.15972212 -0.059427243
-0.0516127 0.11774924 -0.12357818 -0.16156854 0.06293389 0.09192353 0.118998095 -0.0687612
-0.09122415 -0.06093202 -0.21239464 -0.035579655 0.14960694 -0.20820072 -0.022467399 0.23567441
-0.008830418 0.025179071 0.09279107 -0.07917791 -0.2294712 -0.07780018 0.22182463 -0.08092879
00000000: 337f 713e 23cf 66be 3a71 91bd 0846 c3bd
00000010: 528d 5fbe 0559 74be d52c 3cbe 071c ee3d
00000020: 8455 5abe 114f eabd f327 24be 1dfe 44be
00000030: cc27 673e 3363 dabc efb9 9cbd a569 693e
00000040: 99bc 13be ccc0 d8bd 19bf afbd ec18 30be
00000050: 20dd ebbd f6d4 76bd 66aa 9d3c c6ac 16be
00000060: b183 1fbc 8524 7c3e 2613 f9b9 3ad0 efbc
00000070: ca03 7cbe e082 3abe 1ca9 fb3d d457 193e
00000080: 1d6f 71be 8b33 5c3d cd57 c73c 9c9d 01be
00000090: 8b0d 653e e93a 173d 3448 43be f87a 573e
000000a0: 76ab ec3d 12fe f2bd 354d 15bc 9a44 3a3e
000000b0: 3abc 433e a4f8 f23d e325 233d 196b 62bc
000000c0: 786c 263d e55c 3abe eb4f 7c3b e3e0 79be
000000d0: 77c0 133e 730d 32be 34a3 2bbe afe2 4c3e
000000e0: 05b1 a1bd db96 27be d51b 4ebe 62f1 e53d
000000f0: 4cae 63be 2413 433e 18ab a23d 97ec 6f3e
00000100: 7ff0 c7bd d625 5ebe 81af be3c 613b 7c3e
00000110: 8537 2abe f207 6dbe 531c 463e e8af 343e
00000120: 10e2 4f3e 9f4c 243e 420e 6c3d 62d4 4ebe
00000130: d56b 30be 20a8 ecbd 92d3 eabd 099f 46be
00000140: 61de 413e 3556 3f3e 9369 1fbe fafc 29bc
00000150: 7cf8 703e c3fe f93d bc58 53bd 525a 8fbd
00000160: 745b 023e 48f8 c7bd 57e6 3cbe b436 8fbd
00000170: a7be 223e c6b7 cebd 8fd2 2dbe 4102 bfbd
00000180: 33d7 c4bd f41d 3dbe dcac fb3b 3c61 0e3e
00000190: fed0 613e cf9b 8b3d 08aa 423e dbbe c83d
000001a0: 4e3e 84bd e57d 42be 9108 57bd 37bc f33d
000001b0: 3ba6 583d aa09 89bd 8b0f 043b 556b ab3d
000001c0: b20d 0fbd 86dd 3c3e 98ee 31be 93d3 713c
000001d0: a806 143e 8172 4c3e a881 0f3d f538 8b3c
000001e0: 925d 5f3e 2899 35be 1441 08be 409f 15be
000001f0: f40b 753e c038 3a3c a32a 5fbe 3c1d eb3c
00000200: 35d9 71be 73e7 0b3e 9589 4b3e 26e6 db3d
00000210: b7dc 62bd 6601 0fbe ea44 603e 616d 31bd
00000220: 5ce6 cf3d e89c 83bc 6d6e 553e 8e3c 31bd
00000230: e05a 233e 9037 3ebe 770d 54be 2c70 2b3d
00000240: 484d 573e b8b0 26be 183b 433e 5efb 613d
00000250: 007e 7abe 4424 19be e6cf 07bd 53c5 293d
00000260: 8409 df3d 6387 673e 4ec3 7f3e 89cd 52be
00000270: 74bf 103e 014e 88bd ef4f 153c fc2a 703e
00000280: a5ef 3bbd 4bc7 d2bd 3b83 f23d 2ae8 6fbc
00000290: 25a0 bd3d 8f0d c73c 5530 6e3e 7fb0 4c3e
000002a0: 52e2 a73d c771 da3c 9cd8 663d 1c39 c5bd
000002b0: ab69 133e b963 4f3e befb 323e 5167 0fbe
000002c0: 1678 ebbd 0c1b 5b3e 46ff 443e a108 163e
000002d0: 5346 583e 49ac 6a3e bb75 08be ea3e 4bbe
000002e0: 4d13 72bb 57e7 1b3e a7be f1bd ce32 1cbe
000002f0: 5091 7cbe f5fc 103d 2164 d23c 08ed 09be
00000300: b853 c33d 787c e1bc 02b9 43be 0c13 cbbc
00000310: 8379 82be afb2 753e 8cd3 6abe 6949 b33d
00000320: 5535 10be 3321 23be 0fd8 0d3e 0160 e13d
00000330: 636a 6b3e a05f 533e 005e aebd 9063 3cbd
00000340: 36cc 533d 11e2 393e 659b a7bd c591 04be
00000350: 525f fd3d bdd2 6f3e b37a 793c 3248 40be
00000360: 6b1f 16be 3582 68be abea 68bd 42c2 cf3d
00000370: da0e bc39 5c95 d63d 37e4 963d dc7b 543e
00000380: c621 ea3d 37bd 393e 6ed2 1b3e 9b5b 16be
00000390: 7960 933d cca9 7b3e 328e 233e fb69 73bd
000003a0: d767 53bd 8326 f13d 8f16 fdbd 3972 25be
000003b0: 7ce3 803d 6742 bc3d 46b5 f33d acd2 8cbd
000003c0: bad3 babd db93 79bd fb7d 59be f9bb 11bd
000003d0: 9032 193e 9232 55be 8d0d b8bc a254 713e
000003e0: 75ad 10bc 5744 ce3c 3f09 be3d 0728 a2bd
000003f0: 80fa 6abe b355 9fbd ff25 633e febd a5bd

lstm.bias_ih_l0 f4 [64]
0.0026919765 -0.1068197 0.23361948 0.11698941 0.25411117 -0.030057605 0.098846436 0.23801836
-0.19193533 0.018180467 -0.24960898 -0.11096328 -0.050598975 -0.22165388 0.368283 -0.04403985
-0.00063384994 -0.15492989 0.08930806 -0.16798462 0.0042992416 -0.03966574 0.031623706 -0.009524588
0.15662526 -0.0003836903 -0.055518895 0.23709658 -0.037793115 0.22283964 -0.12734033 -0.14956011
-0.33489698 -0.093615174 0.14613926 0.31210357 -0.31400374 -0.0054674894 0.24597736 0.39980012
0.07809532 -0.2231845 -0.094887495 0.017085377 0.25650826 0.023149665 0.24498953 0.28444564
0.089249104 -0.17783868 0.14493181 0.086288236 0.30538318 0.12678836 0.115177475 0.25687683
-0.23835735 -0.043091312 0.010083057 0.03803125 0.33411294 0.04234627 0.014080075 0.05054945
00000000: df6b 303b 49c4 dabd f239 6f3e 2598 ef3d
00000010: dc1a 823e 5e3b f6bc 0070 ca3d 16bb 733e
00000020: b28a 44be 34ef 943c 7f99 7fbe b740 e3bd
00000030: df40 4fbd 3cf9 62be 978f bc3e 2163 34bd
00000040: f328 26ba f1a5 1ebe 25e7 b63d 2904 2cbe
00000050: a7e0 8c3b 8b78 22bd dc87 013d 040d 1cbc
00000060: 5f62 203e 0a2a c9b9 c867 63bd 72c9 723e
00000070: f4cc 1abd 1330 643e 8165 02be 4926 19be
00000080: 9e77 abbe 50b9 bfbd 88a5 153e 0acc 9f3e
00000090: 19c5 a0be a028 b3bb 7de1 7b3e 9ab2 cc3e
000000a0: 70f0 9f3d 7a8a 64be 6054 c2bd a2f6 8b3c
000000b0: 0d55 833e 5ea4 bd3c 89de 7a3e dca2 913e
000000c0: 3cc8 b63d 581b 36be 0169 143e e3b7 b03d
000000d0: 2f5b 9c3e cfd4 013e 2be2 eb3d 5c85 833e
000000e0: f313 74be 8480 30bd 6833 253c a8c6 1b3d
000000f0: da10 ab3e 4873 2d3d 1db0 663c f10c 4f3d

lstm.bias_hh_l0 f4 [64]
-0.053039353 -0.13990173 0.052988842 0.28754202 0.39324102 0.062115088 -0.14144894 -0.09219863
-0.09293681 -0.07058639 -0.17828318 -0.23472567 0.17590746 0.05239704 0.11304217 0.07600988
0.03552575 0.068483315 0.098459825 0.008019939 0.036812045 -0.2276364 -0.19219452 -0.17472678
0.1812871 0.19799384 -0.12828572 0.1065235 -0.0131678535 0.06305135 -0.13662834 -0.24466495
-0.2549939 0.15168749 0.19331461 0.08904541 -0.20211294 -0.08468924 -0.045491148 0.2507816
0.05564885 -0.21956062 0.20462841 -0.07183 0.19932255 0.092292614 0.34732154 0.21506166
-0.099746786 0.026973423 0.15261817 0.0042043417 -0.060882855 0.22024365 -0.08477383 0.29596084
0.13896799 0.018241072 -0.10530144 0.118371196 0.25153923 -0.0031884618 0.08702202 0.02198433
00000000: cb3f 59bd 6642 0fbe d40a 593d b538 933e
00000010: e356 c93e 646c 7e3d fed7 10be a3d2 bcbd
00000020: a755 bebd 998f 90bd de8f 36be ed5b 70be
00000030: 1621 343e 479e 563d a782 e73d 11ab 9b3d
00000040: 7383 113d fb40 8c3d 4ea5 c93d 1066 033c
00000050: 3ac8 163d 8419 69be a4ce 44be 94eb 32be
00000060: 53a3 393e e6be 4a3e 555d 03be fe28 da3d
00000070: fbbd 57bc 1121 813d 4de8 0bbe 7389 7abe
00000080: 8f8e 82be f753 1b3e 44f4 453e 715d b63d
00000090: b2f6 4ebe 8d71 adbd ed54 3abd 7266 803e
000000a0: 0cf0 633d 80d4 60be 1c8a 513e 9b1b 93bd
000000b0: 361b 4c3e e903 bd3d 21d4 b13e 2039 5c3e
000000c0: 0b48 ccbd 5ef7 dc3c f047 1c3e 93c4 893b
000000d0: 4d60 79bd 8d87 613e e79d adbd 2e88 973e
000000e0: a04d 0e3e 4d6e 953c 48a8 d7bd 996c f23d
000000f0: c0c9 803e 83f5 50bb 9a38 b23d 7b18 b43c

lstm.weight_ih_l1 f4 [64, 16]
-0.10686429 -0.21873197 1.2937509 1.2184907 -1.5474572 0.0671038 -0.11085801 0.0044978685
0.1490217 0.012042408 1.3535733 -0.27109826 0.13209851 -0.1255334 1.1753225 0.18147849
0.086007535 0.17583759 1.0693048 1.1757902 -1.4593085 0.15399186 0.28493047 -0.07033437
-0.07548101 0.111049235 1.4336683 -0.050905697 0.339852 0.22907346 1.1004568 -0.1061596
-0.054629583 0.22072898 1.2415953 1.2024539 -1.0526619 -0.20722312 -0.18520968 0.1861481
-0.034600534 -0.35468382 1.0367446 -0.12782097 0.12851712 0.04231606 1.0140153 0.2780288
-0.015353163 0.20264946 1.1894664 1.5752084 -1.2967355 -0.18233062 0.089626506 0.2907292
-0.021803606 0.024591729 1.1937265 -0.28165463 0.35237163 0.017744187 1.1606057 0.20316759
0.021194048 -0.06454973 1.4658995 1.0159056 -1.0700605 -0.002387742 0.25993997 -0.04836215
0.04049418 -0.3724996 0.9842331 -0.013592817 0.2884613 0.18277624 1.0667834 0.07876913
-0.21522559 0.020202441 1.2076188 1.2861602 -1.2410711 0.13005064 0.05422783 0.18800636
0.23579474 -0.31064302 1.2499301 0.011985382 0.00025721587 -0.12239471 1.3628949 0.113954864
0.07142577 -0.20736843 1.2265736 1.3811451 -1.1689361 -0.26683104 0.16547626 0.32109886
0.1140558 -0.06426523 1.40282 -0.12679663 0.2210494 0.14928898 1.3272551 -0.030654138
0.027660273 0.15466228 1.0452174 1.2783563 -1.471184 -0.09588695 0.09216238 0.08278028
0.31108722 0.02888408 1.2539359 0.15339655 0.06468823 0.04788252 1.1825423 0.16714829
-0.37517035 -0.17413922 1.058393 1.3325231 -1.1847028 -0.24367507 0.19373392 0.30988935
0.2783067 -0.093983516 1.1946752 -0.2423294 0.19229281 0.300266 1.1105574 -0.1674228
-0.25791144 0.10470779 1.190188 1.5311927 -1.2425166 0.08423126 -0.050022177 0.012591152
-0.11939756 -0.11371973 1.5308805 0.11331199 0.30278185 -0.17367667 1.5078232 0.18818155
0.027460227 -0.17927176 1.4554276 1.2241558 -1.1771228 -0.21454032 0.07689415 0.2721011
0.08554187 -0.3144069 1.1671736 -0.020270469 0.13324013 0.13152108 1.14985 0.2953146
-0.09061495 -0.16080809 1.3242408 1.2953203 -1.2426361 -0.22071779 0.24905717 0.22976643
0.12968828 -0.074905686 1.2257582 0.063424766 -0.040244285 0.25335166 1.2194701 0.26033044
0.121104784 0.1305273 1.1378856 1.6151441 -1.5095568 -0.004505218 0.2723273 0.05207237
0.16109288 -0.09146426 1.5486827 -0.18916771 0.22738674 0.21984118 1.2996905 0.23831646
-0.13947384 0.19449584 1.1936074 1.4472307 -1.0497497 0.16970365 0.18276249 0.3569585
0.08585186 0.09257401 1.5038987 -0.12454915 0.3050041 0.006072128 1.1017009 -0.17069262
-0.34883562 0.07657396 1.4968596 1.330979 -1.1259986 -0.22412437 0.06288312 0.25360537
-0.028211834 -0.019514017 1.1657597 0.16461639 -0.020382775 0.18417646 1.2215015 0.17917036
0.083215356 -0.058842022 0.989494 1.2095567 -1.4750367 0.12623343 0.10023586 0.10162119
0.020226497 -0.17841989 1.4340502 -0.09423061 0.31104678 -0.1462015 0.99584466 -0.08929241
00000000: aadb dabd 46fb 5fbe a199 a53f 81f7 9b3f
00000010: 1413 c6bf b86d 893d 8609 e3bd db62 933b
00000020: 2599 183e 854d 453c e441 ad3f 64cd 8abe
00000030: d544 073e d48b 00be f870 963f 7fd5 393e
00000040: b824 b03d c50e 343e fbde 883f 4b80 963f
00000050: 9fca babf 0bb0 1d3e 68e2 913e 770b 90bd
00000060: ca95 9abd c86d e33d 7182 b73f 7e82 50bd
00000070: 1501 ae3e 3c92 6a3e c5db 8c3f 346a d9bd
00000080: 45c3 5fbd c706 623e 98ec 9e3f 02ea 993f
00000090: a0bd 86bf 4c32 54be 9ba7 3dbe 9c9d 3e3e
000000a0: 4ab9 0dbd 1e99 b5be 0cb4 843f 80e3 02be
000000b0: fe99 033e 9b53 2d3d 41cb 813f ca59 8e3e
000000c0: d58b 7bbc 5783 4f3e 6f40 983f 6ea0 c93f
000000d0: 6efb a5bf e1b4 3abe 1a8e b73d 75da 943e
000000e0: 7a9d b2bc 9874 c93c 08cc 983f 0935 90be
000000f0: 0e6a b43e 425c 913c ba8e 943f 2a0b 503e
00000100: 249f ad3c a632 84bd 98a2 bb3f 3209 823f
00000110: bef7 88bf aa7b 1cbb da16 853e 6417 46bd
00000120: 3add 253d 44b8 bebe b3f6 7b3f 68b4 5ebc
00000130: 33b1 933e b229 3b3e 5c8c 883f b651 a13d
00000140: 1964 5cbe 977f a53c 4193 9a3f e6a0 a43f
00000150: 6bdb 9ebf ff2b 053e 001e 5e3d bd84 403e
00000160: 2d74 713e 9a0c 9fbe b6fd 9f3f 565e 443c
00000170: eeda 8639 14aa fabd 5773 ae3f 2b61 e93d
00000180: ad47 923d 6458 54be 5d00 9d3f 5dc9 b03f
00000190: b39f 95bf 149e 88be 9c72 293e 1267 a43e
000001a0: 1696 e93d 7d9d 83bd 9b8f b33f fad6 01be
000001b0: c65a 623e 36df 183e 7fe3 a93f 631e fbbc
000001c0: cc97 e23c ca5f 1e3e afc9 853f 2ea1 a33f
000001d0: c24f bcbf 6160 c4bd a1bf bc3d b588 a93d
000001e0: d346 9f3e 4e9e ec3c f980 a03f fc13 1d3e
000001f0: 437b 843d 7620 443d 8c5d 973f ec28 2b3e
00000200: 5416 c0be 8d51 32be 6c79 873f 1e90 aa3f
00000210: 57a4 97bf f585 79be 2f62 463e d1a9 9e3e
00000220: 377e 8e3e 6e7a c0bd 1eeb 983f 3325 78be
00000230: 68e8 443e 77bc 993e bf26 8e3f e270 2bbe
00000240: f80c 84be 0a71 d63d 1558 983f 1ffe c33f
00000250: c90a 9fbf 7081 ac3d 0ee4 4cbd 1f4b 4e3c
00000260: b586 f4bd e4e5 e8bd e4f3 c33f 1e10 e83d
00000270: 3906 9b3e 4cd8 31be 5a00 c13f aab2 403e
00000280: 45f4 e03c 0493 37be 744b ba3f 23b1 9c3f
00000290: f6ab 96bf 75b0 5bbe ae7a 9d3d d650 8b3e
000002a0: 9330 af3d f1f9 a0be f265 953f 410e a6bc
000002b0: 1a70 083e 76ad 063e 492e 933f 7a33 973e
000002c0: 5594 b9bd e0aa 24be b980 a93f 0ecd a53f
000002d0: b30e 9fbf d803 62be d808 7f3e e447 6b3e
000002e0: 01cd 043e 2768 99bd a5e5 9c3f d8e4 813d
000002f0: 31d7 24bd 4fb7 813e 9917 9c3f 084a 853e
00000300: c905 f83d f3a8 053e 3ca6 913f 0bbd ce3f
00000310: 2839 c1bf 82a0 93bb 7c6e 8b3e d649 553d
00000320: 88f5 243e 9d51 bbbd 3c3b c63f 2eb5 41be
00000330: 12d8 683e 0c1e 613e 425c a63f 3b09 743e
00000340: 3bd2 0ebe eb29 473e 21c8 983f db3e b93f
00000350: 335e 86bf cbc6 2d3e 1726 3b3e 44c3 b63e
00000360: 1ad3 af3d 7197 bd3d c17f c03f a013 ffbd
00000370: 7f29 9c3e b4f8 c63b 8904 8d3f 0cca 2ebe
00000380: 959a b2be cfd2 9c3d 1899 bf3f 855d aa3f
00000390: b920 90bf dc80 65be ddc8 803d 90d8 813e
000003a0: 811c e7bc dcdb 9fbc 9d37 953f 3391 283e
000003b0: c7f9 a6bc c198 3c3e 295a 9c3f 6f78 373e
000003c0: d06c aa3d 5504 71bd 7b4f 7d3f c1d2 9a3f
000003d0: 01ce bcbf 5643 013e 7548 cd3d c51e d03d
000003e0: 0ab2 a53c b4b3 36be f58e b73f fafb c0bd
000003f0: 8641 9f3e d9b5 15be adef 7e3f f0de b6bd

lstm.weight_hh_l1 f4 [64, 16]
0.11625141 -0.35531053 0.09488944 0.380855 -0.029531313 -0.37828958 -0.41837332 -0.21750273
-0.3505292 -0.42169094 -0.4071817 -0.5624378 -0.12477336 0.2015112 -0.30382854 -0.20085892
0.42057964 -0.05362128 0.30708516 0.37737867 0.051761374 -0.37304616 -0.17585592 -0.17511813
-0.27763125 -0.30904353 -0.28251147 -0.649668 -0.4043652 0.098901995 -0.12125883 -0.14147101
0.31229192 0.042714164 0.043294456 0.07873894 0.08380946 -0.08478457 -0.39740238 -0.5127835
0.034010608 -0.40716872 -0.466661 -0.5403998 -0.0607377 0.17933969 -0.43237197 0.01379625
0.23298568 -0.35874912 0.22508064 0.3485692 0.13675874 -0.37154502 -0.20331223 -0.35994372
-0.16441888 -0.21755476 -0.46325687 -0.51725644 -0.42396194 0.43157825 -0.19608831 -0.20785175
0.31076136 -0.34994888 0.14002636 -0.023134211 0.041109487 -0.21121009 -0.55675423 -0.45288298
-0.047295522 -0.41944715 -0.47590104 -0.44740564 -0.4675154 0.0048532095 -0.2783356 -0.25810707
0.0810735 -0.30490094 0.59245497 0.43488783 0.3512026 -0.26725698 -0.2465136 -0.10888139
-0.376615 -0.14502826 -0.5242477 -0.52381235 -0.12798408 0.16600873 -0.36097917 -0.028158113
0.31024456 -0.1456116 0.4473374 -0.078636974 0.29126024 -0.17221625 -0.08062989 -0.29829413
-0.3572055 -0.13549492 -0.13708745 -0.76272905 -0.18510388 0.30194852 0.03767637 -0.26595426
-0.018051751 -0.3159717 0.20882554 0.1828058 0.07001405 -0.19694868 -0.12846117 -0.5248553
-0.13353063 -0.019425204 -0.2854844 -0.41350687 -0.0037509212 0.3343684 -0.11744034 -0.26813942
0.23705027 -0.1601599 0.18153527 0.16753492 0.28620675 -0.40562427 -0.3146826 -0.38060302
-0.00013181775 -0.17353517 -0.17116262 -0.55450654 -0.29394642 0.2093221 -0.013582052 -0.21793988
0.088372186 0.044862673 0.2236895 0.39296353 0.031640943 0.00864217 -0.39862007 -0.4684412
-0.18642299 -0.31074962 -0.013276199 -0.4258337 -0.28012088 0.39279276 -0.054020174 -0.27517456
0.06513643 -0.014520726 0.3745028 0.10740815 0.14208531 -0.077659056 -0.41670462 -0.48321772
-0.15142234 -0.4402302 0.0036372375 -0.73658544 -0.25786692 0.18815225 -0.33238816 -0.09684547
0.26946786 -0.3916255 0.43055996 0.03389659 0.22881971 -0.038389836 -0.26535118 -0.23972276
-0.18166362 -0.26589242 -0.49351153 -0.33873215 -0.21695118 0.32212648 -0.11993974 -0.39089987
0.17707105 -0.14814688 0.33177912 0.32068777 0.3738648 -0.3304162 -0.34139305 -0.48657197
-0.26229924 -0.44856948 -0.14470908 -0.3981439 -0.39727792 0.21823268 0.05673865 0.045545183
0.40528783 -0.04854021 0.37059027 -0.09086508 -0.07850554 -0.38571095 -0.3841242 -0.27449304
-0.33535329 -0.13981335 -0.25521588 -0.62103516 -0.2731455 0.35818672 -0.3851357 -0.029650789
0.27270132 -0.21644428 0.2117071 0.08764308 0.18083742 -0.38211322 -0.16599639 -0.22618636
-0.07295009 -0.42438173 -0.35356712 -0.48134905 -0.29543105 0.48010778 -0.0892051 -0.28913495
0.3414928 -0.31602103 0.4595019 -0.029442241 0.2238815 -0.081649184 -0.47116113 -0.23433861
-0.25075692 -0.3358257 -0.221511 -0.45678905 -0.1969941 0.067640476 -0.0102888355 -0.2576163
00000000: 3815 ee3d 43eb b5be 6555 c23d 6dff c23e
00000010: a7eb f1bc 2caf c1be 0735 d6be 09b9 5ebe
00000020: 9078 b3be e0e7 d7be 1f7a d0be ecfb 0fbf
00000030: 2d89 ffbd f458 4e3e 6a8f 9bbe f6ad 4dbe
00000040: 3756 d73e fda1 5bbd 443a 9d3e c737 c13e
00000050: bc03 543d e8ff bebe 9313 34be 2b52 33be
00000060: af25 8ebe f43a 9ebe 58a5 90be a450 26bf
00000070: f508 cfbe 218d ca3d 8d56 f8bd c7dd 10be
00000080: bae4 9f3e 0cf5 2e3d 8755 313d e241 a13d
00000090: 4ba4 ab3d 88a3 adbd 5378 cbbe c845 03bf
000000a0: b54e 0b3d 6b78 d0be 31ee eebe a457 0abf
000000b0: 18c8 78bd d3a4 373e dc5f ddbe ab09 623c
000000c0: cc93 6e3e f7ad b7be 8a7b 663e aa77 b23e
000000d0: 7c0a 0c3e 263b bebe 1531 50be 8b4a b8be
000000e0: 6c5d 28be adc6 5ebe 0130 edbe eb6a 04bf
000000f0: 8a11 d9be d3f7 dc3e 60cb 48be 17d7 54be
00000100: 1d1c 9f3e 802c b3be 1263 0f3e f583 bdbc
00000110: 6c62 283d 7547 58be 7287 0ebf 47e0 e7be
00000120: f3b8 41bd c7c1 d6be 4da9 f3be 5a12 e5be
00000130: 2e5e efbe ac07 9f3b 0182 8ebe 9c26 84be
00000140: dd09 a63d fa1b 9cbe 21ab 173f 9ea9 de3e
00000150: d4d0 b33e e8d5 88be 106e 7cbe 35fd debd
00000160: aed3 c0be 4a82 14be 1935 06bf 9118 06bf
00000170: 420e 03be 31fe 293e 43d2 b8be d8ab e6bc
00000180: 60d8 9e3e 351b 15be 6809 e53e 6c0c a1bd
00000190: 1020 953e 7559 30be 4921 a5bd 02ba 98be
000001a0: a4e3 b6be 2ebf 0abe a760 0cbe 3642 43bf
000001b0: df8b 3dbe ff98 9a3e 8a52 1a3d 282b 88be
000001c0: 44e1 93bc 0bc7 a1be 5dd6 553e 7231 3b3e
000001d0: 8763 8f3d eaac 49be 538b 03be eb5c 06bf
000001e0: 41bc 08be 9b21 9fbc 032b 92be 2cb7 d3be
000001f0: 04d2 75bb 5632 ab3e 9084 f0bd 9249 89be
00000200: 4ebd 723e f500 24be 62e4 393e 468e 2b3e
00000210: b189 923e fcad cfbe 141e a1be 66de c2be
00000220: 8f38 0ab9 34b3 31be 4145 2fbe 24f4 0dbf
00000230: 2580 96be 8858 563e 4187 5ebc a22b 5fbe
00000240: 7afc b43d ecc1 373d dc0e 653e 8432 c93e
00000250: ef99 013d e397 0d3c ee17 ccbe 86d7 efbe
00000260: abe5 3ebe 931a 9fbe 6a84 59bc e006 dabe
00000270: 016c 8fbe 221c c93e 4244 5dbd aee3 8cbe
00000280: 4066 853d 57e8 6dbc d5be bf3e cef8 db3d
00000290: d07e 113e b60b 9fbd 4f5a d5be 5068 f7be
000002a0: 750e 1bbe da65 e1be b85e 6e3b dd90 3cbf
000002b0: 2207 84be fcaa 403e c82e aabe eb56 c6bd
000002c0: b1f7 893e 2383 c8be 5b72 dc3e 27d7 0a3d
000002d0: b74f 6a3e a93e 1dbd 1cdc 87be e279 75be
000002e0: 0706 3abe 0d23 88be 8bad fcbe 4d6e adbe
000002f0: 7328 5ebe c3ed a43e f7a2 f5bd 0724 c8be
00000300: 1d52 353e d1b3 17be f4de a93e 3031 a43e
00000310: 356b bf3e 502c a9be 12cb aebe f61f f9be
00000320: 164c 86be e6aa e5be 9e2e 14be 84d9 cbbe
00000330: 0368 cbbe 6378 5f3e c966 683d 968d 3a3d
00000340: e381 cf3e 19d2 46bd 02be bd3e 7917 babd
00000350: 83c7 a0bd e87b c5be edab c4be 5a8a 8cbe
00000360: 6db3 abbe 3b2b 0fbe a8ab 82be 29fc 1ebf
00000370: bad9 8bbe 4064 b73e 8230 c5be 36e6 f2bc
00000380: 829f 8b3e 92a3 5dbe bfc9 583e 377e b33d
00000390: 722d 393e 58a4 c3be f5fa 29be 669d 67be
000003a0: db66 95bd 9048 d9be c006 b5be 6273 f6be
000003b0: bd42 97be b0d0 f53e 2ab1 b6bd 7f09 94be
000003c0: 25d8 ae3e 82cd a1be d543 eb3e db30 f1bc
000003d0: 3141 653e b037 a7bd 083c f1be 76f6 6fbe
000003e0: 3663 80be 59f1 abbe c8d3 62be 41e0 e9be
000003f0: d2b8 49be 1787 8a3d 8192 28bc 49e6 83be

lstm.bias_ih_l1 f4 [64]
1.704246 1.6407815 1.3946965 1.4134593 1.6022451 1.6355467 1.542385 1.2932397
1.1258395 1.6429074 1.3748405 1.6719801 1.3374866 1.2389677 1.4669908 1.130874
0.36958537 0.279802 0.09633944 0.3920929 0.3358275 0.1192526 0.5581691 0.48130143
0.06527215 0.32892513 0.5666341 0.6928344 0.40339762 0.21094947 0.29948136 0.23219287
0.9788199 -0.709275 0.89362204 0.93633807 1.0321345 -1.0615681 -0.82975733 -0.7212456
-0.9458781 -0.9979718 -0.8987244 -0.74334663 -0.9399727 0.7999749 -0.62708145 -1.0488031
1.5876454 1.419293 1.1737531 1.5236312 1.1973921 1.1967583 1.633512 1.4795256
1.1300261 1.4545032 1.4662579 1.28774 1.3718282 1.4645629 1.3106779 1.1557171
00000000: bc24 da3f 2105 d23f 6a85 b23f 3cec b43f
00000010: 5e16 cd3f 9859 d13f df6c c53f e188 a53f
00000020: 821b 903f ca4a d23f c6fa af3f 7203 d63f
00000030: c332 ab3f 7e96 9e3f 5bc6 bb3f 7bc0 903f
00000040: 4b3a bd3e 3542 8f3e 9d4d c53d 67c0 c83e
00000050: 95f1 ab3e b53a f43d 2ce4 0e3f 246d f63e
00000060: 68ad 853d e068 a83e ef0e 113f 985d 313f
00000070: 228a ce3e 2303 583e 9f55 993e f8c3 6d3e
00000080: f193 7a3f 0c93 35bf 6ac4 643f dab3 6f3f
00000090: fc1c 843f 77e1 87bf fa6a 54bf 8da3 38bf
000000a0: 1125 72bf 147b 7fbf cd12 66bf f74b 3ebf
000000b0: 0da2 70bf 28cb 4c3f 6988 20bf 2e3f 86bf
000000c0: f737 cb3f 65ab b53f 8b3d 963f 5906 c33f
000000d0: 2544 993f 602f 993f ec16 d13f 1861 bd3f
000000e0: b2a4 903f 292d ba3f 57ae bb3f aad4 a43f
000000f0: 1198 af3f cc76 bb3f 4bc4 a73f 8aee 933f

lstm.bias_hh_l1 f4 [64]
1.2582161 1.5787091 1.2117068 1.408113 1.3245747 1.4411223 1.4757565 1.5153741
1.4512539 1.228185 1.5159025 1.3763353 1.2860421 1.6060683 1.4860958 1.5835298
0.19255316 0.43573096 0.07478114 0.064325534 0.34092987 0.4720379 0.20449847 0.2891589
0.30391848 0.42003927 0.12050779 0.6714012 0.29262418 0.08190946 0.44361904 0.44119263
0.994958 -0.97503036 0.9379874 0.74195594 0.764923 -1.0695566 -1.1321675 -1.04835
-1.024864 -0.91875434 -0.6396137 -1.1190984 -0.938077 0.87327623 -1.040187 -0.7152593
1.5309983 1.172693 1.4517912 1.4625697 1.4353354 1.3817538 1.6079046 1.3757647
1.3104447 1.4435511 1.4874505 1.5807848 1.2532897 1.5242724 1.3054985 1.2965168
00000000: 3a0d a13f 2413 ca3f 3519 9b3f 0c3d b43f
00000010: aa8b a93f b276 b83f 97e5 bc3f c7f7 c13f
00000020: b0c2 b93f 2b35 9d3f 1809 c23f c12b b03f
00000030: 079d a43f a593 cd3f 6338 be3f 1bb1 ca3f
00000040: a82c 453e 2118 df3e db26 993d 1bbd 833d
00000050: 5c8e ae3e f4ae f13e 0c68 513e a30c 943e
00000060: 349b 9b3e 630f d73e cacc f63d f3e0 2b3f
00000070: d6d2 953e 26c0 a73d 0922 e33e 00e4 e13e
00000080: 91b5 7e3f 979b 79bf f11f 703f d3f0 3d3f
00000090: fed1 433f 3be7 88bf ddea 90bf 5530 86bf
000000a0: be2e 83bf 7c33 6bbf b9bd 23bf 9e3e 8fbf
000000b0: d025 70bf 088f 5f3f d924 85bf 3c1b 37bf
000000c0: c1f7 c33f ce1a 963f 4bd4 b93f 7c35 bb3f
000000d0: 12b9 b73f 4fdd b03f d1cf cd3f 0f19 b03f
000000e0: a7bc a73f 48c6 b83f c764 be3f 2857 ca3f
000000f0: cc6b a03f 5c1b c33f 931a a73f 43f4 a53f

mlp.weight f4 [1, 16]
4.305586 -4.412949 4.568678 4.3267817 4.5149956 -4.3609557 -4.365647 -4.4255633
-4.5131607 -4.3037868 -4.4919653 -4.4351006 -4.3523993 4.488634 -4.4534955 -4.4384604
00000000: 5cc7 8940 e136 8dc0 9c32 9240 ff74 8a40
00000010: d87a 9040 f38c 8bc0 61b3 8bc0 379e 8dc0
00000020: d06b 90c0 9fb8 89c0 2ebe 8fc0 58ec 8dc0
00000030: db46 8bc0 e4a2 8f40 0983 8ec0 de07 8ec0
