checkpoints/short_term_forecast_m4_Monthly_LSTM_m4_ftM_sl96_ll48_pl96_dm32_nh8_el2_dl1_df32_fc3_ebtimeF_dtTrue_Exp_0/checkpoint.pth (torch, 55083 bytes, 9 tensors)

lstm.weight_ih_l0 f4 [128, 1]
00000000: 41cc 05be 9202 953c 18ac 183e c275 243e
00000010: 67dd b83d 05a8 d1bd 0bff 24be 3edc 493e
00000020: 9814 e4bd 8233 11be 2914 2c3e 85b9 29be
00000030: 6c51 2e3e 4a18 cfbd 60b5 1c3e 194e fc3c
00000040: cea4 1ebc 7d8b 93bd 280b 253e 6b23 ae3d
00000050: b145 2a3e 10b2 8ebd 05f6 323e be82 6c3c
00000060: a3f5 4abd 921d 26be f946 f53d d264 21be
00000070: d2db e9bd 46e8 c3bd e970 053e 24fb 073e
00000080: 7e2e ef3d c109 b13c fcc0 b43d 10f4 ef3d
00000090: e8cc 2abe ed93 17be f7cc 2ebe d4a1 edbd
000000a0: 8a6d b43d 271c 213e e079 9a3d 87ee 0bbe
000000b0: 9ca2 b43d b67c cb3d 29f6 203e bf45 1fbe
000000c0: 21cf f7bc ba50 babd 06f5 1d3e 8a94 c93d
000000d0: eaaa 333d 4087 343c c068 9a3d 7f17 0ebe
000000e0: 60f4 91bc 4997 07be 2e2e 813d 186f 603d
000000f0: f27b 1dbe 9eb9 f7bb b21c b23d eadb bd3d
00000100: 0dc4 2a3e acfd 24be f2d1 e7bd 984b f5bd
00000110: 5ed4 1cbe bdc7 2cbe 126d 05be 4237 053e
00000120: 4262 1abe c6aa a5bd 94b3 04be 574c 0bbe
00000130: 86af 243e 7a1b 2fbd e97e e9bd 5cf9 283e
00000140: f7a8 cebd 0d47 99bd aea0 edbd 428e f2bd
00000150: 7d61 febd 8057 2ebd 3c84 fa3c feae d5bd
00000160: 1341 a83c cb4a 323e bf09 c9bb 9602 98bc
00000170: fe33 32be 35e1 03be d2a7 f33d 4ca7 033e
00000180: cfb7 2abe 4920 dc3d 181e db3d bae4 ce3c
00000190: f311 433e 748b fa3c c419 0abe 0a18 493e
000001a0: eacd a53d d2f8 abbd d1ae 4d3d fcc3 033e
000001b0: 0b0f 423e d185 af3d a6fe 093e 022b d93d
000001c0: d3fa 2bbd bfbf 03be e88f 513d 7899 30be
000001d0: e07a 2d3e 324a fcbd d1da d0bd fa30 123e
000001e0: e760 77bd 3d00 edbd d339 12be d25c a23d
000001f0: 6f5e 21be a0ec 093e 799e 0b3e 8644 523e
-0.13066198 0.018189702 0.14909399 0.16060546 0.09026604 -0.10237125 -0.16112916 0.19712922
-0.111367404 -0.14179805 0.16804565 -0.16574676 0.17023247 -0.10112055 0.15303564 0.030798959
-0.009682847 -0.0720434 0.16117537 0.08502849 0.16628148 -0.069675565 0.17476662 0.014435468
-0.049550664 -0.16222218 0.119764276 -0.15761116 -0.114188805 -0.09565787 0.13031353 0.13279396
0.116787896 0.021611096 0.08825871 0.11716473 -0.16679728 -0.14802523 -0.17070375 -0.11603132
0.088099554 0.15733396 0.07542777 -0.1366521 0.08820078 0.09935896 0.15718903 -0.1555395
-0.030250134 -0.090974286 0.154255 0.09842785 0.04386417 0.011018574 0.07539511 -0.1387615
-0.017816722 -0.13241304 0.06307636 0.054793447 -0.15379313 -0.007559969 0.086968794 0.09270461
0.1667635 -0.16112393 -0.11319341 -0.11977309 -0.15315387 -0.16873069 -0.13029888 0.1300936
-0.15076545 -0.08089213 -0.12959129 -0.1360334 0.16082582 -0.042750813 -0.11401159 0.16501373
-0.10090821 -0.07484255 -0.11602913 -0.1184354 -0.12420938 -0.042563915 0.030580632 -0.10433768
0.020538842 0.17411344 -0.006135195 -0.01855592 -0.17402646 -0.12878878 0.118972436 0.12856787
-0.1667168 0.107483454 0.10699099 0.02525555 0.19049816 0.030584075 -0.13486391 0.19638076
0.080959156 -0.08397068 0.050215546 0.12867731 0.18951051 0.08570445 0.13476047 0.10603906
-0.04198725 -0.12866114 0.05116263 -0.17246044 0.16941404 -0.12318839 -0.10197986 0.14276496
-0.060395148 -0.11572311 -0.1427987 0.0792786 -0.1575868 0.13469172 0.13634671 0.20533952

lstm.weight_hh_l0 f4 [128, 32]
00000000: c742 8dbd 2133 1dbe 6b80 8abc ee32 103e
00000010: 3e62 acbd 5a94 27be d5f1 0b3e c8ea ff3d
00000020: 1904 133e 5a86 e83d cf4c f33b 403f 12be
00000030: e033 fabd c03a a7bd 556b eabd 5a78 0cbe
00000040: 1516 093e 6f4b 073e 22fe e8bd b09d 34bc
00000050: 902a 2e3e 0ec6 b03d 8cb1 14bd ccb9 4abd
00000060: 6a5a b83d 1766 8dbd a858 09be e488 4abd
00000070: 8a26 e63d ba2b 92bd f95e fdbd 130a 87bd
00000080: f91d 8bbd 1068 0bbe dab8 60bc 9b11 883d
00000090: d850 1e3e 1480 453d 7580 0f3e 6124 a33d
000000a0: c4f8 3abd bd79 09be f97b 66bd de59 ac3d
000000b0: be44 423d ccaa 41bd 052d 91bc bcbc d43d
000000c0: f5b3 8ebc 438b 053e d0e4 fabd f849 ac3c
000000d0: bfae a63d 2391 103e 800e c83c cefb 1e3c
000000e0: a5f1 1d3e 1068 00be 47fd aabd ee98 d3bd
000000f0: 1743 2d3e 80b5 033c f479 08be 53e8 f93c
00000100: 1203 2bbe b4d7 c53d 3dc6 0d3e 9731 973d
00000110: 25da 17bd 5a3d cabd b565 1e3e 44dd fabc
00000120: 0402 933d 901c 3abc 75c5 143e 68a6 fabc
00000130: c804 e73d ca80 06be b217 18be ed63 f23c
00000140: 9b3e 183e 96bf ebbd 4459 f13d 809b b43c
00000150: 25c2 1fbe 7c92 d8bd b84b c1bc 382d f03c
00000160: 9ab6 9d3d 61b8 233e bb7b 233e 5b0f 15be
00000170: 66aa cc3d 78c0 40bd ce55 2cbc 63d1 293e
00000180: 6ccf 04bd 1736 95bd ef46 c83d 6ae4 723b
00000190: 433d 523d 38d3 8c3c a987 283e e2d8 103e
000001a0: b073 6d3d a0b2 9a3c 92dd 5c3d 9374 8bbd
000001b0: 1951 d03d 6faa 123e 13f4 0c3e beb6 cabd
000001c0: 5a80 a6bd 41ee 1a3e d165 0f3e 7277 dc3d
000001d0: 01be 143e 5ff0 253e 30d7 c0bd 3bb7 0fbe
000001e0: 002b 2bbb 4e7b dc3d 85a7 a2bd e1e5 dcbd
000001f0: f697 32be b80b cd3c 1c40 b63c b9f5 c2bd
00000200: 7e21 8a3d fa9e 01bd 8dc5 1cbe cad1 cabc
00000210: 9753 3ebe e1bc 2d3e 7f75 26be cf3e 963d
00000220: c5ef cbbd 28ae e6bd f9d9 a33d 725d 9f3d
00000230: ffe3 323e 5d78 153e 9a0d a0bd 7913 e8bc
00000240: ebb5 153d 0b70 033e 176a abbd 1271 d7bd
00000250: 6d2e b63d b794 293e 405e 1e3c 5ff4 07be
00000260: 1e4e d4bd 4868 24be cc9c 5cbd 62e8 923d
00000270: 0096 8239 1ebc 973d 9d5a 4f3d 2ba3 223e
00000280: cebf a53d c720 033e ef8f 863d d336 15be
00000290: c4f6 bd3d 2bff 313e 2af4 e53d ffcb 2abd
000002a0: 145a 15bd 6ecc aa3d d859 04be eaf6 e9bd
000002b0: 140e 343d a64d 853d 90f9 2c3d de5d 47bd
000002c0: 6647 84bd 58cb 2fbd 47b3 15be f03c adbc
000002d0: e765 d03d e7ca 16be f0dc 3dbc 795d 2a3e
000002e0: 8090 cdbb c0da 903c bc8f 8e3d 4458 65bd
000002f0: 7ca4 25be 40a9 61bd 51c0 243e d246 68bd
00000300: ebdd 0d3e 7145 a93d 4ebc 3f3d fe50 f0bd
00000310: 82fd 053e 1fd5 303e cab7 2dbe 7e15 203e
00000320: ae56 1dbe bab0 06be 09dc bd3d 4a85 f73d
00000330: 7272 56bd 214a 8abd 729c 3dbd 4edd a53b
00000340: b80a 843d ee04 56bd f2fe 24be 9f65 1cbe
00000350: f192 193e ad31 e5bd 4c67 d4bd 1495 8b3d
00000360: f617 bf3d 0e89 c2bd f47a 1bbd c8f6 c7bc
00000370: 188b 10bd 7878 1dbd a7d9 003e 7922 24be
00000380: 3ac7 b73d a069 a83c a8de 0d3e 4cc6 c3bc
00000390: e782 6abd f423 1abd f0d4 a8bc a3d2 34bd
000003a0: a2a4 ae3d e9b5 2f3e f0ac 95bd 102c 10bd
000003b0: 3d0d 2dbc 807a 293c ed5f 533c 921c 033e
000003c0: f077 113d d98a 173e e8f7 aa3d 449f 91bd
000003d0: e56b 26be 1265 67bd c03c d73b 3c0b 913d
000003e0: 8e28 20be 4b30 a6bd 4a56 ba3d 5069 19bd
000003f0: 8942 033e 1e28 1ebe c08c c73d 02f0 0dbd
-0.068975024 -0.15351535 -0.016906938 0.14081928 -0.08417176 -0.16365185 0.1366647 0.12495953
0.14357032 0.113537505 0.007424928 -0.1428194 -0.122169256 -0.081655025 -0.11446253 -0.13717785
0.1338733 0.1321237 -0.11376597 -0.011023924 0.17008424 0.08631526 -0.036302134 -0.049493596
0.0900162 -0.06904238 -0.13412726 -0.049446955 0.112378195 -0.071372464 -0.1237163 -0.065937184
-0.06792826 -0.13613915 -0.013715947 0.06643983 0.15460527 0.048217848 0.14013846 0.07965923
-0.045647398 -0.13425346 -0.056270573 0.08415578 0.04742884 -0.047282025 -0.017721662 0.10387561
-0.017419795 0.13041405 -0.12250674 0.021031365 0.08138799 0.14117865 0.024420977 0.00970359
0.15424211 -0.12539697 -0.0834909 -0.103319034 0.16920124 0.008038878 -0.13327771 0.030506289
-0.1670039 0.09660283 0.13845153 0.073825054 -0.037073273 -0.09874983 0.15468486 -0.030623086
0.07178119 -0.011359349 0.14528449 -0.030596927 0.11280209 -0.13135067 -0.14852789 0.029588664
0.14867632 -0.115111515 0.11784604 0.022046804 -0.15601404 -0.10574815 -0.023595676 0.029318437
0.07700844 0.15988304 0.15965168 -0.14556639 0.099934384 -0.047058553 -0.010518504 0.16583781
-0.032424375 -0.072857074 0.097791545 0.0037062415 0.051327955 0.01719056 0.16458 0.14145234
0.057971656 0.018884003 0.053922243 -0.06809344 0.10171718 0.14322828 0.13764982 -0.098981366
-0.0812995 0.15129949 0.14003684 0.1076497 0.14525606 0.16204976 -0.09416044 -0.1403474
-0.002611816 0.10765706 -0.07942108 -0.107860334 -0.17440781 0.025030002 0.022247367 -0.09519524
0.067446694 -0.031645752 -0.15309735 -0.024758238 -0.18586574 0.16966583 -0.16255759 0.073361985
-0.09957842 -0.112636864 0.08000559 0.07781495 0.17469786 0.14596696 -0.07815094 -0.028329598
0.036550444 0.1283571 -0.083698444 -0.10519613 0.08895574 0.16560636 0.009666026 -0.13276814
-0.10366462 -0.16055405 -0.05386047 0.0717323 0.0002490729 0.074089274 0.050623525 0.15882556
0.080932245 0.12805472 0.06570422 -0.14571695 0.092755824 0.17382495 0.11228211 -0.041698452
-0.03646286 0.08339773 -0.12924898 -0.11424048 0.04395874 0.06508951 0.04223019 -0.048673503
-0.06458931 -0.042918533 -0.1461917 -0.021147221 0.10175686 -0.14725839 -0.01158832 0.1663722
-0.0062733293 0.017682433 0.06961009 -0.05599238 -0.16176027 -0.05509305 0.16088988 -0.056708165
0.13854186 0.08265198 0.04681044 -0.11734198 0.13084987 0.17268799 -0.16964641 0.15633199
-0.15365097 -0.13153353 0.09270484 0.1208597 -0.052355237 -0.0675242 -0.046291776 0.005061782
0.06447357 -0.052250795 -0.16112879 -0.1527314 0.1499746 -0.111911155 -0.10371265 0.06815544
0.09330742 -0.09498797 -0.037959054 -0.024409667 -0.0352889 -0.038444966 0.12583028 -0.16028775
0.08973546 0.020558178 0.13854468 -0.023898266 -0.057253744 -0.037631944 -0.020609349 -0.04414619
0.08527495 0.17159237 -0.07308376 -0.03519827 -0.010562238 0.010344148 0.012901288 0.12803867
0.035514772 0.1479906 0.083480656 -0.07110456 -0.16252096 -0.056492873 0.0065685213 0.07082221
-0.1564047 -0.0811468 0.090984896 -0.03745395 0.1281835 -0.15444991 0.09743643 -0.034652717

lstm.bias_ih_l0 f4 [128]
00000000: 318c 333e cb61 35bd 6cd2 353e c8cf bb3c
00000010: cfb1 3a3d a12f a5bd 44da 7e3d 8023 eebc
00000020: 6cbe 54bd 019f 26be 3c8d 1a3b c542 6fbd
00000030: 7786 8b3d ddd5 303e cdc9 1bbe fd9c f93c
00000040: 3294 c03d 4558 ccbc 1e7d b23d 7aee 963d
00000050: 9e8c c73d cf90 dabd 7bcb aebd d262 943c
00000060: 8514 673d 0d28 6fbc 4986 303e e49c bfbd
00000070: 30ae 203e 4952 dbbc 48c0 d33d 6f55 0e3e
00000080: e738 2a3e 5cd3 fe3d 9ea0 b1bd 1cb9 c83d
00000090: 9714 12be 3451 283d 4e14 a13d cf57 173e
000000a0: 6399 0f3e 6dce 0b3e 1cf8 cdbd 1f32 313e
000000b0: de70 733d 307c bdbc 405a f23d b722 d13c
000000c0: c016 c63d a125 103e 3aee 8b3d 5427 1c3d
000000d0: 058e 203e 87ac 103e f6f7 f53d 04ce 0fbd
000000e0: f80c d6bc 6210 f63d 1546 1f3e f8f9 e5bc
000000f0: 82ce 06be 80cb ad3c 1dbf afbd 892c 34be
00000100: 94a7 6a3d 1b9a cabd 7e07 c8bd 36cb 70bd
00000110: 48d8 733c d058 23ba d220 0cbe 85ce d5bd
00000120: f97b 0c3e 6bc3 073e 30a5 06be 719a 52bd
00000130: 38a8 1e3e 912e 803d 535e 89bc 7139 7bbc
00000140: 2936 2c3e c023 2f3e 9ef1 e53d 7402 4abd
00000150: f699 8abc 18d1 46bd 6f8e 00be 02fe f83d
00000160: e856 4c3c 4663 71bd 7956 99bd bef4 5dbb
00000170: 4002 4e3c b373 0d3e 7fad 293e 1731 1bbe
00000180: 66e2 153e 624e 223e b949 a53d 62fc 0c3e
00000190: 2685 25be 1620 c3bd 665f 1e3d 319b 053e
000001a0: b8a1 d93d f017 813d 6be7 003e f936 d23d
000001b0: 0e70 23bd eefb c13d 77f0 943d 628a c83d
000001c0: 3094 a5bb 0ea2 1fbe d51c 4d3d 583a 08be
000001d0: 9f15 b63d 8013 053c 0e2c 163e 5e61 7abd
000001e0: d2cd 1dbd 692b 09be 594b 05be 3c52 24be
000001f0: eb07 17bb 8ff3 3ebd 14dc 103e 9472 553d
0.17533948 -0.044282716 0.17756051 0.022926226 0.045579728 -0.08065725 0.062219873 -0.029069662
-0.051939413 -0.16271593 0.0023582717 -0.058413286 0.068127565 0.17269082 -0.152137 0.030470366
0.09403266 -0.024944434 0.087152705 0.073697045 0.097436175 -0.10672151 -0.085349046 0.018113527
0.056416053 -0.014596951 0.17238726 -0.093560964 0.15691447 -0.026772635 0.10339409 0.13899778
0.16623269 0.12442657 -0.086732134 0.09800932 -0.14265667 0.041093066 0.07865201 0.1477959
0.14023356 0.13652964 -0.10057089 0.17304276 0.05943381 -0.023130506 0.1183362 0.025529249
0.09672308 0.14076854 0.068325475 0.038123444 0.15679176 0.14128314 0.120101854 -0.03510858
-0.02612923 0.120148435 0.15554078 -0.028073296 -0.13164714 0.0212152 -0.08581374 -0.17595114
0.05728872 -0.098926745 -0.09767054 -0.058787547 0.014883108 -0.00062311906 -0.13684395 -0.10439781
0.13719167 0.1325814 -0.13148952 -0.051416818 0.15493858 0.06258882 -0.01676861 -0.015333519
0.16817535 0.17103481 0.112277254 -0.049318746 -0.016919117 -0.04853925 -0.12554334 0.12157823
0.012471892 -0.058932565 -0.074871965 -0.0033867802 0.012573779 0.13813667 0.1657009 -0.15155445
0.14637145 0.15850213 0.08070702 0.13768151 -0.16164073 -0.09527604 0.038665198 0.13047482
0.106265485 0.06303394 0.12588279 0.102643915 -0.039901786 0.0947188 0.072724275 0.097920194
-0.0050530657 -0.15589163 0.050076324 -0.13303506 0.08890843 0.008122325 0.14665243 -0.061128013
-0.038526364 -0.13395466 -0.13017024 -0.16046995 -0.002304549 -0.046618994 0.14146453 0.052111223

lstm.bias_hh_l0 f4 [128]
00000000: 9551 2a3d cd96 a1bd e4a5 1a3e 2590 85bd
00000010: 90a2 98bc 6acd 963c bbac b6bd 124f 323b
00000020: 04e4 253d 18fd 113e eebb d1bd c536 1c3e
00000030: 0e4f babb d74e 6dbd ebcb b3ba 4b37 533e
00000040: cbcf 32be a2c5 b5bd 3f0e 893b 0260 c83d
00000050: 6c28 d5bb 1eff f23b e8c2 283e 1049 8fbd
00000060: e163 6dbd 85cd f7bd 68f9 e3bc b5dc 08be
00000070: 4e8b 31bd bb95 35be 507e c0bc 150b 503e
00000080: 227b c33d f28d dcbd 2066 d03d c257 653d
00000090: 5bf0 0d3d 515f 013e 73c3 1b3e dbcd c6bd
000000a0: 9a4b 26be 78ac 49bd aae9 82bd d4c3 01bd
000000b0: fbb6 243e a2eb f2bd 8228 f0bd 24f0 6a3d
000000c0: 631f 24be b3be 2abe ab06 c4bc 0ecc ce3d
000000d0: 59ad 21be 90c2 54bc 2e59 c0bd eca7 703d
000000e0: e2c2 a33d ffeb 20be f41f 623d d97f 213e
000000f0: be63 1bbe 3899 543d 0a9c 523c f33e 9b3d
00000100: 1600 b1bd 9ef0 3a3c 1924 113d ee84 623d
00000110: b04e b4bd 924e 9bbc 35f4 99bd 911e 82bc
00000120: a041 25be 530d 183d 1a6a ef3c 686c 8ebd
00000130: 2419 0c3e 0bae 843b 851e 00be efdd 533c
00000140: 9379 1e3e 9cb1 f83d 969b 833c f8be ffbd
00000150: 6f08 1e3e 36a0 d83d 15ec 80bd 9f41 04be
00000160: 90a2 bfbd a84f 13be b5d2 053b 9446 c53d
00000170: e09e 913b 6dff acbc aff7 0d3e 461d 233e
00000180: 8aec 2fbe 4ab6 24bc 4692 ec3c 754f 6b3e
00000190: e8da e83d 2780 6abd 7189 30be 550e cbbd
000001a0: ae9b 30be 4c78 e43d bf07 f03d c51c 133e
000001b0: 6a58 983d 6c40 aabd a213 9f3d 5b36 2c3e
000001c0: 08e5 53bb fe68 2cbe 53fc b43c 6890 cfbc
000001d0: 0e06 89bd 626c d1bd 2574 03be 4a62 a7bd
000001e0: 5df2 13be 2e30 93bd 32a2 05be fda2 b7bc
000001f0: 7c9e 313e b9ae 4cbc 0a78 a33d e157 10be
0.04158171 -0.07890091 0.15102345 -0.06521634 -0.018632203 0.018408496 -0.089196645 0.0027207774
0.040500656 0.14256704 -0.10240923 0.15255268 -0.0056856936 -0.057936516 -0.0013717389 0.20626561
-0.17462079 -0.08875586 0.0041826065 0.09783937 -0.006505063 0.0074156662 0.16480601 -0.069963574
-0.05795658 -0.120997466 -0.027828887 -0.13365443 -0.043345742 -0.17732899 -0.02349773 0.20316727
0.0954497 -0.107692614 0.10175729 0.055991895 0.03465305 0.12634017 0.15211277 -0.097072326
-0.16239777 -0.049236745 -0.06392224 -0.031680897 0.16085427 -0.1186135 -0.11726476 0.057357922
-0.16027598 -0.16674308 -0.02392896 0.10097514 -0.15788783 -0.01298584 -0.0939201 0.058753893
0.07996155 -0.15715025 0.055206254 0.15771426 -0.15174767 0.051903933 0.012854585 0.07580366
-0.086425945 0.011409907 0.035434816 0.055302553 -0.08804071 -0.018958364 -0.07517282 -0.015883716
-0.16138315 0.037122082 0.029225398 -0.069542706 0.13681465 0.004049068 -0.12511642 0.012931331
0.15476064 0.12143251 0.0160654 -0.12487596 0.15432905 0.10577433 -0.06295029 -0.12915657
-0.09357178 -0.14385855 0.002041978 0.09632602 0.004443988 -0.02111789 0.13864015 0.15929136
-0.17180076 -0.010053227 0.028878342 0.22979529 0.11369878 -0.05725112 -0.1723993 -0.09914843
-0.17246887 0.11155757 0.117202275 0.14366443 0.07438739 -0.08313069 0.077674165 0.1681761
-0.0032332558 -0.16836926 0.022092974 -0.025337413 -0.06690608 -0.102257505 -0.12837274 -0.08173044
-0.14447923 -0.07186924 -0.13050154 -0.022416586 0.17345613 -0.012492829 0.0798188 -0.14096023

lstm.weight_ih_l1 f4 [128, 32]
00000000: d554 a23d 1a06 8abf e4cf 9abf 2fbb 06c0
00000010: e434 91bf 676a 953d 2eef ccbd 4278 953f
00000020: 5580 ba3d 80b8 7abd f4db 80bf cfa4 513d
00000030: b243 9b3f 7e93 16be 00a9 7bbf 5bbb e03f
00000040: 1727 58bc e3e3 0fbe 6b8f 87bf 47c7 9c3d
00000050: adff 93bf 9ac6 99bd 320d 223d 7397 a1be
00000060: f8e3 353d 416f 833d 47bd 2cbc fb12 d73d
00000070: 2cc8 23be 21e0 55bd 28e2 873f d759 983f
00000080: 8a25 d0bb e7e2 92bf ccbb 81bf da23 17c0
00000090: 202b 93bf 8462 ed3d df0d f1bc 8e78 953f
000000a0: 8a7e e13d 75cc 783c 9633 5fbf f910 203e
000000b0: 4d90 903f eb5e 32be e015 8cbf adce e03f
000000c0: 63f5 c13c 6b77 103e 7500 95bf 8938 7e3d
000000d0: 3754 77bf 761d 9e3c 5161 91bb e590 91be
000000e0: c008 153b 57ca a0bc 4565 fe3d 9056 343e
000000f0: 3409 1abe 2154 edbd 9c0a 8b3f aff9 813f
00000100: f926 0fbe 813e 63bf 96b6 87bf 29bc 25c0
00000110: 6543 85bf 61c2 2f3e 6399 173e 0b71 8d3f
00000120: 3472 d13d c21f 49bd 5c35 80bf e181 273e
00000130: 7fc2 8a3f 0d2f f6bd 5bd3 6cbf c8af c83f
00000140: 8b68 e53d 33d6 0cbe 4004 6bbf 729e fe3c
00000150: cbc9 7bbf 966e 30be 7a91 283e 3a03 f4be
00000160: 7b28 f93d f7ab d8bd c481 e93d 70e6 b73d
00000170: ebff bd3d dad3 a23c f7c3 5c3f 0de7 903f
00000180: 2681 1f3e 6db6 95bf e704 80bf 9a67 1fc0
00000190: cc97 9bbf 2e43 42bc ba75 e73d f8b0 933f
000001a0: 8c04 cc3d b647 0abe 719d 97bf ed53 32be
000001b0: cb3d 823f 07d9 dfbc b124 99bf 4ed2 c33f
000001c0: 738e 0abe 4d63 143e 6ce3 6fbf e71f 233e
000001d0: a7ee 88bf ec73 b1bd e632 b93c 5520 44be
000001e0: 589c be3d 7b65 9c3d e014 c53d 993d 003e
000001f0: 3250 e13d 79c7 81bd 8b9f 993f 8262 733f
00000200: 288c 043e 9134 89bf c951 96bf 4e0b 0ec0
00000210: 8378 8cbf 9412 ef3d 3908 24be 3c4a 8a3f
00000220: e554 dabd 07d8 1b3e 4bb7 99bf 2abd 7f3d
00000230: 90f0 8e3f 7f43 6bbd 8235 9cbf d63a d63f
00000240: 4ed1 16be f578 09bd f1b4 7abf 23be 0d3d
00000250: 5ab8 81bf 2784 fcbd e177 083d 0916 b4be
00000260: 2bdc bc3d 3de6 353d 528b 163e 08d1 d2bd
00000270: 8791 0ebd e71c 0bbe 70ed 903f 1e6f 903f
00000280: 5992 ed3d 367d 75bf d6c7 7ebf 3a01 0fc0
00000290: 6681 9cbf 1ed7 25bd 0da8 2cbe 7b80 a33f
000002a0: 9e90 20be 0e8c d03d 63cd 94bf 7596 1a3e
000002b0: c844 693f 56db b3bd d28d 77bf 3453 e23f
000002c0: 9789 9abc ed58 14be c89d 73bf c731 843c
000002d0: 507b 8cbf 54ac 2b3e eaed 2dbe 5e8e 90be
000002e0: 2a23 0a3e 2557 1f3e 8d1c fdbd 865c 44bd
000002f0: ee7d bb3c 4621 e7bd 38d3 803f c054 953f
00000300: 43e2 3cbc 81ae 72bf 3582 92bf d0f4 11c0
00000310: 7ff0 8fbf aa26 fc3d 1bed aebd 6513 913f
00000320: 4dde d73c 182e c6bd b88a 7dbf bb9c 953d
00000330: a2f1 963f e023 a53d 9355 9fbf 056a cd3f
00000340: fc14 1abe 09ec edbc 3cfc 87bf d763 adbd
00000350: bbfe 90bf 6b8b f13d fa2f 2fbe 4326 a6be
00000360: 5170 58bc 5266 b73d e2cd 293e eee6 63bc
00000370: 5940 17be 4ca2 37be 33b5 8f3f f039 6f3f
00000380: 1e07 debd 571a 71bf b19b 87bf 596c 16c0
00000390: 6a82 7bbf c513 e03d 0097 4ebd 3881 933f
000003a0: 42b9 33bd 01fe 0bbd 62a3 87bf 34df 503d
000003b0: c1d4 783f a054 023e 278d 94bf fc12 dc3f
000003c0: a99c 953d dbe8 123e eeef 7dbf fc56 21bd
000003d0: 37ce 7fbf 14fe d2bd 7a58 21bd 243b 9fbe
000003e0: 8fe9 073d 95b1 b3bd bd02 32be 8610 a23d
000003f0: 70e7 2a3e 7035 d53d cf2a 7b3f 9b23 6d3f
0.07926337 -1.0783112 -1.2094693 -2.1051748 -1.1344266 0.07295685 -0.100065574 1.1677325
0.09106509 -0.06121111 -1.0067124 0.051182564 1.2130034 -0.14704701 -0.9830475 1.7557176
-0.0131929135 -0.14051776 -1.0590643 0.07655197 -1.1562401 -0.07508583 0.039563365 -0.3156086
0.04440686 0.064177044 -0.010543174 0.10501667 -0.15994328 -0.0522157 1.0615892 1.1902417
-0.0063521313 -1.1475495 -1.0135436 -2.3615632 -1.1497536 0.11591056 -0.02942556 1.1677415
0.110104635 0.015185465 -0.8718809 0.15631475 1.1294037 -0.17419021 -1.0944176 1.7563072
0.02367658 0.14108054 -1.1640764 0.062065635 -0.96612877 0.019301157 -0.00443665 -0.28430858
0.002274081 -0.019627733 0.124216594 0.17611146 -0.15042573 -0.11588312 1.0862613 1.0154322
-0.1397971 -0.8876725 -1.0602596 -2.5896094 -1.0411192 0.17163993 0.14804606 1.1050123
0.10226861 -0.049102552 -1.0016284 0.16358139 1.0840605 -0.12020693 -0.9251 1.5678644
0.112015806 -0.13753586 -0.9180336 0.031081412 -0.98354787 -0.17229685 0.16461745 -0.47658712
0.12165924 -0.10579675 0.11401704 0.08979499 0.09277328 0.01987641 0.8623652 1.1320511
0.1557661 -1.1696297 -1.0001496 -2.4906983 -1.21557 -0.011856837 0.113017514 1.1538382
0.09961805 -0.13503918 -1.1844922 -0.17414828 1.0175108 -0.027325166 -1.1964322 1.5298555
-0.13530903 0.14491005 -0.93706393 0.15930139 -1.0697831 -0.086646885 0.022607278 -0.19152959
0.09307164 0.07636543 0.09623122 0.12523498 0.11001624 -0.063368745 1.2001814 0.95072186
0.1294409 -1.0719167 -1.1743709 -2.21944 -1.0974277 0.11673465 -0.16018762 1.0803905
-0.106607236 0.15219127 -1.2009062 0.06243626 1.1167164 -0.057437416 -1.2203829 1.6736705
-0.14728281 -0.03356262 -0.97932345 0.034605157 -1.0134385 -0.123298936 0.03331745 -0.3517306
0.09221681 0.044409025 0.14701584 -0.10293776 -0.034806754 -0.13585244 1.132246 1.128391
0.11600179 -0.9589418 -0.99523675 -2.2344499 -1.2226989 -0.040488355 -0.16860981 1.2773584
-0.15680167 0.10182963 -1.1625179 0.15096457 0.91120577 -0.087820694 -0.96700776 1.7681642
-0.018864436 -0.14487047 -0.9516263 0.016137017 -1.0975132 0.16764957 -0.16985288 -0.28233618
0.13489977 0.15560587 -0.12358961 -0.0479398 0.022887196 -0.11285643 1.0064459 1.1666489
-0.011528554 -0.9479752 -1.1445986 -2.2805672 -1.1245269 0.12312062 -0.08541318 1.1334044
0.026351118 -0.096767604 -0.99039793 0.073052846 1.179249 0.08063483 -1.244799 1.604798
-0.15047067 -0.029043214 -1.0623851 -0.084663086 -1.1327738 0.1179417 -0.17108145 -0.32451066
-0.013210372 0.08955063 0.16582444 -0.013910038 -0.1477064 -0.17933005 1.1227173 0.9344778
-0.10841201 -0.94180816 -1.0594388 -2.350363 -0.9824587 0.10941271 -0.050436974 1.152381
-0.043877847 -0.034177784 -1.0596735 0.050994113 0.97199637 0.12727594 -1.1605576 1.7193294
0.07305271 0.1434664 -0.9919423 -0.039389595 -0.99924034 -0.10302368 -0.03939102 -0.31099808
0.033181723 -0.087741055 -0.17383857 0.07913308 0.16689849 0.10410583 0.98112196 0.92632455

lstm.weight_hh_l1 f4 [128, 32]
00000000: cb07 903c b694 8c3d 1c55 07bd 2891 ea3e
00000010: ad6d 473e bc51 b13d 6d4f 23be 5daa 773d
00000020: 5d28 1d3e d8c3 b33d cb53 6b3c 0cbc 2abd
00000030: 9c2a d43d 1557 2fbe 1003 48bc d6da 1a3e
00000040: 1483 79bd 64a2 033d 1247 073d d22e 40be
00000050: fd3d 653e 2d9f 8c3d a0c3 60bd 85ab 893e
00000060: ff7c 9bbd 7020 a73d be1c 253c 7dd7 523e
00000070: b2f4 1b3d ce01 bc3d 417c ac3c d789 d1bd
00000080: 5ec7 c3bd 278c 76bd 1aba 10be 1577 783c
00000090: 763d 493d a48b f53d 303f 81be 8cbe 3dbe
000000a0: 0479 b13e cb13 763b 4a92 723e bc88 a8be
000000b0: 2e3b a03d 80d2 8dbe 2f29 073e 89e6 323e
000000c0: fc33 6dbc 8449 c63d 61b0 b6bd be60 47bc
000000d0: df4a a13d 5874 ef3d cea4 39be 79da 003e
000000e0: 9013 9ebe 51ab 723e 7407 5fbe 1ec9 633e
000000f0: 8b08 d2bd 5637 653d c165 9a3d 49ba 3ebe
00000100: e5c0 843e b4d4 47bd 6228 ae3c 59cc d93e
00000110: 200e 4b3e fa5f f43d 4c3c 093c 13b4 9ebd
00000120: 8ec8 9d3d 63f0 7d3e 946a 5d3e 5016 ef3b
00000130: 0211 4b3e 4930 7ebd ffd7 323e ffb6 d23c
00000140: 4fcc 2d3d 42b7 04bd 87bb ebbd 2b5d 18be
00000150: 4c64 223e 1da3 9b3e a57e dbbc b0da 483e
00000160: 422d d23b 6ec1 6bbd e2cd c6bd b1c1 353e
00000170: 47c8 67bd 0401 c43d 19bc 90be 452a 06be
00000180: c38c 533d f38b 1dbe adeb 833c a0da ae3e
00000190: ec77 843d f9c5 9a3e 7200 f23c 6708 6cbd
000001a0: 6ab2 f83d 1d26 663c dfc0 a03d f237 97bd
000001b0: aeb2 b5bc 4e5d a6bd 9da8 b6bc aced b23d
000001c0: 91b5 773e cb31 873e 6e23 86be c37e 12be
000001d0: a5fc 66bc 2712 e4bb 0300 16be 5220 4f3e
000001e0: 4ffa 9fbe dc95 8b3e ef09 dc3c a96e 853d
000001f0: 619c bc3c e2c7 933e e3cd 8fbd c1b4 6fbe
00000200: 9ac8 813e ce11 14be 95e2 02be 7e1e f13e
00000210: cb24 513c f419 6a3e e936 79be 3f65 253c
00000220: af9e 1d3e a6a1 e83b bf04 2f3e 4ff9 87be
00000230: 1cc7 703c 2391 bbbc 414a 44bd c19f c1bc
00000240: 2ab1 ab3c 56da 6ebd 7c48 8bbe 188f 92be
00000250: 5b75 79bd 176e 813e fca1 60bd f760 8e3e
00000260: 376a 37be 90e3 2cbd b120 0dbe 74e1 7f3e
00000270: 0bf4 23be fd6d 863e b4b2 62be e34d 513d
00000280: cace d73d a1a3 413d dee8 80be d2a4 233e
00000290: 217f 353e 82a8 013c ce8e 0b3d c0cf 2dbe
000002a0: 3e66 173e e50a eebc 8388 7e3e 1332 a03c
000002b0: 401f 3a3d 1efe 7dbe c6db 0d3e 4f3b 523e
000002c0: 7aca 8c3a 2b0a 833e 7e41 8dbd e1bc b9bd
000002d0: fb8d 083d 98b6 ef3c a125 88be 59f4 683e
000002e0: b9b1 fdbd 4b0d 393e 2023 48be d734 653e
000002f0: 668d f5bd 23b8 063e 330a 26be 4dac 46be
00000300: 016d f73d 014e 18bd 381f b8bd 3030 d33d
00000310: 60bb 0f3e 98ec 9e3c d16b 51be 7f04 27be
00000320: 5f17 433e 7699 8a3e c0ed 263e c12a adbd
00000330: ce65 703e 42f6 01bd 8551 f43d 45b8 a83d
00000340: ef1f 58bd e1aa 1d3d f911 38be 5430 23be
00000350: b8a8 103e a5ba a33c 430d 20bd 9716 8b3e
00000360: 2315 93be 96ca 253d 9f28 e7bc bba5 803d
00000370: a9f7 00be 1039 863e e203 be3b a2d6 71be
00000380: ab54 a43d 708c 33bd f2d8 d7bd 2968 8c3e
00000390: 7b3a f83d 6ede 243e 2bbc 80be 12ff 313b
000003a0: 835c c93e e36e 0a3e a7fa a03c 113d 94be
000003b0: 0cb0 ab3d 0ed1 6fbd 892e a83d 2e98 833e
000003c0: 6d2e 623e 6817 3a3e 3a4c 17be 6b2f 1abe
000003d0: 7bfd e23c d48d 553e b2ed 89bc 6f32 653e
000003e0: ba56 3bbd fc07 933e 7adb f7bc 9c71 2a3d
000003f0: 19b9 cabc c1cf d53d 3901 683d 06c2 99bd
0.017581841 0.06864302 -0.03304015 0.4581387 0.19475432 0.08658168 -0.15948267 0.060465205
0.15347429 0.087775886 0.0143632395 -0.04168324 0.103596896 -0.17123063 -0.012207761 0.15122542
-0.06091602 0.03213729 0.033026762 -0.1876786 0.22386928 0.06866298 -0.054874063 0.26888672
-0.075922005 0.08160484 0.010077653 0.20590015 0.038075157 0.09180032 0.021055343 -0.10231369
-0.09559511 -0.060192253 -0.14133492 0.01516511 0.04913088 0.11989525 -0.2524352 -0.18529719
0.3466264 0.0037548419 0.23688617 -0.3291682 0.07823788 -0.2769966 0.13199304 0.17470755
-0.014477726 0.09681991 -0.0892036 -0.012169061 0.07875609 0.11692113 -0.18129274 0.1258334
-0.308743 0.23698165 -0.21780187 0.22244689 -0.10255536 0.055960976 0.07538939 -0.1862575
0.25928417 -0.048786834 0.02125949 0.42538717 0.19829607 0.119323686 0.008376192 -0.0774919
0.077042684 0.24798732 0.21622688 0.007296361 0.19830707 -0.062057767 0.17465208 0.025722025
0.042431172 -0.03240133 -0.115103774 -0.14879291 0.15858573 0.30397883 -0.026793787 0.19614673
0.0064140866 -0.057557516 -0.09707238 0.17749669 -0.056587484 0.09570506 -0.28268507 -0.13102062
0.051647913 -0.15385418 0.01610359 0.34151173 0.06468186 0.30229166 0.029541228 -0.0576252
0.12143405 0.014047173 0.07849287 -0.073837176 -0.022179928 -0.08123265 -0.022297198 0.087367386
0.24190356 0.26405177 -0.26198906 -0.14306168 -0.014098321 -0.0069601717 -0.14648442 0.20227173
-0.31245658 0.2726277 0.026860205 0.065152474 0.023023786 0.28863436 -0.07021692 -0.23408796
0.2534836 -0.14459917 -0.12781747 0.47093576 0.01276512 0.22861463 -0.24337353 0.01009494
0.15392564 0.007099348 0.17091654 -0.26557395 0.014695909 -0.022896355 -0.047922377 -0.023635747
0.020958502 -0.05831369 -0.2720374 -0.28624797 -0.060902935 0.25279304 -0.05484198 0.27808353
-0.17911611 -0.042209208 -0.13782002 0.24988347 -0.16011064 0.2625579 -0.22138482 0.05109967
0.10537489 0.04727519 -0.25177664 0.15980843 0.17724277 0.007913711 0.034071736 -0.16973782
0.14785096 -0.02905793 0.24856763 0.019555127 0.04543996 -0.2480397 0.13853368 0.20530437
0.0010741495 0.25593695 -0.06897257 -0.09069229 0.033338528 0.029261872 -0.2659121 0.22749461
-0.123874135 0.18071477 -0.19544649 0.22383438 -0.1198986 0.1315618 -0.16214828 -0.19401665
0.12081338 -0.037183765 -0.089903295 0.103119254 0.14036322 0.019399926 -0.20451285 -0.16310309
0.19051884 0.27070206 0.16301632 -0.0845542 0.23476335 -0.03172899 0.11929611 0.082382716
-0.05276483 0.03849304 -0.17975606 -0.15936404 0.14126861 0.01998646 -0.039075147 0.27165672
-0.28727064 0.040476404 -0.028217612 0.062816106 -0.12594475 0.2621541 0.0057988027 -0.23617032
0.08023962 -0.043835104 -0.10539426 0.27423218 0.12120529 0.16100475 -0.2514356 0.002716009
0.39328393 0.13518862 0.01965077 -0.2895284 0.08383188 -0.05854898 0.08212001 0.2570204
0.22088023 0.18172991 -0.14775172 -0.15057151 0.02770876 0.20854884 -0.016836975 0.2238252
-0.045737006 0.2871703 -0.030256022 0.041612253 -0.024746465 0.104400165 0.05664179 -0.0750771

lstm.bias_ih_l1 f4 [128]
00000000: a2af a43f 0c90 833f fab0 893f c568 853f
00000010: 8afc 923f 320e 843f 0e7d 9f3f f0b2 9d3f
00000020: b09e 943f 8f9b 963f fb77 963f a87e 8c3f
00000030: d3dd 973f 6de5 a83f 0fc0 7b3f 9ea7 863f
00000040: c704 a13f 9472 9c3f 0dcd 8d3f 6a89 943f
00000050: 3bb0 a83f 4597 893f 289a a13f bfe5 8d3f
00000060: 4c75 8b3f 4d34 9b3f df8a 8b3f a728 9d3f
00000070: bd54 833f c491 843f 0c23 8a3f 4a23 a83f
00000080: 6270 bd3e b1b8 873d 9283 af3e bea9 8e3e
00000090: 8595 9a3e 4582 543e b473 1f3e 54dc c63c
000000a0: e07e 683e 3d1a 283e bf60 ed3c f0e5 8e3e
000000b0: 5212 2c3e 6dcc 623d 0966 7c3d d17f c23d
000000c0: dda8 8b3e dc12 283d 6646 0a3e 8d16 be3d
000000d0: 6b93 9d3e fe36 4f3e f3b3 9e3e 7806 a03e
000000e0: 722b b53e ae99 943e a09b 953e 404b aa3e
000000f0: fb97 a23e 9a8e c53d 886b 993e 0dd7 333e
00000100: 84ba ff3e 1214 04bf 868e f2be 80bf ed3e
00000110: 78ec 083f 9994 293f f983 cfbe 2b58 f3be
00000120: 28bc 343f 1e47 293f 1358 043f 4831 0bbf
00000130: 9d0f 3b3f eafc 01bf 07db 183f e2c3 283f
00000140: c2c5 1c3f 4485 133f 0bc0 3dbf b34a 0abf
00000150: 4045 193f f746 f03e 616e f5be 1d78 363f
00000160: 1d46 19bf d253 093f ec42 e3be 789c 203f
00000170: 5efe c0be af0d 1d3f c3ec f8be f1b9 11bf
00000180: 334c 923f 02ac a23f 8750 933f da2a 8b3f
00000190: dfed 953f b69f 903f 42ee 873f 6e3a 9f3f
000001a0: bd16 913f 921a a53f 9979 903f b385 ae3f
000001b0: c8d4 b33f af9b 973f 807e 873f c7de a53f
000001c0: f38d 913f 581c 913f e0da 9e3f 82f1 843f
000001d0: deed 803f 4344 993f 768b 9c3f 050e 843f
000001e0: 3e27 8d3f a1de 7d3f f802 8b3f d55c 823f
000001f0: e93d 9c3f 7146 ab3f e75e 8d3f 530c 893f
1.2866099 1.0278335 1.0757134 1.0422598 1.1483319 1.0316832 1.2460039 1.2320232
1.1610928 1.1766223 1.1755365 1.0976152 1.186457 1.3195015 0.98339933 1.0519903
1.2579583 1.2222466 1.1078202 1.1604435 1.3178781 1.0749289 1.262517 1.1085738
1.0895171 1.2125336 1.0901755 1.2278031 1.0260235 1.0356984 1.0791945 1.3135769
0.36999804 0.06627024 0.34280068 0.27863878 0.301922 0.20752819 0.15571481 0.024274983
0.22704649 0.16416259 0.028976796 0.27909803 0.16803864 0.055370737 0.061620746 0.09497035
0.2727727 0.04103361 0.13503417 0.09281645 0.30776533 0.20235822 0.30996665 0.31254935
0.3538471 0.29023498 0.29220295 0.33260536 0.31756577 0.0964634 0.29964852 0.17562504
0.49946988 -0.51593125 -0.47374362 0.46435165 0.5348582 0.6624237 -0.40530375 -0.47528204
0.70599604 0.6612414 0.5169689 -0.5437207 0.730707 -0.5077654 0.5970921 0.65923893
0.61239254 0.5762522 -0.7412116 -0.5402023 0.5987129 0.46929142 -0.47935775 0.7127703
-0.5987261 0.53643525 -0.44386995 0.6273875 -0.37694067 0.61349005 -0.48618135 -0.5692435
1.1429504 1.2708743 1.150895 1.0872452 1.1713217 1.129874 1.0619586 1.2439706
1.1335064 1.2898734 1.1287109 1.3634552 1.4049311 1.1844386 1.058548 1.2958611
1.1371444 1.1336775 1.2410545 1.0386202 1.0072591 1.1973957 1.223006 1.0316778
1.1027601 0.9916783 1.0860281 1.018458 1.2206393 1.3380872 1.1044587 1.0706886

lstm.bias_hh_l1 f4 [128]
00000000: 17fe 813f 0f81 803f a6f5 9d3f 3c75 903f
00000010: 65f1 943f 6c04 963f 1620 883f e2f1 843f
00000020: eec7 8d3f 40e7 883f 74cd a33f 7c62 9e3f
00000030: ef97 a43f 0871 923f d29d 883f 6e8a 9d3f
00000040: b865 a73f 3af3 763f cadb 8b3f e16f 823f
00000050: 522a a23f 5e35 8c3f 7422 a43f 68ea 8e3f
00000060: 85fb 933f 541f 863f 958c 9c3f 87ba 823f
00000070: f909 8f3f fd3e 953f 1e02 983f c315 963f
00000080: 8f07 563e 4cfe 763e 9283 483e f280 ab3e
00000090: 1d81 d33e 3f62 d13d 1429 d53c fcf8 823d
000000a0: 9eca 3c3e 5b2a 2d3e 98e7 493d 1586 513e
000000b0: 0641 eb3d 4b4d a23e c0b9 6c3d 653f c43e
000000c0: 3ce3 813e 1846 923e ea7a ab3e 2d16 923d
000000d0: 01f9 aa3e 4dc6 173e 24d6 0e3d db43 a33e
000000e0: dea9 6d3e 87ca 793e eeab 143e 9cbf 043e
000000f0: 8b5e 323e 94ab e53d 8b32 523e d1d5 5e3d
00000100: 7339 323f bba4 c3be fea5 d6be 740c 063f
00000110: 779d f83e a6fd c03e 1b67 d0be cb02 fdbe
00000120: 7e63 0a3f a181 2d3f e154 0f3f f5d2 03bf
00000130: c105 203f ae70 17bf 98bc 173f 25e8 e33e
00000140: c059 e83e 6d69 3b3f 30f7 dfbe ced2 e9be
00000150: e9ec 003f 4fc1 203f dc6a e6be d86a 123f
00000160: 6b1d efbe 8c0d 203f 424e 2ebf f34d c33e
00000170: 0883 c4be 726a 1d3f 66e2 18bf fde3 21bf
00000180: aef5 af3f 3acf 983f dd23 7d3f b566 8d3f
00000190: a3f2 8f3f b44a 8b3f aed0 9a3f 0afc 933f
000001a0: 6ef8 9c3f 4a72 8d3f e79b 883f a8cb 963f
000001b0: f8e8 a83f dc86 8a3f f8d6 8b3f 0b8a a53f
000001c0: 1690 a63f ea53 8d3f fd5f a93f 8fc8 7d3f
000001d0: 0557 a23f 01b9 a13f 5a38 a03f 58a8 953f
000001e0: e85f 803f cedd 923f 24f0 a73f 623e 8c3f
000001f0: 223d 8e3f 8da6 a23f 81a0 aa3f 3696 953f
1.0155667 1.0039386 1.2340591 1.1285777 1.1636168 1.17201 1.0634792 1.0386317
1.1076639 1.0695572 1.2797074 1.2373805 1.2858866 1.1440744 1.0673163 1.230787
1.3077917 0.96464884 1.0926449 1.0190393 1.2669165 1.0953786 1.2823014 1.1165285
1.1561133 1.047831 1.2230402 1.0213174 1.1174918 1.1659847 1.1875646 1.1725391
0.20901321 0.24120444 0.1958144 0.33496815 0.41309443 0.10223817 0.026020564 0.06395146
0.18436667 0.16910689 0.04929313 0.20461304 0.114870116 0.31699595 0.057794333 0.38329616
0.2536868 0.28569102 0.33492213 0.07133136 0.333931 0.1482174 0.03487219 0.31887707
0.2320933 0.24393664 0.14518711 0.12963718 0.17418878 0.112143666 0.20527093 0.05440313
0.6961891 -0.38211617 -0.41923517 0.5236275 0.48557636 0.37693518 -0.40703663 -0.49416193
0.54058063 0.67775923 0.5598889 -0.5149377 0.6250878 -0.5915631 0.59272146 0.4451305
0.45380974 0.7320774 -0.43743277 -0.45668644 0.50361496 0.62794966 -0.45003402 0.5719428
-0.46702132 0.6252067 -0.6808816 0.38145408 -0.3838122 0.6149055 -0.59720457 -0.6323851
1.374685 1.193824 0.9888285 1.1046969 1.1245922 1.0882173 1.2094934 1.1561291
1.2263315 1.1050503 1.0672578 1.1780901 1.3196096 1.0822406 1.0924978 1.2932752
1.3012722 1.1041234 1.3232418 0.99134153 1.2682806 1.2634584 1.2517197 1.1692
1.0029268 1.147394 1.312016 1.0956538 1.1112406 1.2707077 1.3330232 1.1686466

mlp.weight f4 [1, 32]
00000000: 684f 0c41 675e 0dc1 57e3 0dc1 7028 0d41
00000010: c662 0c41 ef33 0e41 c409 0cc1 f181 0dc1
00000020: 1ddc 0c41 3af7 0a41 c443 0c41 395d 0dc1
00000030: 7146 0b41 87b5 0cc1 0b07 0e41 e179 0b41
00000040: 584c 0b41 30ea 0c41 1c0b 0cc1 7a68 0ec1
00000050: 71b0 0c41 982f 0c41 6d35 0cc1 163d 0e41
00000060: 09e8 0dc1 83dc 0d41 4775 0bc1 8273 0d41
00000070: ae71 0dc1 e3ae 0c41 90a8 0cc1 2e4b 0bc1
8.769386 -8.835547 -8.868003 8.822372 8.774115 8.887679 -8.752384 -8.844224
8.803739 8.685358 8.766544 -8.835259 8.704698 -8.794318 8.876719 8.717256
8.706139 8.807175 -8.752712 -8.900507 8.7930765 8.76162 -8.763043 8.889914
-8.869149 8.866336 -8.716132 8.8407 -8.840254 8.792697 -8.791153 -8.705854
