checkpoints/long_term_forecast_Exchange_96_96_LSTM_custom_ftM_sl96_ll48_pl96_dm64_nh8_el2_dl1_df64_fc3_ebtimeF_dtTrue_Exp_0/checkpoint.pth (torch, 214187 bytes, 10 tensors)

lstm.weight_ih_l0 f4 [256, 8]
-0.054105245 0.041397262 0.101401925 0.038171574 0.06944376 -0.13194601 -0.14776665 0.1348083
-0.08460227 -0.12631117 0.04959147 -0.1485185 0.11028248 -0.11385823 0.03582179 -0.07958436
0.051932946 -0.07666134 0.11328625 0.105447374 0.113872655 -0.010431624 0.1669257 0.03782101
-0.085498445 -0.16723892 0.028733362 -0.16398184 -0.114983566 -0.068002686 0.0027480482 -0.0048682285
0.09924051 0.042339407 0.097556844 0.07164894 -0.08896623 -0.14847048 -0.150084 -0.080810525
0.030554473 0.08786965 0.020239007 -0.14142166 0.10253161 0.023047304 0.064980984 -0.15522975
-0.06825873 -0.110379614 0.06302627 0.020977028 -0.03726821 -0.0062559214 0.012950339 -0.14904211
0.039647434 -0.051816143 0.094879985 0.094439305 -0.14483249 0.048208516 0.11189998 0.1173691
0.17304923 -0.061441083 0.01698565 -0.00032597495 -0.069183074 -0.11987106 -0.061767526 0.11205264
-0.14869368 -0.098876424 -0.124732375 -0.13947713 0.06653138 -0.042562176 -0.077522576 0.07209184
-0.12039758 -0.08774107 -0.08632965 -0.13329165 -0.11246677 -0.0646373 -0.032849163 -0.119530074
-0.0576596 0.07704389 -0.052421287 -0.069068454 -0.16043776 -0.13101132 0.015205871 0.022475738
-0.115012534 -0.0011711925 0.041524764 -0.027642712 0.105400294 0.055822484 -0.069148175 0.0889547
0.017884955 -0.0698535 -0.03147682 0.04500387 0.076573655 0.01197508 -0.019136053 -0.046049364
0.07199531 -0.050304245 0.049813803 -0.06816877 0.03604049 -0.039492864 -0.033598825 0.15374953
0.0072865062 -0.03992248 -0.053263713 0.107024185 -0.16753213 0.14626846 0.09050313 0.16857249
-0.017500754 -0.07424081 0.027318776 0.1351076 -0.10021329 -0.08809723 0.12500533 0.12305445
0.08096166 0.07125702 0.0006421709 -0.11360078 -0.1379472 -0.035462182 -0.08541475 -0.11402898
0.045026384 0.05593793 -0.12986143 -0.05963034 0.1226263 0.015318007 -0.07294767 -0.08543076
0.014666136 -0.077279784 -0.1459779 -0.09096293 0.08226846 -0.103370085 -0.14173912 -0.09839755
-0.004243228 -0.04185505 0.04455874 0.11225679 0.087433085 0.030069128 0.10000288 0.10121048
-0.08732034 -0.14596339 -0.08934313 0.0050037988 -0.035807814 -0.06881969 -0.052081913 -0.009923723
-0.07117337 0.03937731 -0.13360733 -0.040867917 0.020627433 0.05763124 -0.032402508 -0.046395645
0.15592763 -0.043132313 -0.010361964 -0.02529694 0.10930941 0.020076804 -0.06613006 0.062292937
-0.09343371 0.09353595 0.1320306 0.08577029 -0.05238968 -0.027385773 0.14135347 0.008441749
-0.0035734354 -0.05624243 0.046317738 -0.07252515 0.045776043 -0.09850924 -0.14207782 -0.03232927
0.14746945 -0.053031392 0.13159926 0.05576332 -0.11321923 -0.04648173 0.010867588 0.054201793
0.104722105 0.16428627 0.16954762 -0.098194696 0.12660402 -0.0883997 -0.042035945 0.13151522
-0.063911065 -0.071917824 0.03972728 -0.055546846 0.048758406 -0.027946921 0.06305614 0.04932767
-0.007969566 -0.025508318 -0.0068072476 -0.0975662 0.014300544 0.06106553 0.05308546 -0.11762383
-0.10544495 0.07261772 0.053640913 0.026310466 0.04673351 0.0719173 -0.11306511 -0.1451849
0.034485687 0.09899171 -0.011658359 -0.030388754 -0.16797793 0.065719865 0.057610482 -0.028729334
00000000: 769d 5dbd 2d90 293d d0ab cf3d cc59 1c3d
00000010: 8838 8e3d db1c 07be 2450 17be 300b 0a3e
00000020: f443 adbd b757 01be 6d20 4b3d 3c15 18be
00000030: c8db e13d 812e e9bd dfb9 123d 20fd a2bd
00000040: a4b7 543d 9f00 9dbd 9f02 e83d cbf4 d73d
00000050: 1136 e93d 67e9 2abc 92ee 2a3e 34ea 1a3d
00000060: cf19 afbd ae40 2bbe 3a62 eb3c dbea 27be
00000070: 817c ebbd fe44 8bbd 9918 343b a985 9fbb
00000080: 9c3e cb3d 166c 2d3d e2cb c73d aebc 923d
00000090: ed33 b6bd a508 18be 9faf 19be fd7f a5bd
000000a0: 604d fa3c 01f5 b33d 46cc a53c d7d0 10be
000000b0: 18fc d13d b3cd bc3c c014 853d 8cf4 1ebe
000000c0: 3ccb 8bbd b50e e2bd eb13 813d 04d8 ab3c
000000d0: 8da6 18bd 79fe ccbb a92d 543c 7f9e 18be
000000e0: 5965 223d 2a3d 54bd 7050 c23d 6569 c13d
000000f0: f84e 14be 4b76 453d d12b e53d 365f f03d
00000100: d133 313e a5a9 7bbd 7d25 8b3c 9ee7 aab9
00000110: dbaf 8dbd f57e f5bd f2ff 7cbd db7b e53d
00000120: 2843 18be b97f cabd b073 ffbd 18d3 0ebe
00000130: 9b41 883d ad55 2ebd 28c4 9ebd e3a4 933d
00000140: 0293 f6bd 97b1 b3bd 99cd b0bd 9b7d 08be
00000150: fa54 e6bd 9060 84bd d88c 06bd 2fcc f4bd
00000160: 792c 6cbd 30c9 9d3d b4b7 56bd c373 8dbd
00000170: cc49 24be d527 06be 0c22 793c 0a1f b83c
00000180: b18b ebbd b382 99ba df15 2a3d f872 e2bc
00000190: 1cdc d73d 1ea6 643d 8f9d 8dbd e22d b63d
000001a0: 7883 923c 5a0f 8fbd d7ed 00bd fa55 383d
000001b0: a6d2 9c3d 2033 443c 36c3 9cbc 429e 3cbd
000001c0: 4772 933d d30b 4ebd 8f09 4c3d 119c 8bbd
000001d0: 319f 133d 45c3 21bd ec9e 09bd 8470 1d3e
000001e0: a5c3 ee3b c185 23bd 0d2b 5abd 7f2f db3d
000001f0: 8b8d 2bbe 66c7 153e b459 b93d 449e 2c3e
00000200: be5d 8fbc 910b 98bd a0cb df3c a659 0a3e
00000210: a03c cdbd 526c b4bd 6601 003e f903 fc3d
00000220: 3acf a53d 33ef 913d 5c57 283a 87a7 e8bd
00000230: 0842 0dbe cb40 11bd eeed aebd 0788 e9bd
00000240: 966d 383d 2c1f 653d 65fa 04be f23e 74bd
00000250: 7f23 fb3d 61f8 7a3c 9765 95bd 53f6 aebd
00000260: 3c4a 703c dd44 9ebd 3b7b 15be c64a babd
00000270: 5e7c a83d b2b3 d3bd 0f24 11be a884 c9bd
00000280: c70a 8bbb 3370 2bbd 3a83 363d e3e6 e53d
00000290: 1e10 b33d 8853 f63c 4fce cc3d 7147 cf3d
000002a0: 02d5 b2bd 6d77 15be 88f9 b6bd e8f6 a33b
000002b0: 37ab 12bd 56f1 8cbd d853 55bd 1c97 22bc
000002c0: 58c3 91bd 1a4a 213d 5cd0 08be 1e65 27bd
000002d0: ddfa a83c bc0e 6c3d 7eb8 04bd 5c09 3ebd
000002e0: 7eab 1f3e 82ab 30bd 3ac5 29bc 873b cfbc
000002f0: 9ddd df3d 1c78 a43c 326f 87bd e126 7f3d
00000300: 2c5a bfbd c78f bf3d 0833 073e 55a8 af3d
00000310: 9096 56bd 2158 e0bc f7be 103e 434f 0a3c
00000320: 4c30 6abb 765e 66bd abb7 3d3d 1188 94bd
00000330: a97f 3b3d 36bf c9bd d97c 11be b26b 04bd
00000340: 3b02 173e 7237 59bd f5c1 063e 1468 643d
00000350: 7cdf e7bd a063 3ebd f80d 323c b302 5e3d
00000360: 8b78 d63d a93a 283e e49d 2d3e 4d1a c9bd
00000370: 7ca4 013e e70a b5bd e22d 2cbd edab 063e
00000380: cee3 82bd a749 93bd 13b9 223d 1785 63bd
00000390: e5b6 473d f1f0 e4bc 9423 813d d00b 4a3d
000003a0: c892 02bc d2f6 d0bc 550f dfbb cad0 c7bd
000003b0: d44c 6a3c d91f 7a3d 2470 593d c3e4 f0bd
000003c0: 86f3 d7bd 99b8 943d 93b6 5b3d 0c89 d73c
000003d0: a36b 3f3d 6149 933d ae8e e7bd 5aab 14be
000003e0: dd40 0d3d 2abc ca3d b402 3fbc d6f1 f8bc
000003f0: 6802 2cbe 2398 863d f8f8 6b3d c859 ebbc

lstm.weight_hh_l0 f4 [256, 64]
0.0005198896 -0.04589077 0.008267806 -0.059953265 -0.049961388 -0.06820412 0.08818792 -0.021532875
0.07107579 0.096951455 0.10119035 -0.010069529 -0.0024827009 -0.06541148 -0.031394225 -0.048472125
-0.050826084 -0.10037668 0.005656108 0.0798064 0.13857195 0.034676574 0.0057177767 -0.008445867
0.08599523 -0.1468536 0.082214266 -0.10198373 -0.10025862 -0.0405254 -0.10685667 -0.1564442
-0.07157944 0.04572778 -0.09380671 -0.0022890482 -0.045784757 0.06260643 -0.04001754 0.021477634
0.020969503 0.0064033335 0.092297316 0.0037402906 -0.13798587 -0.08185673 0.023628922 0.16252176
0.065843455 -0.06832717 0.08785698 0.12162437 0.053190276 0.1248518 -0.007679636 -0.10849962
0.13463047 -0.02664595 -0.11789929 0.095725395 0.015133756 0.08717682 -0.018841537 0.018964525
-0.043306928 -0.05408918 0.021496614 -0.04134816 0.030009445 0.0108746365 0.12210749 -0.08066385
0.0021014968 0.05178205 0.15289356 -0.052195407 -0.03473705 -0.098227285 -0.11912292 0.018636316
0.00025480555 -0.05442352 0.14524935 0.16797419 0.0793645 -0.16613333 0.18215649 -0.055192128
-0.109757185 -0.018108714 0.14549968 0.16542014 -0.05677636 0.15433279 -0.03529059 -0.06229464
0.12271248 0.016000787 -0.07808179 0.08993253 0.1048548 0.045597084 -0.11983763 -0.09069785
-0.091345064 0.07310529 -0.095235944 0.038480412 -0.1252473 -0.042242296 -0.006812243 -0.059489056
-0.11291378 -0.024317821 -0.18424302 0.06953296 0.10114589 0.02521391 -0.17387259 -0.10930718
-0.014421634 0.020774623 -0.10744006 -0.0773095 0.022268115 -0.10165442 0.13998756 -0.0027544799
0.111691885 -0.084930025 -0.14334717 0.016196871 -0.057954762 0.015287877 -0.016431736 -0.080262944
0.040418707 0.033672407 0.10913183 -0.17863424 -0.018835673 -0.05337526 -0.09588151 -0.037165083
-0.13442378 0.12391172 -0.023514599 -0.029028187 0.16251245 -0.12241169 0.08373052 0.024695557
0.02455926 0.034493376 -0.04026901 0.07752553 -0.026554443 -0.017057203 -0.010711059 -0.09952681
0.110253766 0.052133452 -0.050710987 0.021213321 0.16985351 -0.13668323 -0.054553695 -0.16931032
-0.1614641 0.002663796 -0.15191762 0.03674661 -0.10283771 -0.05362595 0.010753129 -0.033798836
0.042694062 -0.14236057 0.0060698106 0.14195395 -0.001761607 0.13308027 -0.0820029 0.002044867
0.02185911 0.116273515 0.01803883 -0.05746736 0.019496618 -0.16760404 -0.00016599661 0.04994574
-0.009819547 -0.12268223 -0.11610596 0.12556675 -0.07150694 -0.121642 -0.04102955 0.053748984
-0.03981362 -0.02385942 -0.0493089 -0.06772271 0.070025064 -0.04598658 -0.09593687 -0.05267891
0.035706256 0.042461284 0.009416173 0.11845568 -0.04469439 -0.10194181 0.09784808 -0.0005970368
-0.08484859 -0.049018383 0.028470566 -0.065887384 -0.049563434 -0.07957662 0.03851445 -0.0067252778
0.09671778 0.13000394 -0.15493235 -0.022732904 -0.010447633 0.015251153 -0.08315955 0.0156094
0.07865646 0.030791916 -0.13837339 0.088071495 0.061480053 0.010110805 -0.1593121 0.14150645
-0.010773945 -0.1129103 -0.06629167 0.118161924 0.0006640113 -0.052432846 0.016075397 -0.10131868
0.03448925 0.039329678 -0.126371 -0.026183072 -0.04448876 0.04980273 0.039611768 0.023095021
00000000: 3349 083a f6f7 3bbd b175 073c 8e91 75bd
00000010: 50a4 4cbd 9aae 8bbd de9b b43d b665 b0bc
00000020: 2f90 913d 7c8e c63d e33c cf3d aafa 24bc
00000030: cfb4 22bb 74f6 85bd 3b97 00bd b58a 46bd
00000040: 032f 50bd 4a92 cdbd df56 b93b 8a71 a33d
00000050: cee5 0d3e 0609 0e3d 305c bb3b 8960 0abc
00000060: 441e b03d ca60 16be f45f a83d d9dc d0bd
00000070: 6454 cdbd f6fd 25bd abd7 dabd e932 20be
00000080: 3e98 92bd 0d4d 3b3d bb1d c0bd db03 16bb
00000090: cc88 3bbd cd37 803d 6fe9 23bd ddf1 af3c
000000a0: 3cc8 ab3c 0ed3 d13b 6006 bd3d aa1f 753b
000000b0: 2b4c 0dbe 80a4 a7bd 7191 c13c 1b6c 263e
000000c0: efd8 863d 1eef 8bbd 5cee b33d 3316 f93d
000000d0: 0cde 593d 4db2 ff3d 75a5 fbbb 0c35 debd
000000e0: 92dc 093e 9b48 dabc 2f75 f1bd ad0b c43d
000000f0: 93f3 773c c389 b23d 9159 9abc 7e5b 9b3c
00000100: 9b62 31bd 9e8c 5dbd ab19 b03c b05c 29bd
00000110: 5ed6 f53c 882b 323c 7e13 fa3d 1733 a5bd
00000120: 44b9 093b 6a19 543d 2190 1c3e daca 55bd
00000130: 7048 0ebd 632b c9bd b8f6 f3bd 30ab 983c
00000140: 6c97 8539 32eb 5ebd 3fbc 143e 6d01 2c3e
00000150: db89 a23d db1e 2abe 3b87 3a3e 2411 62bd
00000160: 60c8 e0bd ba58 94bc defd 143e e663 293e
00000170: 548e 68bd 6a09 1e3e de8c 10bd aa28 7fbd
00000180: ae50 fb3d 1514 833c 58e9 9fbd 8c2e b83d
00000190: 1dbe d63d 02c4 3a3d 6e6d f5bd cbbf b9bd
000001a0: 1f13 bbbd 3ab8 953d 100b c3bd a39d 1d3d
000001b0: d440 00be 4206 2dbd 3c39 dfbb ccaa 73bd
000001c0: 573f e7bd 2b36 c7bc 34aa 3cbe 4c67 8e3d
000001d0: 9425 cf3d 678d ce3c a80b 32be 71dc dfbd
000001e0: b848 6cbc 8b2f aa3c 8909 dcbd 7154 9ebd
000001f0: 9f6b b63c 3130 d0bd e658 0f3e 8184 34bb
00000200: b7be e43d cbef adbd 9ac9 12be 4daf 843c
00000210: f961 6dbd 017a 7a3c d99b 86bc e660 a4bd
00000220: 168e 253d 14ec 093d 8280 df3d e5eb 36be
00000230: 454d 9abc 04a0 5abd 865d c4bd 6a3a 18bd
00000240: 63a6 09be 6ec5 fd3d b0a1 c0bc 85cc edbc
00000250: aa69 263e fbb2 fabd e87a ab3d 564e ca3c
00000260: 8030 c93c ed48 0d3d 1ef1 24bd b4c5 9e3d
00000270: b488 d9bc 8cbb 8bbc 707d 2fbc b6d4 cbbd
00000280: bacc e13d e389 553d 53b6 4fbd 8fc7 ad3c
00000290: 14ee 2d3e b0f6 0bbe b273 5fbd af5f 2dbe
000002a0: d856 25be 1593 2e3b 4b90 1bbe 9d83 163d
000002b0: 949c d2bd e2a6 5bbd e42d 303c a670 0abd
000002c0: f8df 2e3d f8c6 11be 43e5 c63b 605c 113e
000002d0: b9e5 e6ba 3246 083e 23f1 a7bd 2d03 063b
000002e0: e011 b33c cf20 ee3d 2bc6 933c e562 6bbd
000002f0: 5fb7 9f3c 65a0 2bbe 600f 2eb9 e793 4c3d
00000300: 2ae2 20bc d240 fbbd f6c8 edbd 9294 003e
00000310: 3b72 92bd 711f f9bd 9a0e 28bd e527 5c3d
00000320: 9b13 23bd d574 c3bc 21f8 49bd 34b2 8abd
00000330: 4d69 8f3d 6d5c 3cbd 8d7a c4bd d7c5 57bd
00000340: b940 123d e2eb 2d3d 4b46 1a3c e498 f23d
00000350: 7711 37bd dec6 d0bd 9364 c83d 7682 1cba
00000360: 19c5 adbd 80c7 48bd 1b3b e93c f7ef 86bd
00000370: 0703 4bbd 11f9 a2bd 54c1 1d3d b85f dcbb
00000380: f913 c63d c11f 053e 96a6 1ebe 5b3a babc
00000390: 8d2c 2bbc f9df 793c 8e4f aabd 92be 7f3c
000003a0: a316 a13d 543f fc3c c1b1 0dbe d45e b43d
000003b0: 82d2 7b3d caa7 253c b622 23be 11e7 103e
000003c0: 3385 30bc 843d e7bd edc3 87bd e1fe f13d
000003d0: 0b11 2e3a d3c3 56bd 8db0 833c 2b80 cfbd
000003e0: 9a44 0d3d 2818 213d 6667 01be e27d d6bc
000003f0: d939 36bd f3fd 4b3d f33f 223d c531 bd3c

lstm.bias_ih_l0 f4 [256]
0.13524188 0.14303383 0.0536215 0.050028965 -0.028735094 0.12862808 -0.013772922 0.15103717
0.117069386 0.043734033 0.08841305 0.061127294 0.020347986 -0.027493855 0.08396485 0.12968679
-0.025815418 -0.035258185 -0.08230082 0.14308886 -0.04443353 -0.054761387 0.16104536 0.062284656
0.0969285 0.032801248 0.0012433322 0.10809097 0.008434687 0.1588392 0.063392565 -0.043372586
0.01749557 -0.08160448 0.07880357 0.0002765359 -0.012601767 0.016690964 0.099677436 -0.049977414
0.05436018 0.098397665 -0.036098998 0.06833019 0.1695831 0.14061551 -0.026786454 0.1606777
0.14550601 0.03695654 -0.056745656 0.15546364 -0.05721168 0.07951419 0.043124992 -0.0024806464
0.113865145 0.09343777 0.092664436 -0.04536786 -0.061151236 -0.028199788 0.15462342 -0.016247163
-0.10388856 0.09460707 0.044753157 0.026950665 0.055705085 0.10126598 -0.09971034 0.1319213
0.10301938 0.07039324 -0.0205642 -0.0068421047 -0.091077626 -0.07198836 0.11603509 0.123094484
0.104150705 0.080398254 0.14238757 -0.07949509 0.06023767 -0.04895102 0.14546981 -0.035810795
-0.072341695 0.052828804 0.048953634 -0.033722114 -0.016659332 -0.010109693 -0.08691853 0.011319706
-0.060157783 0.11901464 0.0808475 -0.055798683 -0.12070416 -0.0026170395 0.16089296 -0.06224713
0.15005586 0.09869543 0.07122468 0.012945866 0.0654523 0.05564031 -0.035663173 -0.015155712
-0.13229424 -0.03342896 -0.09058198 0.07485789 -0.05746659 0.003752894 -0.040726557 0.10475622
-0.09500388 0.057198152 0.058988687 -0.07520975 0.06358848 0.0609179 0.063441135 0.07272174
-0.009923749 -0.1343203 0.033418886 0.116194725 0.00599926 -0.009859117 0.08913506 -0.15837297
-0.009627883 0.13304606 0.10989976 -0.15913656 -0.0015510824 -0.09312293 -0.15545067 -0.13958497
-0.1403605 0.025076313 0.12212094 0.14367397 0.08911206 -0.071749166 0.14162381 -0.1101831
-0.019403888 -0.13236798 0.03851613 0.07075017 0.014618406 -0.02963504 -0.046144325 -0.14234027
0.1416212 0.054223966 0.033126537 0.0929413 0.12163665 -0.12603189 -0.12569931 0.0014931543
0.033862606 0.025250932 -0.0639115 -0.02984352 0.09135979 0.14422111 -0.08574601 0.10617608
-0.10475786 -0.1059259 -0.109671995 -0.045460124 0.034748152 0.09835771 -0.1679766 0.040813252
-0.02207675 0.026158916 -0.11184388 0.0970717 0.051500704 -0.026985537 0.14842185 0.15844367
-0.0031432936 -0.00083249045 0.07157716 0.08389256 0.08014276 -0.03524409 -0.051031623 0.023622686
0.112323396 0.15532203 -0.035227753 0.14832589 0.06925443 0.02033587 0.15269753 -0.058912024
0.09450168 -0.02644615 0.10129897 0.15806648 0.026647367 0.1438668 -0.063374296 -0.06415687
0.114535496 0.041663878 -0.0034036627 0.008861071 -0.03470701 -0.0020530547 0.041489232 -0.04075116
0.0018100651 -0.041217115 0.11707709 0.019587547 0.071857736 0.17034231 0.087321974 0.031020097
-0.068065956 -0.05086551 -0.05813385 0.0187451 0.034524288 0.16940066 -0.004208047 0.06150959
0.08302473 -0.0010351199 -0.02874744 0.0025751553 -0.027615914 -0.040897243 0.0555043 0.108394176
0.09459257 0.044066377 0.13690941 -0.014400065 0.11013989 0.15829597 -0.04482254 -0.04698072
00000000: d97c 0a3e 7677 123e 38a2 5b3d 2ceb 4c3d
00000010: dc65 ebbc 14b7 033e d2a7 61bc 7da9 1a3e
00000020: 13c2 ef3d 7522 333d e711 b53d 9d60 7a3d
00000030: d2b0 a63c cb3a e1bc c3f5 ab3d 9dcc 043e
00000040: db7a d3bc e36a 10bd 558d a8bd e385 123e
00000050: efff 35bd 7a4d 60bd 13e9 243e 321e 7f3d
00000060: 7382 c63d 9a5a 063d 4ef7 a23a cc5e dd3d
00000070: a431 0a3c bea6 223e f6d3 813d 74a7 31bd
00000080: df52 8f3c 4020 a7bd c463 a13d 05fc 9039
00000090: a477 4ebc 7dbb 883c af23 cc3d 1eb5 4cbd
000000a0: c8a8 5e3d b784 c93d 8bdc 13bd b3f0 8b3d
000000b0: 31a7 2d3e 83fd 0f3e 446f dbbc b288 243e
000000c0: 87ff 143e be5f 173d 226e 68bd dc31 1f3e
000000d0: cb56 6abd 56d8 a23d d5a3 303d 5792 22bb
000000e0: 2132 e93d 4d5c bf3d dac6 bd3d a6d3 39bd
000000f0: b879 7abd 3e03 e7bc 9a55 1e3e c518 85bc
00000100: 86c3 d4bd 5ac1 c13d 164f 373d a4c7 dc3c
00000110: 042b 643d 8a64 cf3d ef34 ccbd 6116 073e
00000120: d3fb d23d 552a 903d 4176 a8bc bc33 e0bb
00000130: e886 babd a26e 93bd cea3 ed3d f618 fc3d
00000140: f74c d53d d7a7 a43d 0cce 113e 52ce a2bd
00000150: c6bb 763d dd80 48bd 0af6 143e 57ae 12bd
00000160: e227 94bd 0463 583d 9b83 483d 3320 0abd
00000170: 2779 88bc 20a3 25bc 5802 b2bd 4a76 393c
00000180: 0268 76bd f3bd f33d 6093 a53d 298d 64bd
00000190: be33 f7bd a382 2bbb 20c1 243e d9f6 7ebd
000001a0: 3ea8 193e d420 ca3d 3fde 913d e61a 543c
000001b0: db0b 863d 18e7 633d 8c13 12bd aa4f 78bc
000001c0: 2478 07be ceec 08bd 0c83 b9bd 184f 993d
000001d0: 1662 6bbd 1df3 753b e4d0 26bd 6e8a d63d
000001e0: 6591 c2bd 9c48 6a3d 1f9e 713d 9207 9abd
000001f0: ad3a 823d 0c85 793d 6ded 813d 23ef 943d
00000200: 3897 22bc 438b 09be 3ee2 083d 80f7 ed3d
00000210: 7195 c43b 2288 21bc 718c b63d 862c 22be
00000220: 45be 1dbc 3a3d 083e 2013 e13d b2f4 22be
00000230: b04d cbba 3cb7 bebd 762e 1fbe 5def 0ebe
00000240: aaba 0fbe d76c cd3c 8b1a fa3d 451f 133e
00000250: 6280 b63d 3af1 92bd d505 113e ada7 e1bd
00000260: e7f4 9ebc 798b 07be 17c3 1d3d 77e5 903d
00000270: 0a82 6f3c 2fc5 f2bc d501 3dbd a6c1 11be
00000280: 2605 113e f319 5e3d b1af 073d 0258 be3d
00000290: a31c f93d 810e 01be 52b7 00be f2b5 c33a
000002a0: 84b3 0a3d 0bdb ce3c 08e4 82bd 667a f4bc
000002b0: d71a bb3d b3ae 133e 9b9b afbd d872 d93d
000002c0: 4a8b d6bd aeef d8bd b69b e0bd 6534 3abd
000002d0: 1454 0e3d c46f c93d 0f02 2cbe cc2b 273d
000002e0: 4dda b4bc 394b d63c 670e e5bd 87cd c63d
000002f0: 67f2 523d c610 ddbc e6fb 173e 0f3f 223e
00000300: b7ff 4dbb 7d3b 5aba 0c97 923d ddcf ab3d
00000310: e321 a43d 1b5c 10bd 8906 51bd 5d84 c13c
00000320: cf09 e63d bd0c 1f3e fa4a 10bd bee2 173e
00000330: 44d5 8d3d 6997 a63c be5c 1c3e bc4d 71bd
00000340: 198a c13d 99a5 d8bc d675 cf3d 2edc 213e
00000350: 944b da3c d251 133e 62ca 81bd ad64 83bd
00000360: 9691 ea3d bea7 2a3d fc0f 5fbb 072e 113c
00000370: f028 0ebd 8b8c 06bb 9df0 293d b0ea 26bd
00000380: b53f ed3a 47d3 28bd 1dc6 ef3d 1076 a03c
00000390: 262a 933d 376e 2e3e ddd5 b23d dc1d fe3c
000003a0: 2a66 8bbd 5a58 50bd c31d 6ebd 538f 993c
000003b0: 5769 0d3d 5e77 2d3e a8e3 89bb 7bf1 7b3d
000003c0: df08 aa3d dcac 87ba c07f ebbc f0c3 283b
000003d0: c53a e2bc de83 27bd 7a58 633d c4fd dd3d
000003e0: c0b9 c13d f27e 343d fb31 0c3e 40ee 6bbc
000003f0: 0691 e13d 5718 223e d797 37bd db6e 40bd

lstm.bias_hh_l0 f4 [256]
0.082994685 -0.02443912 -0.06114879 -0.054921903 0.080841795 -0.004921227 0.08290378 8.6076776e-05
0.04637462 0.03537948 0.14180268 0.17109446 0.17255715 0.14965938 0.13785392 0.12035354
0.1765232 0.073360175 0.11998488 -0.04192212 -0.04924409 -0.036655296 -0.04300345 0.05687551
0.105282985 0.115263514 0.15622061 0.08031782 0.09870918 -0.023527462 0.029549181 -0.010782498
-0.035085198 0.01060003 -0.010327143 -0.04728911 0.06633432 0.028603021 -0.050558656 0.007220924
0.05818598 0.16476037 0.08508442 0.012438012 0.061569516 -0.04097676 0.10328463 -0.00617462
0.100189604 -0.023943577 0.1088914 0.04236969 0.12728143 0.15200223 -0.008912345 0.06924507
-0.009244775 0.13247764 0.082167365 0.12382944 -0.023333473 0.15869902 0.10516083 0.1165361
0.1131563 -0.047979366 -0.10062998 0.04767111 0.03830484 0.10918778 0.05079557 -0.010773992
-0.038501468 0.030532377 -0.12093623 0.12647974 -0.13155872 0.024852335 -0.05665651 -0.03941235
-0.015486137 -0.14502716 -0.020911278 -0.04203662 0.13764405 0.04730874 -0.06428993 0.035769906
0.03582334 0.029297445 0.043138564 0.07884076 0.0102164745 -0.0654824 -0.036908574 0.08947276
0.10474579 0.03306224 0.060736164 0.06967173 0.07142471 -0.046767518 0.027594535 0.055381596
0.10499663 0.009189059 -0.011607357 0.041917093 0.0971737 -0.089789696 -0.08504638 -0.07939276
-0.08308518 0.011017896 0.062110547 0.10834435 -0.02515443 0.038049825 -0.058162704 -0.123243414
-0.11578617 -0.100935005 0.13510789 -0.073375426 -0.096422695 -0.123009406 -0.0675618 -0.060276624
0.14828786 -0.035885327 -0.04819296 0.033064894 0.022316633 -0.09024773 -0.04434561 -0.118810095
0.13614053 0.086755 -0.010173941 -0.120537095 0.016533663 -0.12697035 -0.10981854 -0.064447924
-0.1460195 -0.096761085 0.0025046405 0.13173358 -0.031778824 -0.09261745 0.116983354 8.767121e-05
-0.10358128 -0.05805708 0.025991257 -0.065933 0.0144109195 0.13184473 -0.06698041 0.030898314
0.112576455 -0.032337252 -0.13077773 0.10633895 0.043882582 -0.13333897 -0.084627554 -0.12207616
-0.12615675 0.10639304 -0.12216157 0.09957889 -0.12652384 0.04645852 -0.04748054 0.12587507
-0.025180299 -0.011231117 -0.13375778 0.14664736 -0.061594553 0.141931 -0.121440336 -0.070249975
0.07361522 0.049746666 0.015853252 0.01086012 0.06378691 -0.10240838 0.16132152 -0.015496879
0.12634555 -0.008638604 0.049093165 -0.0327026 0.17200828 0.14627974 0.17098323 -0.05412983
0.00074346707 0.14461577 0.17688422 0.010268628 -0.020862656 0.11211002 -0.009239783 -0.045791168
0.15096197 0.15389039 -0.019026475 0.15616456 -0.016978499 0.023648513 0.0046424735 0.08856725
0.1349969 0.008058425 -0.06888196 0.001429646 0.056493465 0.1716794 -0.05718184 0.023781015
0.035405822 0.03821991 0.007458818 -0.06278079 0.094967134 0.0016084521 0.109395005 0.11080821
0.05666113 0.06809054 0.14622858 -0.03627003 0.06901045 0.08792349 0.11344744 0.16941024
0.17039548 -0.05523419 -0.018418344 0.17600265 0.03166751 0.05872626 0.15588704 0.15065657
-0.03724804 0.109773174 0.15476887 0.1120488 -0.0018862811 0.116035625 0.07696808 0.084462784
00000000: 1ef9 a93d 8d34 c8bc 2777 7abd caf5 60bd
00000010: 6290 a53d 3f42 a1bb 75c9 a93d 1e84 b438
00000020: 50f3 3d3d 13ea 103d b934 113e 6333 2f3e
00000030: d2b2 303e 4f40 193e 9429 0d3e eb7b f63d
00000040: 7fc2 343e dc3d 963d a2ba f53d 87b6 2bbd
00000050: 2cb4 49bd dd23 16bd 6324 30bd 4bf6 683d
00000060: 9b9e d73d 470f ec3d 4cf8 1f3e ab7d a43d
00000070: 0a28 ca3d aabc c0bc 2011 f23c 13a9 30bc
00000080: 7fb5 0fbd c0ab 2d3c 2d33 29bc 3ab2 41bd
00000090: 4ada 873d e250 ea3c 9816 4fbd 809d ec3b
000000a0: 6c54 6e3d f1b6 283e be40 ae3d cec8 4b3c
000000b0: 5130 7c3d 3fd7 27bd e486 d33d 7754 cabb
000000c0: 3530 cd3d 5225 c4bc 7402 df3d d78b 2d3d
000000d0: 1056 023e 79a6 1b3e 1605 12bc 5cd0 8d3d
000000e0: 6677 17bc 38a8 073e 5d47 a83d 4a9a fd3d
000000f0: d725 bfbc ff81 223e 905e d73d 7baa ee3d
00000100: 7dbe e73d 0386 44bd 1717 cebd c842 433d
00000110: 89e5 1c3d d89d df3d 040f 503d 6685 30bc
00000120: b7b3 1dbd 091f fa3c 6aad f7bd e883 013e
00000130: 54b7 06be 2097 cb3c a810 68bd d86e 21bd
00000140: 91b9 7dbc 0082 14be 214e abbc 972e 2cbd
00000150: 90f2 0c3e cfc6 413d 70aa 83bd 7783 123d
00000160: 7fbb 123d 3201 f03c 10b2 303d 4477 a13d
00000170: 0063 273c a31b 86bd 722d 17bd 7f3d b73d
00000180: f684 d63d 456c 073d 7cc6 783d 0db0 8e3d
00000190: 1e47 923d 4c8f 3fbd ef0d e23c d0d7 623d
000001a0: 7908 d73d b58d 163c c92c 3ebc 42b1 2b3d
000001b0: 0103 c73d a9e3 b7bd cc2c aebd ac98 a2bd
000001c0: 9028 aabd 6884 343c a167 7e3d a4e3 dd3d
000001d0: aa10 cebc 22da 1b3d 043c 6ebd 0b67 fcbd
000001e0: 4d21 edbd 03b7 cebd b959 0a3e db45 96bd
000001f0: 4379 c5bd 5bec fbbd d75d 8abd 9fe4 76bd
00000200: c6d8 173e 7efc 12bd fb65 45bd 0e6f 073d
00000210: 5fd1 b63c cdd3 b8bd bea3 35bd b552 f3bd
00000220: 6c68 0b3e 9bac b13d 9ab0 26bc 27dc f6bd
00000230: 9b71 873c 8404 02be 8be8 e0bd 46fd 83bd
00000240: 2386 15be ad2a c6bd e524 243b 2be5 063e
00000250: 832a 02bd 38ae bdbd f894 ef3d 1fdc b738
00000260: 6c22 d4bd 43cd 6dbd 9eeb d43c e107 87bd
00000270: c71b 6c3c 4e02 073e 062d 89bd 761e fd3c
00000280: 7c8e e63d 1174 04bd 99ea 05be 3cc8 d93d
00000290: 39be 333d 038a 08be 3651 adbd 1103 fabd
000002a0: 3c2f 01be 98e4 d93d d82f fabd 04f0 cb3d
000002b0: 778f 01be 4a4b 3e3d f47a 42bd 65e5 003e
000002c0: ea46 cebc b802 38bc cdf7 08be ba2a 163e
000002d0: 924a 7cbd 5c56 113e b6b5 f8bd 38df 8fbd
000002e0: 94c3 963d 29c3 4b3d aede 813c a5ee 313c
000002f0: b6a2 823d 7cbb d1bd 7831 253e 9fe6 7dbc
00000300: ba60 013e ee88 0dbc ea15 493d 29f3 05bd
00000310: f022 303e 5bca 153e 3a16 2f3e 3eb7 5dbd
00000320: 3be5 423a 2816 143e 2321 353e bf3d 283c
00000330: 29e8 aabc f099 e53d 7562 17bc 858f 3bbd
00000340: c695 1a3e 7195 1d3e 69dd 9bbc 9ae9 1f3e
00000350: 7e16 8bbc 87ba c13c e41f 983b bf62 b53d
00000360: a13c 0a3e 7c07 043c fc11 8dbd f662 bb3a
00000370: b165 673d bacc 2f3e 8137 6abd 67d0 c23c
00000380: b205 113d 7b8c 1c3d 1a69 f43b 3793 80bd
00000390: 217e c23d b2d2 d23a 7d0a e03d 6aef e23d
000003a0: 8015 683d 0e73 8b3d f2bc 153e e28f 14bd
000003b0: 5a55 8d3d 3b11 b43d 2257 e83d e179 2d3e
000003c0: 277c 2e3e 3f3d 62bd 11e2 96bc 0a3a 343e
000003d0: cab5 013d f28a 703d daa0 1f3e b745 1a3e
000003e0: 6791 18bd c2d0 e03d bb7b 1e3e d779 e53d
000003f0: 173d f7ba 16a4 ed3d 71a1 9d3d d3fa ac3d

lstm.weight_ih_l1 f4 [256, 64]
-0.048706215 0.02619239 0.064540006 0.024481172 -0.07732787 -0.07858233 -0.028891144 0.05700985
-0.06835281 -0.042756062 0.0852523 -0.064347416 -0.10086105 -0.13470262 -0.16644001 -0.070162125
0.07446915 0.061900467 0.08843568 0.016669646 0.039465137 -0.026494404 -0.011175975 -0.006882608
0.16066001 -0.058006115 0.019817201 -0.10642017 -0.14238504 0.05250808 -0.12348319 -0.040091075
0.050780527 -0.06356254 0.047843248 0.056614883 -0.05408418 0.058767404 -0.07739313 -0.14444043
0.05997359 0.0400001 0.09962498 -0.16820869 -0.029649222 -0.047523875 -0.064125866 -0.05461782
0.072477825 -0.14101821 -0.17445679 0.14321107 -0.09823702 0.11046888 0.064525604 -0.02131184
0.11874367 0.0038290825 0.03314614 0.03476048 0.054099727 0.07650559 0.059295397 -0.0932877
0.102865085 -0.0765499 -0.07848753 0.072972074 0.063091904 -0.12889473 -0.02331291 0.028331341
0.10907624 -0.0061236564 -0.011263351 -0.026533173 0.08199085 -0.09865023 -0.16499372 -0.06199877
0.01224325 -0.0958132 0.05346381 0.15332761 0.06854716 0.09715955 0.09232247 0.06777388
-0.08691741 0.054591473 0.07203031 0.058053825 -0.12343366 0.00774055 -0.010758202 -0.1005335
0.067901425 0.16850059 0.022181008 0.1515643 0.079087526 -0.014374638 -0.0691458 0.0791771
-0.108608924 0.082167186 -0.05484224 0.11597424 -0.11590685 -0.059250984 -0.04365742 -0.047081534
-0.1220964 -0.11451591 -0.16513632 0.05671313 0.03308106 -0.014989442 -0.03831885 -0.1335543
-0.037669614 0.005995838 -0.015191075 0.06715169 0.040200662 0.03784842 -0.052728828 0.030679578
0.104405925 -0.07281462 0.012394245 0.123384655 -0.11190083 -0.11417926 0.121663995 0.027617982
0.07145589 -0.06457439 0.029478539 -0.12360002 -0.13191058 -0.07063939 0.008776163 0.037953086
-0.00400667 -0.022633161 0.006936376 0.08803326 -0.01618945 -0.028671825 -0.007535914 0.07835207
-0.009217659 -0.17588675 0.06285681 -0.12611078 0.047966436 -0.033371896 -0.030623497 0.14053875
-0.03952847 -0.032866586 -0.041344 0.059078924 0.0065911426 0.081480116 -0.04159201 -0.17657389
-0.07668014 0.12829769 0.13744657 0.021164468 -0.14315708 -0.058398604 -0.010142813 -0.096609846
-0.13034903 0.013242053 -0.064161375 0.026285205 -0.00571953 0.13489471 0.011553255 -0.07280006
0.022835393 -0.022795543 0.056580663 0.011233731 -0.03792708 -0.07022123 0.08270068 0.07076805
0.08768837 0.04217953 0.01913213 0.043636527 0.027012203 -0.12770778 0.014882717 0.082918204
0.08675293 0.010332506 0.061357673 -0.10868531 0.02704238 -0.081052504 -0.13874993 0.050358597
-0.12552522 0.16971612 0.07733625 0.06632869 0.032988973 -0.133961 0.09617272 -0.033116173
-0.09242794 -0.040675707 0.058399778 0.116571054 0.030971322 0.004648936 -0.107329234 0.0859886
0.14030446 0.15640974 -0.1591157 0.11298656 -0.11840288 -0.086038284 -0.15246707 -0.08719176
-0.0025273343 0.026019286 0.09356705 -0.16551535 0.06708384 0.0017478111 -0.08131337 0.114200816
0.006056593 -0.06287857 -0.029747542 0.021802297 0.04996897 0.00555579 -0.048196856 0.085986756
0.08657586 0.0053079203 -0.034486704 -0.16708024 -0.061471526 -0.031991363 0.04933161 0.06821136
00000000: 2b80 47bd 6c91 d63c 8d2d 843d bd8c c83c
00000010: 135e 9ebd c6ef a0bd 1fad ecbc 2983 693d
00000020: 8ffc 8bbd fb20 2fbd c298 ae3d 94c8 83bd
00000030: 3d90 cebd 7cef 09be 406f 2abe 29b1 8fbd
00000040: 4883 983d 588b 7d3d c41d b53d c88e 883c
00000050: 32a6 213d cb0a d9bc 701b 37bc 8087 e1bb
00000060: 0f84 243e d297 6dbd af57 a23c d1f2 d9bd
00000070: 62cd 11be b612 573d c1e4 fcbd 8a36 24bd
00000080: 3eff 4f3d 142d 82bd 48f7 433d 02e5 673d
00000090: 6087 5dbd 17b6 703d 4a80 9ebd 31e8 13be
000000a0: dea6 753d 25d7 233d 2e08 cc3d e63e 2cbe
000000b0: ede2 f2bc 65a8 42bd 6c54 83bd efb6 5fbd
000000c0: 416f 943d 1467 10be cda4 32be eca5 123e
000000d0: 7e30 c9bd 823d e23d 0026 843d 2b96 aebc
000000e0: e22f f33d 58f1 7a3b 3fc4 073d 0161 0e3d
000000f0: ad97 5d3d f6ae 9c3d bbdf 723d 9f0d bfbd
00000100: eeaa d23d 32c6 9cbd 12be a0bd 6272 953d
00000110: 5436 813d fbfc 03be b7fa bebc 2117 e83c
00000120: 5d63 df3d f4a8 c8bb eb89 38bc 195c d9bc
00000130: d2ea a73d 2209 cabd 1df4 28be 6cf2 7dbd
00000140: ea97 483c b639 c4bd defc 5a3d ea01 1d3e
00000150: 7462 8c3d 96fb c63d 9013 bd3d 08cd 8a3d
00000160: c101 b2bd 4f9b 5f3d a184 933d d9c9 6d3d
00000170: c9ca fcbd 71a4 fd3b 2b43 30bc 82e4 cdbd
00000180: e70f 8b3d 6b8b 2c3e f2b4 b53c ac33 1b3e
00000190: a4f8 a13d 9a83 6bbc 509c 8dbd 9a27 a23d
000001a0: 5b6e debd 4547 a83d 42a2 60bd e783 ed3d
000001b0: 9260 edbd 29b1 72bd 1fd2 32bd 91d8 40bd
000001c0: ad0d fabd 5187 eabd 7f19 29be 074c 683d
000001d0: 0180 073d 4796 75bc 3af4 1cbd 75c2 08be
000001e0: 744b 1abd bc78 c43b fde3 78bc d386 893d
000001f0: 73a9 243d f206 1b3d 2ffa 57bd bd53 fb3c
00000200: c6d2 d53d d51f 95bd 3b11 4b3c 18b1 fc3d
00000210: 432c e5bd d1d6 e9bd f92a f93d 1b3f e23c
00000220: 7757 923d 943f 84bd fa7c f13c 0222 fdbd
00000230: 9113 07be 62ab 90bd e5c9 0f3c b274 1b3d
00000240: 624a 83bb 2e69 b9bc 8a4a e33b c84a b43d
00000250: bd9f 84bc 2de1 eabc d4ef f6bb 0d77 a03d
00000260: aa05 17bc a81b 34be 12bb 803d 2f23 01be
00000270: 7478 443d f8b0 08bd 21de fabc 64e9 0f3e
00000280: 9be8 21bd 1d9f 06bd 5358 29bd befc 713d
00000290: 83fa d73b 0cdf a63d 625c 2abd c9cf 34be
000002a0: 7a0a 9dbd 7860 033e cbbe 0c3e 1b61 ad3c
000002b0: c597 12be 6033 6fbd 0b2e 26bc 62db c5bd
000002c0: 377a 05be 32f5 583c 0a67 83bd 1254 d73c
000002d0: e56a bbbb d721 0a3e dd49 3d3c 3318 95bd
000002e0: 4a11 bb3c b8bd babc 20c1 673d af0d 383c
000002f0: 6d59 1bbd 26d0 8fbd f95e a93d d7ee 903d
00000300: f695 b33d 71c4 2c3d fcba 9c3c 37bc 323d
00000310: b248 dd3c d4c5 02be a4d6 733c 05d1 a93d
00000320: 85ab b13d ac49 293c 2f52 7b3d 6796 debd
00000330: fb87 dd3c dbfe a5bd 7614 0ebe d144 4e3d
00000340: af89 00be 10ca 2d3e 7862 9e3d 56d7 873d
00000350: 721f 073d 132d 09be 34f6 c43d d3a4 07bd
00000360: dc4a bdbd 929b 26bd 9b34 6f3d cebc ee3d
00000370: 92b7 fd3c 1a56 983b 6ecf dbbd cb1a b03d
00000380: f9ab 0f3e e029 203e 3aef 22be 7f65 e73d
00000390: 367d f2bd d734 b0bd 5420 1cbe 9891 b2bd
000003a0: a2a1 25bb 6626 d53c 15a0 bf3d db7c 29be
000003b0: 4163 893d cf16 e53a a087 a6bd 1ee2 e93d
000003c0: 6276 c63b 7bc6 80bd 1eb1 f3bc bb9a b23c
000003d0: 43ac 4c3d 580d b63b 116a 45bd d319 b03d
000003e0: af4e b13d 10ee ad3b ee41 0dbd 1517 2bbe
000003f0: 91c9 7bbd 6009 03bd f10f 4a3d 66b2 8b3d

lstm.weight_hh_l1 f4 [256, 64]
-0.06124219 -0.1490034 0.095549665 0.058481935 -0.042014048 0.0044314815 -0.10467626 -0.08339222
-0.12976353 -0.0030674075 -0.04324568 0.046731368 0.115260944 0.057161104 -0.036960255 0.10145943
-0.049942564 -0.060299616 -0.08011721 -0.013416837 -0.045677047 0.02252216 0.07041328 -0.030838786
-0.06986388 -0.1764806 -0.0392751 -0.06320552 0.0057054055 0.051019374 0.068744 -0.06443041
0.16208932 -0.010796929 -0.013351002 -0.039023116 -0.01308087 -0.018776648 0.046490304 0.00041160788
0.029287806 -0.0044266195 -0.12618908 0.11398007 -0.09704312 0.00806263 -0.13055767 0.076817565
0.10881497 0.1449017 -0.027808268 -0.0827255 -0.053615987 -0.106974505 0.08048082 0.100234896
0.026863622 0.008081372 -0.015879098 0.06936914 0.124014124 0.06362884 0.051051565 -0.00881736
-0.045576192 0.03499602 0.16717534 0.04507574 -0.15149698 0.14767589 -0.08555629 0.06685748
-0.11893208 -0.041391075 -0.07879416 0.023690687 0.07474039 0.09296226 -0.03944345 -0.015646415
-0.0044844616 0.0985495 0.016068345 -0.15092924 0.11940341 -0.15106338 -0.103975855 -0.0918301
-0.1771061 -0.050717734 0.017118135 -0.110325046 -0.15067722 0.08331241 0.1581256 0.053005386
0.022588143 0.052057877 0.06480833 0.051421862 0.024794737 -0.11609648 -0.11107671 -0.07863583
-0.12849313 -0.05041415 -0.013121795 -0.034371737 0.1366882 -0.119548954 -0.06971043 -0.06571566
-0.019456131 0.051294677 -0.108235255 0.10163448 -0.00057429343 -0.08667962 0.023945028 0.0016984759
0.1468674 -0.005463802 0.055832274 -0.17924103 0.022324385 -0.1441385 -0.10704911 -0.1559308
-0.047097083 -0.041709945 0.055113338 -0.09624592 -0.08404836 -0.06596286 -0.027101077 -0.042420343
-0.06548536 -0.055296198 -0.008810603 -0.13126521 0.016310332 0.008205562 -0.06405286 0.061424743
-0.023714028 0.030023038 0.039290566 -0.04701741 -0.101429254 0.027075745 -0.07821192 0.054945163
-0.09268493 -0.10931749 -0.07384535 -0.017385751 -0.016240707 -0.066719875 0.09043466 -0.11021931
-0.014923757 0.055501632 0.10442229 0.16611163 0.024649028 -0.13878028 0.09528932 0.09571574
-0.021058802 -0.070604265 -0.0009324351 0.06339132 -0.025867391 -0.0784357 -0.13507257 0.055030428
-0.057750292 -0.0028167916 0.042898584 0.10886275 0.07914707 0.03701121 -0.06303865 0.0076225526
0.12410923 -0.07589181 -0.04635787 -0.14081207 -0.014996614 0.04882907 -0.09375109 0.065027
0.08023289 -0.022198753 -0.076359145 -0.0036135125 -0.0426352 -0.06532853 0.02598861 0.0019643821
-0.0149342865 0.03115713 0.06912943 -0.00076016434 0.06797222 0.0041104895 0.12202288 0.12609547
-0.009886164 0.089000136 0.16012752 -0.07846658 0.09551267 -0.07491952 0.017479176 -0.15844786
0.0029529862 -0.12546183 0.10155499 -0.061081305 0.034292486 0.038257726 0.057337854 0.04600517
0.07209601 0.038902823 0.13471238 0.1433373 -0.02389187 0.0027500603 -0.063914284 0.012248524
-0.02492894 -0.07009319 -0.14350641 -0.037541438 0.03086587 0.04858828 -0.13109249 -0.08536302
0.14855003 0.16293238 -0.08789852 0.12214651 0.14220425 -0.16687553 0.13266337 -0.047524862
-0.07874133 0.016209435 -0.07461875 -0.0740843 0.1771422 -0.06397356 -0.040895186 -0.124029204
00000000: 17d9 7abd 5994 18be 8baf c33d c18a 6f3d
00000010: ec16 2cbd f635 913b 8260 d6bd 8ac9 aabd
00000020: bbe0 04be 8f06 49bb 6222 31bd 6469 3f3d
00000030: ee0d ec3d c321 6a3d a363 17bd f6c9 cf3d
00000040: 9390 4cbd bbfc 76bd 7e14 a4bd 4bd2 5bbc
00000050: db17 3bbd 6580 b83c d634 903d 9fa1 fcbc
00000060: cb14 8fbd 55b7 34be edde 20bd e571 81bd
00000070: 69f4 ba3b b1f9 503d a7c9 8c3d 17f4 83bd
00000080: befa 253e 9ae5 30bc 29be 5abc b4d6 1fbd
00000090: 2551 56bc 7cd1 99bc 9e6c 3e3d 13cd d739
000000a0: fbec ef3c 2d0d 91bb b637 01be 626e e93d
000000b0: 8bbe c6bd 1f19 043c e9b0 05be 8752 9d3d
000000c0: 62da de3d 1c61 143e 2ace e3bc fd6b a9bd
000000d0: 709c 5bbd 7315 dbbd 21d3 a43d f447 cd3d
000000e0: 1911 dc3c bb67 043c e214 82bc 6811 8e3d
000000f0: 1efb fd3d d64f 823d 721b 513d b076 10bc
00000100: 1aae 3abd fd57 0f3d 0330 2b3e 57a1 383d
00000110: 0622 1bbe 5938 173e 2338 afbd 93ec 883d
00000120: aa92 f3bd b089 29bd d55e a1bd f912 c23c
00000130: 7d11 993d ff62 be3d 748f 21bd e92c 80bc
00000140: 64f2 92bb 52d4 c93d c3a1 833c 328d 1abe
00000150: c689 f43d 5cb0 1abe 4bf1 d4bd 6b11 bcbd
00000160: 4d5b 35be 66bd 4fbd 553b 8c3c 19f2 e1bd
00000170: 214b 1abe b29f aa3d adeb 213e 2d1c 593d
00000180: c50a b93c a43a 553d 3bba 843d bb9f 523d
00000190: 551e cb3c fec3 edbd 307c e3bd d20b a1bd
000001a0: b493 03be 117f 4ebd ccfc 56bc 61c9 0cbd
000001b0: fef7 0b3e 15d6 f4bd 58c4 8ebd ef95 86bd
000001c0: 7762 9fbc 5e1a 523d 72aa ddbd bd25 d03d
000001d0: 2e8c 16ba 1685 b1bd 5d28 c43c 659f de3a
000001e0: 6864 163e b109 b3bb 62b0 643d f68a 37be
000001f0: a1e1 b63c 0b99 13be 903c dbbd 53ac 1fbe
00000200: dfe8 40bd 0cd8 2abd 86be 613d 951c c5bd
00000210: 8c21 acbd 8917 87bd 1403 debc f4c0 2dbd
00000220: 301d 86bd 447e 62bd 595a 10bc 636a 06be
00000230: 3f9d 853c 9f70 063c 252e 83bd 8398 7b3d
00000240: ec43 c2bc e0f2 f53c 25ef 203d 5495 40bd
00000250: 24ba cfbd f4cd dd3c 922d a0bd 2e0e 613d
00000260: 99d1 bdbd d9e1 dfbd 3b3c 97bd 906c 8ebc
00000270: 3b0b 85bc 6ea4 88bd cf35 b93d a9ba e1bd
00000280: c682 74bc ae55 633d 5bdb d53d 2b19 2a3e
00000290: c2ec c93c 6b1c 0ebe 0c27 c33d 9d06 c43d
000002a0: 8283 acbc f898 90bd a96e 74ba 4fd3 813d
000002b0: dae7 d3bc e5a2 a0bd 7750 0abe 9667 613d
000002c0: 928b 6cbd ec99 38bb 6db6 2f3d 6ff3 de3d
000002d0: dc17 a23d 1199 173d 681a 81bd 9bc6 f93b
000002e0: fb2c fe3d 2a6d 9bbd c0e1 3dbd 0a31 10be
000002f0: 5cb4 75bc fe00 483d 9200 c0bd e02c 853d
00000300: 2451 a43d 29da b5bc 2f62 9cbd aed0 6cbb
00000310: 3fa2 2ebd f7ca 85bd 11e6 d43c ddbc 003b
00000320: f0ae 74bc 3d3d ff3c bb93 8d3d c445 47ba
00000330: 0535 8b3d 49b1 863b 22e7 f93d 2c1f 013e
00000340: 94f9 21bc b445 b63d 78f8 233e 16b3 a0bd
00000350: 269c c33d 686f 99bd 7d30 8f3c 2840 22be
00000360: e386 413b 1179 00be 10fc cf3d 6430 7abd
00000370: 4776 0c3d 22b4 1c3d 19db 6a3d eb6f 3c3d
00000380: 13a7 933d 9158 1f3d 0bf2 093e 03c7 123e
00000390: e2b8 c3bc 5b3a 343b 7ee5 82bd 09ae 483c
000003a0: c737 ccbc 058d 8fbd 58f3 12be 0dc5 19bd
000003b0: 6cda fc3c 8104 473d 1c3d 06be cfd2 aebd
000003c0: 801d 183e bfd7 263e 2404 b4bd f327 fa3d
000003d0: fe9d 113e 6be1 2abe e8d8 073e 6ea9 42bd
000003e0: 2243 a1bd a6c9 843c b7d1 98bd 82b9 97bd
000003f0: c464 353e 9204 83bd b681 27bd 0603 febd

lstm.bias_ih_l1 f4 [256]
0.15664408 0.15268141 0.06561357 -0.082356006 -0.04362787 0.16989732 0.16242576 0.09657979
0.103930995 -0.033994034 0.12802556 -0.0662927 -8.138243e-06 0.030434012 -0.06861243 0.14368524
0.09792202 0.0004733771 -0.0042936 0.015807528 0.15525913 0.014671356 -0.0572286 0.032946974
0.044408765 -0.008939908 0.09139629 0.046345234 0.02225511 0.045189805 0.08317394 0.111061566
-0.05364302 -0.0851587 0.12089362 0.10404451 0.027376672 -0.015801935 0.15732206 0.098361224
0.008612505 0.10128371 0.06849345 0.09096404 0.03842379 0.02291033 0.07627841 0.08732254
0.031298663 0.028094545 -0.06544637 0.031088576 -0.01012496 0.053995933 0.0148149645 -0.0027125864
-0.08134733 0.14197509 0.15108763 -0.092477344 -0.05607954 -0.07217405 -0.09606236 0.13062252
-0.0068000997 -0.09619417 -0.07609732 0.027266607 0.09860637 0.05019107 -0.13198449 -0.11991294
-0.051342893 0.06273294 0.018402264 -0.019099498 0.105995506 0.0076876073 -0.10340793 -0.10737151
-0.012679832 -0.112248905 0.026067965 0.05632828 -0.03115768 0.031210393 -0.08380652 0.07973391
-0.13090561 -0.06563176 0.105343096 -0.028113779 -0.01948119 0.011947499 -0.06667537 -0.108961105
-0.099763736 -0.12159718 0.051175695 0.022606743 0.10946241 -0.11949101 0.014898502 -0.034979746
0.017399328 -0.048352834 0.07240706 0.08061469 -0.020215983 0.1144382 0.03101295 -0.04415426
0.06951516 -0.070038736 -0.048924953 0.035184942 0.09477216 -0.08054757 -0.06804679 -0.023897434
0.027966956 0.089672774 -0.028160533 0.03448852 0.0027344723 0.014425097 -0.07122111 -0.029144472
-0.08326151 -0.066330224 0.10591752 0.07771511 -0.061903443 0.10832855 0.073422946 -0.079913124
-0.0031619477 0.040402297 -0.023421958 0.015437522 0.06349523 -0.10987568 0.12275878 0.10603245
-0.042968392 -0.10339284 0.031728663 -0.1113199 0.08144751 -0.106103815 -0.12421836 -0.048728358
0.072186604 -0.13155992 0.08732679 -0.07499221 -0.082451 0.09234816 -0.027985958 -0.084696695
0.1087121 -0.12186425 0.044037774 -0.009541231 0.03488786 -0.100935735 -0.032975446 0.10272032
0.01130434 0.061906077 -0.019361068 0.0012585113 -0.014813921 -0.04850217 0.046084944 -0.02376327
0.13272011 0.118946865 -0.11349212 -0.10998506 0.10483708 -0.09355991 0.10238961 0.0047830907
0.10195418 0.021139447 -0.09647999 -0.10580401 0.024709811 -0.010326595 -0.091755986 -0.051059823
-0.019121328 0.1522144 0.0558329 0.13718691 0.09597791 -0.029911505 0.171145 0.025496695
0.0009819705 0.019997414 0.08358552 -0.060632676 -0.030495444 -0.014268922 0.08977765 0.014389602
0.0654068 0.047794815 0.021440493 -0.061216366 0.024724238 -0.06706644 -0.07211806 0.15600003
0.074172944 0.1641823 0.115836784 0.111734115 -0.030884063 -0.055604063 0.1424282 0.013351226
-0.0095447255 0.116571866 0.10416012 0.15239124 -0.015240066 -0.041115813 -0.04992263 -0.004257986
0.15121253 0.090436764 0.08568425 -0.082174696 0.04921345 0.08876977 -0.030536272 0.14428595
-0.0146936355 -0.06625938 0.0075667943 0.012150784 0.060677845 0.029275184 0.11605955 0.07107436
0.0067012175 -0.0747538 0.044775862 0.0038958911 0.15922725 0.1369592 0.03757058 0.14468391
00000000: 4e67 203e 8458 1c3e 6860 863d 44aa a8bd
00000010: 23b3 32bd 90f9 2d3e f052 263e a0cb c53d
00000020: c6d9 d43d 543d 0bbd 2219 033e 78c4 87bd
00000030: 7d89 08b7 c050 f93c ac84 8cbd 3922 133e
00000040: 578b c83d 992f f839 54b1 8cbb ca7e 813c
00000050: 40fc 1e3e 2160 703c 8968 6abd 68f3 063d
00000060: f7e5 353d b178 12bc fa2d bb3d 80d4 3d3d
00000070: 5950 b63c f218 393d 1957 aa3d 3f74 e33d
00000080: c9b8 5bbd af67 aebd 1397 f73d 4a15 d53d
00000090: 0b45 e03c 0f73 81bc 0919 213e 9c71 c93d
000000a0: 771b 0d3c d56d cf3d 4b46 8c3d 5b4b ba3d
000000b0: 4462 1d3d 72ae bb3c db37 9c3d 29d6 b23d
000000c0: 0733 003d 8826 e63c bf08 86bd 78ad fe3c
000000d0: 29e3 25bc d72a 5d3d 77ba 723c a6c5 31bb
000000e0: 6e99 a6bd eb61 113e b7b6 1a3e c364 bdbd
000000f0: a9b3 65bd fdcf 93bd 58bc c4bd e9c1 053e
00000100: 5fd3 debb 7301 c5bd e9d8 9bbd 385e df3c
00000110: 23f2 c93d 2795 4d3d f126 07be ea94 f5bd
00000120: ed4c 52bd 217a 803d 58c0 963c 8d76 9cbc
00000130: 2c14 d93d 53e8 fb3b 89c7 d3bd 98e5 dbbd
00000140: 12bf 4fbc c1e2 e5bd 7c8c d53c 7cb8 663d
00000150: 643e ffbc f0ac ff3c c1a2 abbd 884b a33d
00000160: 1f0c 06be f269 86bd 1fbe d73d de4e e6bc
00000170: 0497 9fbc 71bf 433c 198d 88bd 0027 dfbd
00000180: ee50 ccbd f107 f9bd 9b9d 513d c731 b93c
00000190: d42d e03d b4b7 f4bd d918 743c ec46 0fbd
000001a0: 0989 8e3c 9f0d 46bd 274a 943d 5119 a53d
000001b0: fd9b a5bc 935e ea3d df0e fe3c 19db 34bd
000001c0: f75d 8e3d 7870 8fbd 8865 48bd 161e 103d
000001d0: e817 c23d 20f6 a4bd 1e5c 8bbd 8dc4 c3bc
000001e0: f51a e53c 5ca6 b73d ebb0 e6bc d643 0d3d
000001f0: d534 333b 3e57 6c3c 60dc 91bd 63c0 eebc
00000200: 0385 aabd 24d8 87bd 49eb d83d 1929 9f3d
00000210: 778e 7dbd 5cdb dd3d c55e 963d 7ea9 a3bd
00000220: ae38 4fbb e17c 253d 68df bfbc a9ed 7c3c
00000230: ca09 823d 8006 e1bd f568 fb3d 8b27 d93d
00000240: a0ff 2fbd a0bf d3bd eaf5 013d b0fb e3bd
00000250: f4cd a63d f54c d9bd 3266 febd 6397 47bd
00000260: 92d6 933d a5b7 06be 63d8 b23d 8495 99bd
00000270: 12dc a8bd 0821 bd3d cf42 e5bc 7675 adbd
00000280: 73a4 de3d f793 f9bd f460 343d d352 1cbc
00000290: 93e6 0e3d 65b7 cebd 4311 07bd 085f d23d
000002a0: d735 393c 3a91 7d3d 1a9b 9ebc a2f4 a43a
000002b0: 17b6 72bc 36aa 46bd 91c3 3c3d 30ab c2bc
000002c0: c8e7 073e 6a9a f33d 8e6e e8bd d93f e1bd
000002d0: d3b4 d63d 579c bfbd a5b1 d13d 79bb 9c3b
000002e0: 5acd d03d a22c ad3c 4d97 c5bd c6af d8bd
000002f0: 3b6c ca3c e130 29bc 90ea bbbd 1b24 51bd
00000300: 55a4 9cbc 17de 1b3e 0ab1 643d ba7a 0c3e
00000310: 1190 c43d f908 f5bc a340 2f3e 72de d03c
00000320: 76b5 803a 9ed1 a33c e32e ab3d f859 78bd
00000330: 95d1 f9bc 32c8 69bc 58dd b73d 5dc2 6b3c
00000340: 00f4 853d 7fc4 433d f9a3 af3c 03be 7abd
00000350: 7c8a ca3c 215a 89bd a2b2 93bd 79be 1f3e
00000360: fce7 973d 681f 283e d63b ed3d dbd4 e43d
00000370: 9300 fdbc 16c1 63bd b3d8 113e 1abf 5a3c
00000380: 7b61 1cbc 3bbd ee3d e751 d53d 730c 1c3e
00000390: 78b1 79bc 0e69 28bd ac7b 4cbd 9386 8bbb
000003a0: 75d7 1a3e e936 b93d 397b af3d 354b a8bd
000003b0: 0b94 493d edcc b53d 3427 fabc b2bf 133e
000003c0: 93bd 70bc ffb2 87bd dff2 f73b 1514 473c
000003d0: 5589 783d 83d2 ef3c a1b0 ed3d 6f8f 913d
000003e0: e395 db3b 8518 99bd e566 373d 3552 7f3b
000003f0: 780c 233e 083f 0c3e 9ce3 193d 0528 143e

lstm.bias_hh_l1 f4 [256]
-0.06324098 0.15596683 -0.034678146 -0.007818271 0.10112318 0.059973046 0.018555703 -0.046395406
-0.016653944 0.053561516 -0.07379192 0.015696598 0.04893334 -0.029586984 -0.04193237 0.06801843
-0.09430211 0.020701142 -0.03457841 -0.087126665 -0.0010102754 0.05877153 0.10282129 0.006333127
0.083341174 0.1105165 0.082801074 -0.04460621 0.06935125 0.03678438 -0.024908714 0.0074399915
0.14991036 0.0506039 0.07594818 0.14604992 0.0075914008 -0.029440545 0.15359445 0.15133984
-0.057812247 0.119074106 0.101891935 0.021288967 0.02715497 -0.038032513 0.0712896 0.09354543
0.1252832 0.1094907 0.05153765 0.00040512718 0.0088438 0.016786436 -0.06240083 -0.065358594
0.05268823 0.13450429 0.09342849 -0.09747322 0.1483781 -0.014372244 -0.03015801 -0.064119704
-0.04320925 -0.075964406 -0.07260773 -0.116110414 0.09245423 -0.087053314 -0.022063924 -0.020189822
0.0118592335 -0.04788265 0.057525914 -0.059137646 -0.11823791 0.023752455 0.06252444 -0.060732506
0.01599181 0.043078754 -0.02910652 0.11322391 -0.058750287 0.08478945 -0.026775602 0.07916519
-0.058367975 -0.030155247 -0.02223917 -0.06236037 0.0841821 -0.047985706 0.055756275 0.10228005
0.03520859 0.09983497 0.075659 -0.04459657 -0.11474649 0.0082011735 0.017799769 0.013681072
-0.1053795 0.012802348 -0.09426687 0.094084434 0.11337166 -0.023279348 -0.09945203 0.0061344337
0.033957846 0.07522661 0.055375356 -0.044628046 0.004331685 -0.09277476 -0.09948684 0.010019068
0.11885419 -0.083687596 -0.09644663 0.06175563 0.1035963 -0.029439766 0.047121428 0.121818446
0.010337703 -0.09873439 0.11868816 0.04023509 -0.12074857 0.04377693 -0.025627684 0.042715844
-0.09547455 -0.00015683276 -0.09256549 -0.11105754 0.086309776 0.09294622 0.037476137 0.02639464
-0.058550775 0.12842329 0.10112703 -0.0022413018 0.079054624 -0.11556003 -0.027669884 -0.0217249
-0.12337847 0.063498646 0.07392498 -0.03210982 0.03485211 0.14062452 0.054354217 0.018251242
0.10353256 -0.056079503 0.10409105 0.02301382 -0.0694241 0.08066753 0.019899016 0.011690177
-0.05684947 0.12951088 -0.11142198 0.09352783 0.029653829 -0.00326282 -0.11621633 -0.017394848
-0.011180904 0.049600575 -0.005201685 0.11691723 0.06683894 -0.09928741 0.0038433485 -0.06175335
0.12124024 -0.0064901114 -0.03642037 0.08979502 0.036444988 -0.06707268 -0.10212204 0.05389537
-0.010784917 -0.007400476 -0.0139043415 0.09795057 -0.04623536 0.011805062 0.13480258 -0.027790809
0.027139086 0.17778185 0.026251819 0.045032684 -0.008388133 0.06932251 -0.063805684 0.030069001
0.14715235 0.13529025 -0.032628622 -0.079382576 0.022760216 0.05813534 -0.0128810145 -0.028556447
0.001908765 0.032631647 0.025240043 0.08221959 -0.0042812987 0.05021025 0.07613794 0.052978072
0.04762226 -0.068001606 0.12392415 0.16456299 0.0568029 -0.013634372 0.09238685 0.12098188
0.090270355 0.07323039 0.023105565 0.08476735 -0.00029903892 0.12419927 0.07187672 -0.0047395965
0.10170354 -0.09120778 -0.0293367 -0.068019725 -0.02955085 0.14262292 0.063445374 0.060070936
0.06531054 -0.02160078 0.04303386 0.034292776 0.02034869 -0.014923813 0.111155294 0.105321646
00000000: 7d84 81bd c5b5 1f3e ac0a 0ebd 3518 00bc
00000010: ab19 cf3d 4ca6 753d 2102 983c 1c09 3ebd
00000020: da6d 88bc 5263 5b3d 3820 97bd 2796 803c
00000030: 536e 483d 6760 f2bc 47c1 2bbd 3f4d 8b3d
00000040: 7721 c1bd 7195 a93c 17a2 0dbd 776f b2bd
00000050: 386b 84ba 6aba 703d f893 d23d 1f86 cf3b
00000060: c7ae aa3d 7a56 e23d 9c93 a93d 00b5 36bd
00000070: 0708 8e3d 38ab 163d 5c0d ccbc 2ccb f33b
00000080: 1a82 193e 0946 4f3d b88a 9b3d 1c8e 153e
00000090: 49c1 f83b 4c2d f1bc dd47 1d3e d5f8 1a3e
000000a0: 89cc 6cbd 20dd f33d b8ac d03d 3366 ae3c
000000b0: 1a74 de3c fbc7 1bbd 4800 923d bf94 bf3d
000000c0: 3d4a 003e a93c e03d 2519 533d 4067 d439
000000d0: 96e5 103c b583 893c 0398 7fbd bada 85bd
000000e0: 9dcf 573d 7ebb 093e 7057 bf3d 0aa0 c7bd
000000f0: 6ef0 173e 8f79 6bbc ee0d f7bc 3151 83bd
00000100: 2ffc 30bd 3a93 9bbd 5db3 94bd 4ccb edbd
00000110: a558 bd3d 0249 b2bd 67bf b4bc 2065 a5bc
00000120: 3b4d 423c 9920 44bd 4ba0 6b3d 513a 72bd
00000130: b826 f2bd 8294 c23c d00c 803d a6c2 78bd
00000140: 4201 833c 5973 303d cc70 eebc f0e1 e73d
00000150: 24a4 70bd 17a6 ad3d 8258 dbbc 5c21 a23d
00000160: 4213 6fbd 2308 f7bc eb2e b6bc 966d 7fbd
00000170: aa67 ac3d a98c 44bd b160 643d 3478 d13d
00000180: e236 103d 4776 cc3d 1bf3 9a3d e5aa 36bd
00000190: 3500 ebbd 375e 063c d2d0 913c 9326 603c
000001a0: 35d1 d7bd f0c0 513c fd0e c1bd 57af c03d
000001b0: 672f e83d 55b4 bebc 82ad cbbd 5c03 c93b
000001c0: 6217 0b3d 6910 9a3d 45d1 623d e6cb 36bd
000001d0: cff0 8d3b b200 bebd c2bf cbbd 0427 243c
000001e0: d369 f33d 6764 abbd d085 c5bd 79f3 7c3d
000001f0: 4c2a d43d aa2b f1bc 6602 413d f37b f93d
00000200: 785f 293c 4235 cabd c712 f33d 8dcd 243d
00000210: 074b f7bd 704f 333d 26f1 d1bc cff6 2e3d
00000220: 2988 c3bd 7973 24b9 fa92 bdbd 2372 e3bd
00000230: 2ec3 b03d 965a be3d 9480 193d 9239 d83c
00000240: f0d2 6fbd 6581 033e b01b cf3d cee2 12bb
00000250: 64e7 a13d bdaa ecbd f4ab e2bc 6bf8 b1bc
00000260: daad fcbd 940b 823d fb65 973d 9685 03bd
00000270: 16c1 0e3d e0ff 0f3e 87a2 5e3d a183 953c
00000280: e108 d43d 9fb3 65bd b02d d53d 7b87 bc3c
00000290: 392e 8ebd 0535 a53d 4303 a33c 2888 3f3c
000002a0: fdda 68bd 809e 043e 3531 e4bd 858b bf3d
000002b0: 96ec f23c 09d5 55bb d402 eebd a47f 8ebc
000002c0: 1c30 37bc f929 4b3d e572 aabb 4d72 ef3d
000002d0: dbe2 883d 3357 cbbd b0e0 7b3b 15f1 7cbd
000002e0: ce4c f83d 00ab d4bb 872d 15bd 74e6 b73d
000002f0: 5747 153d 675d 89bd 5c25 d1bd 64c1 5c3d
00000300: 38b3 30bc b17f f2bb 09cf 63bc 4f9a c83d
00000310: 4a61 3dbd 056a 413c b009 0a3e 8da9 e3bc
00000320: ca52 de3c 720c 363e 0e0e d73c 3174 383d
00000330: 616e 09bc f6f8 8d3d 8eac 82bd 4453 f63c
00000340: 1baf 163e 8789 0a3e 97a5 05bd 5593 a2bd
00000350: a273 ba3c 531f 6e3d e40a 53bc 36ef e9bc
00000360: 872f fa3a c3a8 053d 35c4 ce3c bf62 a83d
00000370: 234a 8cbb 43a9 4d3d 35ee 9b3d 89ff 583d
00000380: 8f0f 433d 6d44 8bbd f2cb fd3d 3383 283e
00000390: 28aa 683d b362 5fbc 5135 bd3d 59c5 f73d
000003a0: aadf b83d d1f9 953d e247 bd3c 819a ad3d
000003b0: 53c8 9cb9 305c fe3d 1a34 933d 9e4e 9bbb
000003c0: f249 d03d 25cb babd 8553 f0bc ed4d 8bbd
000003d0: a014 f2bc be0b 123e a6ef 813d f10c 763d
000003e0: 88c1 853d 1ef4 b0bc 4644 303d 9576 0c3d
000003f0: 4cb2 a63c 0283 74bc 63a5 e33d e0b2 d73d
