checkpoints/long_term_forecast_weather_96_96_LSTM_custom_ftM_sl96_ll48_pl96_dm32_nh8_el2_dl1_df32_fc3_ebtimeF_dtTrue_Exp_0/checkpoint.pth (torch, 67947 bytes, 10 tensors)

lstm.weight_ih_l0 f4 [128, 21]
0.033709347 -0.040728178 0.029182497 -0.022446193 -0.13157856 -0.15478745 -0.25256976 0.2135371
-0.16559884 -0.2346729 0.19067633 -0.1783508 0.077383734 -0.2265427 0.10415559 -0.07033418
0.036838286 -0.041550234 0.13024485 0.056889936 0.11705658 -0.061388295 0.2803514 0.103639595
0.059266396 -0.17823833 0.2297068 -0.050341252 -0.02164845 0.04438078 0.17013562 -0.026966322
0.05941321 -0.103325345 0.12532815 0.044518758 -0.17881534 -0.16826004 -0.19042248 -0.12881778
0.1887954 0.13443618 0.23896308 -0.27033022 -0.05781243 0.008745291 0.25798553 -0.28197208
-0.104090005 -0.22336046 0.0738545 0.017935002 0.18032634 -0.00069129915 -0.007098185 -0.049423464
-0.018463595 -0.17068033 -0.07004717 -0.09000589 -0.3127299 -0.15140948 0.04412872 0.27589598
0.1251931 -0.21816008 -0.08969215 -0.06354462 -0.19581121 -0.20045525 -0.1721369 0.047759395
-0.18524049 0.011049085 -0.193352 -0.20073444 0.046030145 -0.0075101736 -0.07918954 0.27584848
0.01845695 0.09675169 -0.056274105 -0.08815043 -0.09281107 0.04407384 0.1026646 -0.019890457
-0.008199674 0.2688337 0.09517443 0.05414717 -0.08098755 -0.03579493 -0.0034614091 0.10154732
-0.23438701 0.06450262 0.0635846 -0.06509169 0.09222165 -0.026249057 -0.17552261 0.217321
0.010685097 -0.116958335 0.105783366 0.22150941 0.20721582 -0.00466437 0.13959804 0.0615503
0.117085785 -0.057744004 0.073588796 -0.26799765 0.13825123 -0.1793454 -0.14594963 0.06713802
-0.13264906 -0.16666755 -0.19615166 0.055165675 -0.08600833 0.08445256 0.036879193 0.20241861
-0.03323528 -0.12902732 -0.039743803 0.18440883 -0.06135934 -0.11643912 0.15940383 0.14771308
0.11024248 0.018741172 -0.11557069 -0.17368896 -0.211787 -0.14621703 -0.28539005 -0.3128804
-0.029973969 0.15012947 -0.04794685 -0.15950684 0.16613612 0.110691234 -0.017822238 -0.036435526
0.034766342 -0.041913483 -0.23675312 -0.018647844 0.14315128 -0.15402208 -0.017395122 -0.028213203
-0.08630538 -0.06141219 0.042246416 0.054482132 0.13557072 0.048252415 0.10327847 0.16950756
-0.045041263 -0.050036367 0.037627615 0.19736253 0.08703629 0.032660168 0.10254256 0.089019194
0.08505325 0.24020368 -0.1957897 0.0016487188 -0.006542995 0.07150663 0.03320558 -0.0026405808
0.22311589 -0.056524504 -0.028577752 -0.021554189 0.36306247 -0.068511456 -0.09032366 0.07960685
-0.092567354 0.11768369 0.20580284 0.14404507 0.016849082 -0.028157769 0.22531176 -0.1052463
0.06423674 -0.05345211 0.19302261 0.0118088545 0.07581531 -0.19282624 -0.21433707 -0.05170847
0.17265202 -0.07597095 0.05223623 0.034731705 -0.13777392 -0.08033986 -0.021571763 0.03519927
0.1083681 0.1429884 0.19161782 -0.113656454 0.06783497 -0.10091501 -0.10753288 0.09543306
-0.12464374 -0.20929097 -0.020986838 -0.112981364 -0.0778165 0.03360686 0.21875226 0.3395198
0.09399359 0.03153788 0.043540824 -0.14880802 0.1644628 0.15549162 0.21887967 -0.08980958
-0.07226224 0.18867236 0.22037326 0.09850292 0.13644579 0.15804446 -0.055638332 -0.14547747
-0.019572342 0.20826997 -0.04851598 -0.049367797 -0.22814025 -0.105412155 -0.099237494 -0.25520095
00000000: d012 0a3d 97d2 26bd 2210 ef3c 14e1 b7bc
00000010: 88bc 06be 9a80 1ebe d350 81be 78a9 5a3e
00000020: be92 29be 184e 70be a840 433e 98a1 36be
00000030: 5d7b 9e3d cffa 67be 874f d53d 5e0b 90bd
00000040: bee3 163d 9430 2abd e85e 053e 6c05 693d
00000050: 5cbb ef3d 4b72 7bbd 388a 8f3e ff40 d43d
00000060: 52c1 723d 1c84 36be 4238 6b3e a132 4ebd
00000070: 1758 b1bc 9fc8 353d 0838 2e3e 7ae8 dcbc
00000080: 445b 733d 3d9c d3bd 0656 003e 4d59 363d
00000090: 5e1b 37be 5c4c 2cbe 1cfe 42be cfe8 03be
000000a0: 9553 413e a3a9 093e bdb2 743e b968 8abe
000000b0: bacc 6cbd 6948 0f3c ae16 843e a55e 90be
000000c0: 242d d5bd 9bb8 64be 0741 973d 6dec 923c
000000d0: 78a7 383e 4d38 35ba e497 e8bb 4270 4abd
000000e0: f740 97bc d3c6 2ebe e474 8fbd 0255 b8bd
000000f0: 221e a0be 160b 1bbe 51c0 343d 3d42 8d3e
00000100: 9f32 003e 5b65 5fbe 85b0 b7bd af23 82bd
00000110: bc82 48be 2444 4dbe a844 30be 5b9f 433d
00000120: afaf 3dbe 3907 353c 11fe 45be 548d 4dbe
00000130: 1b8a 3c3d e717 f6bb 202e a2bd 033c 8d3e
00000140: 0833 973c c025 c63d ad7f 66bd 3688 b4bd
00000150: bb13 bebd c586 343d d141 d23d 50f1 a2bc
00000160: ed57 06bc 92a4 893e d0ea c23d 6cc9 5d3d
00000170: cddc a5bd b49d 12bd cfd8 62bb 0bf8 cf3d
00000180: 2603 70be f319 843d a538 823d cb4e 85bd
00000190: b4de bc3d 4308 d7bc 33bc 33be 6589 5e3e
000001a0: 8c10 2f3c da87 efbd f3a4 d83d 5dd3 623e
000001b0: 6230 543e 92d7 98bb caf2 0e3e 2b1c 7c3d
000001c0: acca ef3d fa84 6cbd b9b5 963d fd36 89be
000001d0: bb91 0d3e 52a6 37be d273 15be a97f 893d
000001e0: 28d5 07be e6aa 2abe fbdb 48be 67f5 613d
000001f0: 2325 b0bd 77f5 ac3d a30e 173d d346 4f3e
00000200: b821 08bd bd1f 04be 66ca 22bd abd5 3c3e
00000210: ee53 7bbd a277 eebd c23a 233e 1942 173e
00000220: cfc6 e13d 1687 993c 53b0 ecbd 85db 31be
00000230: b1de 58be ebb9 15be a51e 92be dc31 a0be
00000240: f88b f5bc 8abb 193e eb63 44bd c355 23be
00000250: 961f 2a3e 16b2 e23d f1ff 91bc 6b3d 15bd
00000260: 2767 0e3d 79ad 2bbd 696f 72be 5dc3 98bc
00000270: 4096 123e f7b7 1dbe 3780 8ebc 601f e7bc
00000280: e0c0 b0bd 598b 7bbd 940a 2d3d a828 5f3d
00000290: 0dd3 0a3e 53a4 453d aa83 d33d 6493 2d3e
000002a0: 307d 38bd eff2 4cbd 6a1f 1a3d 6719 4a3e
000002b0: 1540 b23d abc6 053d d501 d23d b24f b63d
000002c0: 6630 ae3d f4f7 753e 187d 48be d319 d83a
000002d0: 9f66 d6bb 1172 923d 9302 083d 980d 2dbb
000002e0: 7e78 643e 3d86 67bd e41b eabc 6992 b0bc
000002f0: 53e3 b93e bc4f 8cbd 9cfb b8bd eb08 a33d
00000300: f493 bdbd 2504 f13d fbbd 523e 8d80 133e
00000310: 1607 8a3c 1fab e6bc 20b8 663e 5f8b d7bd
00000320: 8d8e 833d 9af0 5abd b8a7 453e ed79 413c
00000330: 0f45 9b3d 3e74 45be 2d7b 5bbe 43cc 53bd
00000340: b1cb 303e a896 9bbd a8f5 553d d542 0e3d
00000350: 9b14 0dbe 3989 a4bd 44b7 b0bc 1c2d 103d
00000360: 18f0 dd3d 8d6b 123e 7637 443e b7c4 e8bd
00000370: 10ed 8a3d 87ac cebd 333a dcbd 6872 c33d
00000380: 3845 ffbd 5f50 56be 97ec abbc c662 e7bd
00000390: 425e 9fbd 59a7 093d 9800 603e 8ad5 ad3e
000003a0: b67f c03d dd2d 013d dd57 323d 2161 18be
000003b0: f068 283e 3239 1f3e fe21 603e 16ee b7bd
000003c0: 3afe 93bd 5433 413e 87a9 613e e6bb c93d
000003d0: 72b8 0b3e 68d6 213e 05e5 63bd 0cf8 14be
000003e0: 2d56 a0bc b944 553e b1b8 46bd e335 4abd
000003f0: 999d 69be 54e2 d7bd 073d cbbd b3a9 82be

lstm.weight_hh_l0 f4 [128, 32]
-0.26023668 0.043107353 -0.07181348 0.010441501 0.14080247 0.16728249 -0.014739121 0.10162448
-0.07711002 0.032825466 0.25118527 0.20871262 -0.06687166 0.045893393 -0.0004360685 0.28619578
-0.010915615 -0.28185692 0.123661466 0.00068727985 -0.2591709 0.15313795 -0.19185413 0.2182806
0.072486855 -0.2659554 0.121214196 -0.11201937 -0.09675111 -0.10349657 -0.045953616 0.01596544
-0.06134474 0.114713095 0.0909522 0.3299939 -0.025126396 0.13621813 0.14945658 0.18231572
-0.20469435 -0.046676286 0.09684348 -0.023155818 -0.04391039 0.24530426 -0.03418841 -0.0029280935
0.18313193 -0.20444107 0.0102486815 0.21353841 0.13422912 -0.084178835 -0.019789921 0.036652274
0.33905685 0.08426743 0.061435558 -0.06766577 -0.24193977 -0.09109453 0.27974188 0.268738
-0.13224804 0.15390094 0.06674233 0.07753939 -0.037842512 0.2774358 -0.05650233 0.1900595
0.06849445 0.025484981 -0.016165733 0.1291325 -0.07365861 0.058150668 -0.04255326 0.15893304
0.12022256 0.04291685 -0.022575123 -0.05534931 -0.19230066 -0.0024233742 -0.111952655 0.11307793
0.04828511 -0.035864588 0.10301645 -0.24295484 -0.06970851 -0.21969408 -0.04990402 0.06227269
0.07250284 0.19515026 -0.03163409 0.070431955 0.16461734 0.09511613 0.18074994 0.022250488
0.06440262 0.14846651 0.042347126 0.017585821 -0.21581179 -0.19454573 -0.18221991 0.00818098
0.11425251 -0.21313874 0.143345 -0.08194985 -0.045216687 0.11188388 -0.01597614 0.22634111
-0.08728809 -0.28201684 -0.01229116 -0.24665381 -0.030829089 -0.07061331 -0.019858913 0.12176994
-0.1689369 0.17934494 0.1252556 -0.014659729 -0.05566269 -0.06581157 0.16647045 0.0007322899
-0.18974718 -0.12674855 -0.01897428 0.14001177 -0.064826466 0.028193833 -0.08409523 0.1928767
0.21126443 0.028195247 0.17424434 0.022462256 -0.033256434 0.09888611 -0.23171413 0.095645286
0.14440942 -0.26038858 0.26960117 0.023927582 -0.037227884 0.11358712 0.27608675 0.16103104
-0.01861474 0.019437525 0.16617267 0.093924016 0.13820164 -0.06393362 -0.11461015 0.25423005
-0.037667375 0.007210783 -0.009698977 0.035178322 -0.053317137 0.23346052 -0.018095976 0.0759954
0.03231746 -0.2369566 -0.10118952 0.22655654 0.18367372 -0.2737827 -0.282628 0.19774169
0.16647662 0.035206527 0.2843363 0.0935657 -0.022400824 0.10843898 0.09477481 0.16533141
-0.14879484 0.12861036 0.14745401 0.112073086 0.1938884 0.14806433 0.09044811 0.08603791
-0.025850667 -0.093328506 0.07488407 0.19517285 -0.23613767 0.029567169 -0.06932195 0.0227007
0.14141363 -0.08271571 -0.0011123029 0.07896078 -0.077892035 -0.17829706 -0.31224915 0.08478942
0.3352814 -0.16583468 0.3005131 -0.014380396 -0.27585834 0.075539984 0.07459302 0.26263562
-0.35725152 0.073850565 -0.039559875 0.27856913 0.08115807 0.34546947 0.103821106 0.19457549
-0.3159586 -0.029905196 0.27968356 0.12253884 -0.12458172 0.011456841 -0.22298808 0.37440443
0.29680693 -0.29204458 0.36728013 0.025301889 -0.16103694 -0.07881773 -0.13889757 0.14233384
0.30855983 -0.21119212 0.16780275 -0.341667 -0.2629288 -0.20578091 0.33760557 0.04901649
00000000: be3d 85be 5691 303d f212 93bd d412 2b3c
00000010: 862e 103e 1a4c 2b3e 5b7c 71bc 7f20 d03d
00000020: dceb 9dbd ff73 063d 5b9b 803e c3b8 553e
00000030: 02f4 88bd b6fa 3b3d 20a0 e4b9 4188 923e
00000040: 68d7 32bc 8d4f 90be 3942 fd3d 922a 343a
00000050: 0cb2 84be 32d0 1c3e 6975 44be f384 5f3e
00000060: fd73 943d 4e2b 88be 263f f83d 696a e5bd
00000070: 7225 c6bd 02f6 d3bd dc39 3cbd f4c9 823c
00000080: 9f44 7bbd b3ee ea3d 2645 ba3d f6f4 a83e
00000090: dfd5 cdbc c47c 0b3e 250b 193e f9b0 3a3e
000000a0: 659b 51be a22f 3fbd e055 c63d 45b1 bdbc
000000b0: 62db 33bd 0a31 7b3e 2509 0cbd 42e5 3fbb
000000c0: f086 3b3e 0059 51be 16ea 273c d0a9 5a3e
000000d0: 5c73 093e f465 acbd 791e a2bc b220 163d
000000e0: dc98 ad3e 6794 ac3d daa3 7b3d 5a94 8abd
000000f0: 0fbf 77be c58f babd 543a 8f3e 0798 893e
00000100: 086c 07be 3598 1d3e 34b0 883d f9cc 9e3d
00000110: c000 1bbd 110c 8e3e fd6e 67bd f59e 423e
00000120: d146 8c3d e1c5 d03c 006e 84bc 4f3b 043e
00000130: 53da 96bd 652f 6e3d 544c 2ebd 58bf 223e
00000140: 3f37 f63d 94c9 2f3d 77ef b8bc f5b5 62bd
00000150: 77ea 44be 79d1 1ebb 6f47 e5bd 6795 e73d
00000160: 9cc6 453d bfe6 12bd 4afa d23d 27c9 78be
00000170: 56c3 8ebd 7cf7 60be 2868 4cbd a611 7f3d
00000180: 5e7c 943d 78d5 473e bf92 01bd a13e 903d
00000190: 7391 283e 3fcc c23d 8316 393e a846 b63c
000001a0: 85e5 833d 9b07 183e 2e74 2d3d 2410 903c
000001b0: c4fd 5cbe ff36 47be db97 3abe 8409 063c
000001c0: 38fd e93d 0b41 5abe 08c9 123e 53d5 a7bd
000001d0: 2235 39bd 6023 e53d 65e0 82bc f7c5 673e
000001e0: 19c4 b2bd 8364 90be dd60 49bc d192 7cbe
000001f0: 498d fcbc b69d 90bd 29af a2bc 8562 f93d
00000200: cbfd 2cbe 33a6 373e 0143 003e 5c2f 70bc
00000210: 90fe 63bd 37c8 86bd 3b77 2a3e 25f7 3f3a
00000220: 164d 42be 5fca 01be f36f 9bbc 3f5f 0f3e
00000230: bdc3 84bd c1f6 e63c 1f3a acbd 7881 453e
00000240: b455 583e b8f9 e63c 1c6d 323e c402 b83c
00000250: e637 08bd cd84 ca3d 7846 6dbe ade1 c33d
00000260: 10e0 133e a751 85be 2a09 8a3e c703 c43c
00000270: 447c 18bd 5da0 e83d 3e5b 8d3e 52e5 243e
00000280: f07d 98bc 723b 9f3c 2b29 2a3e 3c5b c03d
00000290: bb84 0d3e a1ef 82bd bab8 eabd 712a 823e
000002a0: 1b49 1abd 6f48 ec3b 75e8 1ebc 2517 103d
000002b0: 1263 5abd 4610 6f3e 033e 94bc 7aa3 9b3d
000002c0: 505f 043d c0a4 72be 733c cfbd 70fe 673e
000002d0: f714 3c3e 3f2d 8cbe 9eb4 90be cc7c 4a3e
000002e0: d978 2a3e b834 103d 8794 913e 609f bf3d
000002f0: ef81 b7bc 4215 de3d 4c19 c23d a34c 293e
00000300: ad5d 18be 6fb2 033e 2ffe 163e 9386 e53d
00000310: ae8a 463e 2d9e 173e dc3c b93d a534 b03d
00000320: c7c4 d3bc 0423 bfbd d25c 993d 64db 473e
00000330: 13ce 71be d936 f23c abf8 8dbd d2f6 b93c
00000340: bcce 103e db66 a9bd b1ca 91ba 30b6 a13d
00000350: dc85 9fbd 8193 36be 1fdf 9fbe 13a6 ad3d
00000360: 01aa ab3e 91d0 29be dadc 993e c19b 6bbc
00000370: 4e3d 8dbe b5b4 9a3d 3ac4 983d 2d78 863e
00000380: ace9 b6be f73e 973d 8909 22bd 9da0 8e3e
00000390: 3436 a63d 60e1 b03e 29a0 d43d cc3e 473e
000003a0: 53c5 a1be befb f4bc af32 8f3e a5f5 fa3d
000003b0: b324 ffbd 79b5 3b3c fd56 64be f0b1 bf3e
000003c0: 14f7 973e de86 95be 240c bc3e e845 cf3c
000003d0: dee6 24be 316b a1bd 2a3b 0ebe f6bf 113e
000003e0: 8efb 9d3e bf42 58be 7cd4 2b3e faee aebe
000003f0: 9b9e 86be 3bb8 52be a3da ac3e 84c5 483d

lstm.bias_ih_l0 f4 [128]
0.29070905 0.260145 0.17467126 -0.01948126 0.31481245 0.04544452 0.15894482 0.20911747
0.07974871 0.18909585 0.25388348 0.07175637 0.22577152 0.12316545 0.2174971 0.27128848
0.3361682 0.19902766 0.018286565 0.16228795 0.23755984 0.16225472 0.30126002 0.14648023
0.3300817 -0.009203397 0.19110377 0.22194143 0.23682423 0.08402656 0.023915192 0.017767638
0.058247898 -0.07378592 -0.004361873 -0.08830596 -0.0004753233 0.18461718 0.043766476 -0.12262519
-0.023573082 -0.1427941 -0.122579195 -0.013171946 0.01880561 -0.0961604 -0.21458828 0.07262323
0.24502976 0.07172321 -0.10916794 0.10249934 -0.09603296 -0.03319356 -0.10736407 -0.15496509
-0.071661465 0.12726882 0.004986731 -0.20047353 0.08137538 -0.024455186 0.102252536 0.16834147
-0.062912904 0.2065974 -0.057495248 0.21982542 0.16118433 0.14259213 0.20135513 0.08973061
-0.18611525 -0.11404557 -0.06782063 0.115232036 -0.2762593 -0.0029973644 -0.06590954 0.20454822
0.32407385 -0.19756643 0.11992439 0.23557231 -0.15166117 0.040429186 -0.32893303 0.022222113
0.19610348 -0.06367533 0.09849149 -0.12428552 -0.2025913 -0.1310093 0.20591685 0.2543741
0.1717753 0.15723401 -0.06408408 0.2927606 0.19291013 0.054542046 0.13426755 0.39103124
0.1787232 0.22587289 0.09027242 0.17597315 0.15600225 0.2694122 0.20305608 -0.03941929
0.016044412 -0.0522468 0.28823683 0.14402977 0.19807047 0.06214591 0.066601574 0.0060363407
0.0576322 0.21362817 0.30778128 0.16815913 0.13127711 0.14130527 0.10171538 0.016648224
00000000: d1d7 943e ba31 853e 06dd 323e 2a97 9fbc
00000010: 192f a13e 0824 3a3d 6ec2 223e e422 563e
00000020: 4b53 a33d 58a2 413e 04fd 813e 01f5 923d
00000030: a630 673e 2b3e fc3d 8fb7 5e3e 53e6 8a3e
00000040: 3d1e ac3e e8cd 4b3e b5cd 953c d02e 263e
00000050: e342 733e 1a26 263e c13e 9a3e eafe 153e
00000060: 7800 a93e d8c9 16bc b5b0 433e 9d44 633e
00000070: 0d82 723e 1e16 ac3d cbe9 c33c 708d 913c
00000080: 5995 6e3d 131d 97bd 0bee 8ebb c1d9 b4bd
00000090: d034 f9b9 490c 3d3e 7a44 333d ea22 fbbd
000000a0: 561c c1bc 9e38 12be cd0a fbbd 25cf 57bc
000000b0: 390e 9a3c beef c4bd 08bd 5bbe 7dbb 943d
000000c0: 15e9 7a3e 9ee3 923d 7193 dfbd 2deb d13d
000000d0: eeac c4bd f8f5 07bd b2e1 dbbd 2baf 1ebe
000000e0: 3fc3 92bd c252 023e bb67 a33b ef48 4dbe
000000f0: 23a8 a63d 3e56 c8bc c769 d13d b561 2c3e
00000100: 7bd8 80bd 458e 533e 2380 6bbd ea19 613e
00000110: 810d 253e ac03 123e 0a30 4e3e afc4 b73d
00000120: ff94 3ebe b990 e9bd 8be5 8abd c6fe eb3d
00000130: dc71 8dbe 6e6f 44bb 95fb 86bd 1775 513e
00000140: 02ed a53e db4e 4abe eb9a f53d de39 713e
00000150: 114d 1bbe 1399 253d e969 a8be 260b b63c
00000160: 5acf 483e 3668 82bd e8b5 c93d 6889 febd
00000170: 1874 4fbe 4d27 06be dedb 523e 523d 823e
00000180: dde5 2f3e f401 213e 843e 83bd b8e4 953e
00000190: 3c8a 453e 7b67 5f3d 6f7d 093e 3f35 c83e
000001a0: 3703 373e 394b 673e bfe0 b83d 4e32 343e
000001b0: 0ebf 1f3e 65f0 893e efed 4f3e 1f76 21bd
000001c0: 926f 833c be00 56bd c793 933e 8a7c 133e
000001d0: fcd2 4a3e b68c 7e3d 6866 883d 7fcc c53b
000001e0: be0f 6c3d 58c1 5a3e 8295 9d3e e831 2c3e
000001f0: 826d 063e 54b2 103e 2750 d03d db61 883c

lstm.bias_hh_l0 f4 [128]
0.32289755 0.15790693 0.048271146 -0.03356205 0.03310825 0.20814914 0.14959751 0.1765981
0.29362455 0.29716945 0.16991298 0.31572348 0.06930034 0.017023927 0.18726216 0.035531837
0.2754032 0.25284088 0.09099747 0.38589492 0.2690081 -0.044413555 0.14285399 0.21125017
0.25086612 0.02995083 0.12538111 0.031578477 0.24861597 0.34363988 0.2497503 0.010819854
-0.08094935 0.14623319 -0.23776804 -0.05875521 0.0335388 0.19170582 0.13418558 -0.08058418
0.2777823 0.039385393 -0.20523404 -0.08028533 0.18331142 0.04945917 0.06940518 0.2186059
-0.005221853 0.05597581 0.12094206 -0.21880786 -0.10038855 -0.056246936 0.014458548 0.07587972
0.10575202 -0.07695559 -0.01663903 0.021227527 -0.1196627 -0.102660306 -0.066020064 0.20174575
-0.14707705 0.088052355 0.10150001 0.10292181 0.1900605 0.28614035 0.09416586 0.205157
-0.347543 0.1781794 0.20490246 0.094179325 -0.14376807 0.09055605 -0.23356368 0.2945269
0.35497546 -0.21421394 0.092464864 0.14421406 -0.1515627 0.027586335 -0.3499237 0.14709976
0.0922439 -0.020568023 0.1875976 -0.16702412 -0.20276688 0.07720285 0.23616362 0.21516305
0.28619146 0.0138058495 0.040532462 0.20168376 0.044485115 0.23997636 0.006244667 0.2621919
0.20749009 0.05165144 0.067998685 -0.0039642947 0.06545585 0.23842242 0.300406 0.13904256
0.14255454 0.25802767 0.32328606 0.1278145 0.15712455 -0.06521328 0.29612386 0.27314013
0.120955035 0.1617595 0.27405608 0.2983966 0.22438303 0.26241586 0.1981569 0.096282326
00000000: d452 a53e 5bb2 213e f7b7 453d 5c78 09bd
00000010: 849c 073d 0c25 553e 1730 193e 22d6 343e
00000020: f555 963e 9826 983e abfd 2d3e 82a6 a13e
00000030: 56ed 8d3d c375 8b3c a7c1 3f3e d589 113d
00000040: a601 8d3e 5c74 813e e25c ba3d 0594 c53e
00000050: 6ebb 893e fdea 35bd 5148 123e f751 583e
00000060: 8671 803e 715b f53c e863 003e 6f58 013d
00000070: 2f95 7e3e 91f1 af3e 8bbe 7f3e c245 313c
00000080: c6c8 a5bd 27be 153e 7779 73be 4ea9 70bd
00000090: fb5f 093d 884e 443e f267 093e 5209 a5bd
000000a0: 7b39 8e3e 9452 213d df28 52be a36c a4bd
000000b0: fdb5 3b3e b395 4a3d 4e24 8e3d 3ada 5f3e
000000c0: 141c abbb e446 653d 79b0 f73d 2b0f 60be
000000d0: 8398 cdbd 3063 66bd 8ce3 6c3c d466 9b3d
000000e0: 8494 d83d e49a 9dbd 934e 88bc 5ae5 ad3c
000000f0: b811 f5bd 913f d2bd 8735 87bd 7096 4e3e
00000100: 5e9b 16be cb54 b43d 3ddf cf3d abc8 d23d
00000110: 389f 423e fd80 923e 08da c03d ad14 523e
00000120: 28f1 b1be a974 363e f3d1 513e 17e1 c03d
00000130: f037 13be 7375 b93d 512b 6fbe 3bcc 963e
00000140: 58bf b53e e65a 5bbe 385e bd3d daac 133e
00000150: 4133 1bbe bdfc e13c 3329 b3be 52a1 163e
00000160: 5fea bc3d 457e a8bc 9619 403e 5f08 2bbe
00000170: 1fa2 4fbe 871c 9e3d e0d4 713e b453 5c3e
00000180: b087 923e ee31 623c 5e05 263d 3086 4e3e
00000190: 0636 363d 5dbc 753e 10a0 cc3b 043e 863e
000001a0: 4878 543e 7690 533d e542 8b3d eae6 81bb
000001b0: b70d 863d 0225 743e d1ce 993e 2c61 0e3e
000001c0: d1f9 113e 341c 843e c085 a53e cee1 023e
000001d0: 42e5 203e 8a8e 85bd 8c9d 973e 06d9 8b3e
000001e0: 46b7 f73d 48a4 253e 1451 8c3e 70c7 983e
000001f0: aac4 653e 5f5b 863e a4e9 4a3e ab2f c53d

lstm.weight_ih_l1 f4 [128, 32]
-0.08332319 -0.03229735 0.0012134542 0.057762224 -0.008846391 0.027069405 -0.042660393 0.1592009
0.051678523 0.08806481 0.08736789 0.23405768 -0.0032677536 -0.11111795 -0.071732804 0.21453743
0.196035 -0.3039365 0.036773656 0.12377777 -0.049055025 0.17901346 0.0061734575 0.019655334
-0.04262302 -0.069964185 -0.04833753 -0.23822562 0.16322258 -0.010648799 0.20298412 0.26794973
-0.15989028 0.27030542 0.07846558 0.10073725 0.14257817 0.19304377 0.035779584 0.15839767
-0.2661201 0.12511761 0.22014965 0.014445727 -0.068872236 0.15442298 -0.11369146 0.041285925
0.101744026 -0.31635052 0.10407303 -0.0029820562 -0.1916727 -0.13834251 -0.2042249 0.018654533
0.2370025 -0.1883187 0.037346784 -0.034866184 -0.18871821 0.14798829 0.27670145 0.15640126
-0.16722466 0.15421315 0.18525197 0.14391102 0.09704061 0.19441503 0.16626714 0.2560905
-0.28702992 0.10946215 0.09044377 0.2734819 -0.31580305 0.2680647 -0.2194825 0.13279682
0.031920675 -0.340633 0.028337816 0.30496085 -0.13396773 0.25628752 -0.20450231 0.1177794
0.075560994 -0.10251976 0.04516169 -0.26164117 0.03252484 -0.22008488 0.21343316 0.23704945
0.06764299 0.18339871 -0.22483471 0.04545822 0.14389382 0.23344208 0.12472762 0.19285366
-0.29412338 0.20545065 -0.14498794 0.06632654 -0.052843615 -0.04891177 -0.0502529 0.049008615
0.16638318 -0.2573337 0.28757888 0.0525077 -0.13426185 0.07653349 -0.04740049 -0.035536498
0.1389189 -0.036066834 0.17983052 -0.19117855 0.23908699 -0.08764334 0.2900838 -0.011903033
-0.3359673 0.25563833 0.16439559 0.32700613 0.19684294 0.056428064 0.079636715 -0.030080924
-0.08493939 -0.025851622 0.08110298 -0.013349465 -0.21541186 0.23363528 -0.29115617 0.08755923
0.056266073 -0.20306602 0.22012566 0.33990884 -0.22424476 -0.010605446 -0.24724726 0.24342601
0.24993116 -0.24984623 0.21008617 -0.22704093 0.02501318 -0.2002173 0.19555932 0.102625534
-0.20187382 0.078110486 -0.010988477 -0.1999882 0.28108025 0.0037671435 0.3059092 0.09811882
-0.16268454 -0.0021436359 -0.15419485 0.33360228 0.012589409 -0.09585531 0.12667516 0.14531563
0.18334742 -0.0068953754 0.21719836 -0.123290226 -0.024254112 0.11265706 -0.024282172 0.26339304
-0.04340823 -0.1454565 -0.20417987 -0.09689049 -0.07891661 -0.2140493 0.2548701 0.2861181
-0.23172116 0.09639678 0.01308396 0.2731457 -0.027662802 0.280592 0.24757811 -0.005870579
-0.085258715 -0.045475837 0.17498603 -0.122741014 -0.34581655 0.0058081746 -0.1765409 0.26966986
0.29634723 -0.102242336 0.3413558 0.24009642 -0.12916896 -0.16990247 -0.042714696 0.015025696
0.2476213 -0.1329151 0.1540978 0.00092315214 -0.3308082 0.20655797 0.18483931 0.037250888
-0.3145472 0.07385045 0.30954057 0.024856165 0.16322884 0.040837444 0.2504104 0.13435964
-0.12965013 0.16051945 0.1320872 0.16129024 -0.25374624 0.27919477 -0.21053684 0.2414321
0.030386664 -0.1826067 0.30176002 0.037500992 0.054564428 -0.13202383 -0.245028 0.15001273
0.23680283 -0.22528082 0.27396196 -0.31065184 -0.05276472 -0.12399279 0.105184905 -0.025042769
00000000: 59a5 aabd 3a4a 04bd c40c 9f3a 1598 6c3d
00000010: 74f0 10bc a8c0 dd3c aabc 2ebd 9005 233e
00000020: dcac 533d 535b b43d f0ed b23d d1ac 6f3e
00000030: cf27 56bb cf91 e3bd a6e8 92bd b3af 5b3e
00000040: 66bd 483e 919d 9bbe f99f 163d 337f fd3d
00000050: eced 48bd 4e4f 373e b74a ca3b 3904 a13c
00000060: 7a95 2ebd 6249 8fbd 93fd 45bd 6bf1 73be
00000070: d223 273e 4d78 2ebc 12db 4f3e b530 893e
00000080: 47ba 23be 7965 8a3e 90b2 a03d 554f ce3d
00000090: 0300 123e 44ad 453e 9d8d 123d 0033 223e
000000a0: e540 88be d51e 003e e96e 613e c5ad 6c3c
000000b0: e30c 8dbd 0f21 1e3e 11d7 e8bd 6e1b 293d
000000c0: 2c5f d03d b2f8 a1be 3e24 d53d 9a6e 43bb
000000d0: d945 44be a9a9 0dbe 5520 51be 64d1 983c
000000e0: c9b0 723e 9ed6 40be f1f8 183d d8cf 0ebd
000000f0: 593f 41be 3e8a 173e d0ab 8d3e a727 203e
00000100: f13c 2bbe 0dea 1d3e b1b2 3d3e 695d 133e
00000110: 3abd c63d bc14 473e ef41 2a3e 4b1e 833e
00000120: 96f5 92be b12d e03d 953a b93d d205 8c3e
00000130: f0b0 a1be c73f 893e 05c0 60be e4fb 073e
00000140: 41bf 023d 7367 aebe b524 e83c d423 9c3e
00000150: d62e 09be 1e38 833e 0e69 51be 5336 f13d
00000160: b9bf 9a3d e1f5 d1bd 77fb 383d d5f5 85be
00000170: c438 053d ee5d 61be 398e 5a3e 17bd 723e
00000180: 6888 8a3d dfcc 3b3e 123b 66be 6632 3a3d
00000190: e758 133e 710b 6f3e 3271 ff3d 6e7b 453e
000001a0: 5797 96be a861 523e b877 14be 36d6 873d
000001b0: 8c72 58bd b557 48bd fcd5 4dbd 42bd 483d
000001c0: 5a60 2a3e 3ec1 83be 8a3d 933e 5012 573d
000001d0: f07b 09be 97bd 9c3d 0427 42bd b88e 11bd
000001e0: c240 0e3e d1ba 13bd 7e25 383e 4fc4 43be
000001f0: 38d3 743e 5a7e b3bd dd85 943e f004 43bc
00000200: e803 acbe 07e3 823e 5157 283e 596d a73e
00000210: 3291 493e 1d21 673d 9318 a33d 456c f6bc
00000220: b4f4 adbd c8c6 d3bc 5219 a63d b7b7 5abc
00000230: ed94 5cbe 163e 6f3e 6c12 95be 4152 b33d
00000240: 4177 663d 8af0 4fbe 9f68 613e 8808 ae3e
00000250: 6ba0 65be 77c2 2dbc 632e 7dbe ab44 793e
00000260: f4ed 7f3e b1d7 7fbe d420 573e 6b7d 68be
00000270: 71e8 cc3c c405 4dbe b440 483e 562d d23d
00000280: 03b8 4ebe 64f8 9f3d 0309 34bc b5c9 4cbe
00000290: c0e9 8f3e 2ee2 763b 21a0 9c3e 85f2 c83d
000002a0: c796 26be 3e7c 0cbb 41e5 1dbe ebcd aa3e
000002b0: cf43 4e3c ca4f c4bd 22b7 013e 9fcd 143e
000002c0: 6dbf 3b3e 9af2 e1bb 3f69 5e3e 967f fcbd
000002d0: 8fb0 c6bc bfb8 e63d 68eb c6bc 74db 863e
000002e0: d4cc 31bd 8cf2 14be 8714 51be 856e c6bd
000002f0: 089f a1bd bd2f 5bbe 557e 823e 127e 923e
00000300: 5048 6dbe ad6b c53d 1b5e 563c c1d9 8b3e
00000310: 1a9d e2bc c1a9 8f3e 1e85 7d3e fc5d c0bb
00000320: 1f9c aebd df44 3abd 8a2f 333e a45f fbbd
00000330: de0e b1be 8052 be3b 23c7 34be 2b12 8a3e
00000340: d3ba 973e 6e64 d1bd 30c6 ae3e d6db 753e
00000350: de44 04be eafa 2dbe 9bf5 2ebd 562e 763c
00000360: 7090 7d3e e51a 08be d0cb 1d3e b1ff 713a
00000370: b15f a9be ef83 533e 8446 3d3e 6394 183d
00000380: 550c a1be e83e 973d 1a7c 9e3e 289f cb3c
00000390: 7625 273e 2a45 273d cb35 803e 9395 093e
000003a0: 01c3 04be 365f 243e de41 073e 4529 253e
000003b0: 07eb 81be 9ef2 8e3e f896 57be fa39 773e
000003c0: 74ed f83c 40fd 3abe 4a80 9a3e a49a 193d
000003d0: f37e 5f3d 4131 07be 9fe8 7abe f09c 193e
000003e0: 717c 723e 04b0 66be be44 8c3e c20d 9fbe
000003f0: d21f 58bd efef fdbd 2f6b d73d 7e26 cdbc

lstm.weight_hh_l1 f4 [128, 32]
-0.073562376 -0.05364297 0.08254896 0.18143706 0.12755862 0.02720274 0.08454117 -0.13128217
-0.15178438 -0.03096197 0.09228339 0.12122599 0.19316109 -0.020105056 0.08640962 -0.18257208
0.090659596 0.011242573 0.14946157 0.09273899 -0.0011938384 -0.034976587 -0.24212193 0.13749593
0.067632854 0.082081735 0.15273023 -0.1771267 0.04134981 -0.16429143 -0.11553426 -0.06418642
0.039337162 0.010060954 0.09606948 0.13160616 -0.056035426 0.16316164 -0.039285075 -0.10280564
-0.26017162 0.011308642 0.22680242 0.2883663 -0.061926883 0.006811398 0.017134564 -0.022243533
0.16460855 0.115951024 -0.02030154 0.19578652 0.07170127 0.07939051 -0.012050854 0.05044573
-0.06405322 0.29362646 0.1901329 0.033981793 -0.20155674 -0.13327965 -0.1626384 0.050693545
0.2558765 -0.04844821 -0.022705069 0.17772816 0.12631108 0.15274489 -0.17286202 -0.114647985
-0.07049229 -0.28253198 0.20225455 0.2703483 0.14598458 0.24372332 -0.11221594 0.06664014
0.29806194 -0.0018446711 0.2842508 0.22213003 -0.011197192 0.13409151 -0.03095121 0.21784467
-0.11497755 0.025121003 0.15765934 -0.18788591 0.043639302 -0.16549774 -0.016360313 0.10089948
0.20520331 -0.14788716 0.034294643 -0.11008399 0.13163126 0.18048345 0.03148916 0.04596809
0.095468774 -0.21831259 0.02760311 0.1030768 0.03833506 0.18881334 0.07856583 0.17944199
0.033576433 -0.08128577 -0.02315295 0.08484096 0.06273325 0.14617689 -0.2075356 -0.025378352
0.062803715 0.23005165 0.06537772 0.053624798 0.009363045 -0.20127487 -0.17546554 0.057178903
-0.027099552 -0.11058611 0.23512074 0.27586323 -0.102739386 0.24888222 0.07525951 0.13078395
-0.27284315 0.045533985 -0.020891165 0.19159208 -0.11508166 0.23745032 0.07894836 -0.23577996
0.18301874 0.10573115 0.14957085 0.11686014 0.09092777 -0.049685515 -0.28242964 0.055713277
-0.12007943 0.23739931 0.08100352 -0.122372866 -0.0057343636 -0.106848195 0.054503474 -0.016507039
0.19997667 -0.13752185 -0.025311755 0.123060465 0.2273118 0.11878004 -0.27010447 -0.2366609
-0.03413864 0.04476464 0.13657625 0.08357255 0.19314149 -0.007282386 -0.020561345 -0.08983924
0.0315741 0.289238 0.13027672 0.093717 0.15672132 -0.007162543 -0.20352295 0.025332868
0.083960004 0.13386342 0.14286445 -0.20457424 0.009470138 0.03183331 -0.04048745 0.12637761
0.3174738 -0.086761095 0.08714353 0.06861531 0.22385724 0.076630205 -0.13621387 0.0059848432
-0.1576913 -0.044793252 0.1662279 0.3146674 -0.04804888 0.16370884 -0.11561225 -0.015591715
0.3041437 0.26259083 0.17326368 0.24836628 0.2686211 0.034965605 -0.2206541 0.23841976
-0.11253476 0.20649691 0.25367454 -0.11433859 0.0035730302 -0.25658336 -0.07962107 0.108877085
0.30594465 -0.08234567 0.13066195 0.24879009 -0.07286339 0.18705942 -0.046479844 0.10365369
-0.14908691 -0.053823616 0.23378524 0.051504232 0.047405466 0.03396621 0.15979293 0.02315742
0.0076622968 0.12146379 0.10719035 0.19751719 0.19007562 0.053731974 -0.1808743 0.2567791
-0.20424709 0.107522845 -0.07468396 0.07652877 0.013219563 0.0045971503 -0.08549196 0.0055553783
00000000: dfa7 96bd bbb8 5bbd 6e0f a93d a3ca 393e
00000010: ba9e 023e 48d8 de3c ec23 ad3d d56e 06be
00000020: 5d6d 1bbe f5a3 fdbc 13ff bc3d 5545 f83d
00000030: 05cc 453e 5cb3 a4bc 87f7 b03d 2df4 3abe
00000040: bdab b93d c532 383c 740c 193e f1ed bd3d
00000050: 927a 9cba 9c43 0fbd d0ee 77be bccb 0c3e
00000060: 1883 8a3d 781a a83d 5065 1c3e b460 35be
00000070: 6b5e 293d 033c 28be 3a9d ecbd 2b74 83bd
00000080: 0120 213d b3d6 243c 13c0 c43d c4c3 063e
00000090: 6785 65bd d813 273e 63e9 20bd c38b d2bd
000000a0: 3735 85be e247 393c e53e 683e bfa4 933e
000000b0: 0ba7 7dbd 2632 df3b c95d 8c3c 1238 b6bc
000000c0: 258f 283e bb77 ed3d 6a4f a6bc 437c 483e
000000d0: 1ed8 923d 7e97 a23d f270 45bc 2fa0 4e3d
000000e0: 562e 83bd 3556 963e 33b2 423e 7e30 0b3d
000000f0: e464 4ebe 767a 08be ae8a 26be 09a4 4f3d
00000100: 3f02 833e a171 46bd fbff b9bc 5ffe 353e
00000110: b157 013e 2869 1c3e be02 31be 90cc eabd
00000120: 435e 90bd 08a8 90be d11b 4f3e 186b 8a3e
00000130: fb7c 153e 9b92 793e 79d1 e5bd a07a 883d
00000140: 939b 983e e4c8 f1ba 5289 913e 0e76 633e
00000150: 6d74 37bc 494f 093e 648d fdbc ac12 5f3e
00000160: 5a79 ebbd 90ca cd3c 7371 213e 2a65 40be
00000170: 20bf 323d 3d78 29be 1006 86bc 63a4 ce3d
00000180: d120 523e bb6f 17be 8a78 0c3d b773 e1bd
00000190: 58ca 063e a7d0 383e c7fa 003d 0949 3c3d
000001a0: 2285 c33d 568d 5fbe eb1f e23c ee19 d33d
000001b0: 3905 1d3d 4958 413e 1fe7 a03d a4bf 373e
000001c0: 7187 093d 2779 a6bd 41ab bdbc 19c1 ad3d
000001d0: 4a7a 803d 65af 153e 3684 54be 43e6 cfbc
000001e0: 3c9f 803d a992 6b3e c1e4 853d ada5 5b3d
000001f0: 7567 193c 001b 4ebe 3dad 33be 6d34 6a3d
00000200: e1ff ddbc f87a e2bd 7ec3 703e f23d 8d3e
00000210: 0769 d2bd fbda 7e3e a821 9a3d 3aec 053e
00000220: 19b2 8bbe d881 3a3d f323 abbc b730 443e
00000230: efaf ebbd 2d26 733e aeaf a13d 4d70 71be
00000240: 4469 3b3e 9389 d83d 1a29 193e 5e54 ef3d
00000250: 5738 ba3d 0a83 4bbd 9e9a 90be 9b33 643d
00000260: 34ec f5bd ce18 733e 2ce5 a53d a09e fabd
00000270: 54e7 bbbb 3ad3 dabd 093f 5f3d c539 87bc
00000280: afc6 4c3e 87d2 0cbe 995a cfbc 2007 fc3d
00000290: 6dc4 683e f342 f33d 224b 8abe 3c57 72be
000002a0: f5d4 0bbd 215b 373d a5da 0b3e 1628 ab3d
000002b0: e2c6 453e 15a1 eebb 4470 a8bc a3fd b7bd
000002c0: d853 013d 0117 943e 4367 053e b3ee bf3d
000002d0: 8e7b 203e c4b3 eabb 5268 50be e086 cf3c
000002e0: 39f3 ab3d 7e13 093e 0f4b 123e e97b 51be
000002f0: a328 1b3c a563 023d 2bd6 25bd 2269 013e
00000300: ed8b a23e cdaf b1bd 4f78 b23d 2f86 8c3d
00000310: d53a 653e 4cf0 9c3d a67b 0bbe 811c c43b
00000320: d479 21be 2179 37bd a637 2a3e 161c a13e
00000330: e7ce 44bd 4aa3 273e 1ec6 ecbd 6574 7fbc
00000340: b9b8 9b3e 4e72 863e 096c 313e bb53 7e3e
00000350: b488 893e 1838 0f3d 26f3 61be 4f24 743e
00000360: a078 e6bd ed73 533e a1e1 813e 5a2a eabd
00000370: 8029 6a3b e55e 83be 5f10 a3bd f3fa de3d
00000380: c7a4 9c3e d9a4 a8bd 3fcc 053e d4c2 7e3e
00000390: 6739 95bd 818c 3f3e a661 3ebd 6348 d43d
000003a0: 3daa 18be 2776 5cbd 6665 6f3e 1af6 523d
000003b0: 3c2c 423d 2720 0b3d c2a0 233e a1b4 bd3c
000003c0: 0114 fb3b 02c2 f83d 9d86 db3d f241 4a3e
000003d0: 2fa3 423e 0f16 5c3d 1d37 39be 8d78 833e
000003e0: 2626 51be f034 dc3d e7f3 98bd 1ebb 9c3d
000003f0: de96 583c b1a3 963b 6916 afbd e409 b63b

lstm.bias_ih_l1 f4 [128]
0.24676901 0.3239787 0.36101583 0.12160483 0.1623812 0.1822036 0.048060548 0.29067844
0.076163605 0.24381714 0.114183694 0.31804422 0.12119925 0.1300452 -0.011584557 0.32406563
0.23040634 0.16887717 0.26588818 0.17838208 0.30733603 0.3941543 0.1742667 0.20118871
0.15783079 0.0732777 0.17483766 0.29684564 0.037923887 0.10747528 0.042463202 0.2836659
0.1429722 0.14790048 -0.1310443 -0.008279783 -0.06330637 -0.100293174 -0.10372237 0.07520405
0.1094622 -0.19744363 -0.15199858 -0.14478458 -0.20005773 0.21097657 -0.23114105 -0.048199322
-0.07186117 -0.005991915 -0.0153626455 0.11015257 -0.024863532 -0.023735058 -0.089386374 0.055626303
-0.18935622 0.13892409 0.056697212 -0.031209946 -0.22278428 0.08165946 0.06164505 0.06742733
0.10957812 -0.16948569 -0.05523001 0.116929345 0.0064420924 0.23498696 -0.19823201 -0.14297211
-0.17682412 0.015888665 0.17495678 0.011923545 -0.13960898 0.14251013 -0.030945154 -0.13702935
0.002373593 0.14404911 0.068008356 -0.07797786 0.16416399 0.034012537 -0.08778306 -0.0031458014
-0.14920451 0.16716003 -0.015281705 0.056591503 -0.122617096 -0.13463251 -0.23049906 -0.06372876
0.04120092 0.095708355 0.13042754 0.036106274 0.08817756 -0.04230812 0.3341796 0.2547756
0.034726426 0.0771522 -0.0017239929 0.04310882 0.3437345 0.06587606 0.016661003 0.16385804
0.2069141 0.094892174 0.33225128 0.14236483 0.0584918 0.32430992 0.11210326 0.06981083
0.30186793 0.31618333 0.22541112 0.20460103 0.24901943 0.042745132 0.12004477 0.27669165
00000000: 04b1 7c3e 89e0 a53e 11d7 b83e f40b f93d
00000010: 4247 263e 9593 3a3e 23db 443d ced3 943e
00000020: aafb 9b3d 33ab 793e 24d9 e93d b1d6 a23e
00000030: 5037 f83d 922a 053e 27cd 3dbc eeeb a53e
00000040: a4ef 6b3e 23ee 2c3e 7f22 883e cba9 363e
00000050: 265b 9d3e 98ce c93e f872 323e 6a04 4e3e
00000060: 659e 213e 9e12 963d a508 333e 27fc 973e
00000070: 1456 1b3d 001c dc3d e5ed 2d3d a83c 913e
00000080: 4e67 123e 3973 173e 7a30 06be eda7 07bc
00000090: c5a6 81bd 8266 cdbd 656c d4bd 9504 9a3d
000000a0: b82d e03d aa2e 4abe 84a5 1bbe 6942 14be
000000b0: efdb 4cbe 3e0a 583e 3db0 6cbe a76c 45bd
000000c0: f32b 93bd d357 c4bb 9bb3 7bbc ac97 e13d
000000d0: 9bae cbbc 0670 c2bc 3410 b7bd 68d8 633d
000000e0: 99e6 41be 1e42 0e3e 563b 683d 00ac ffbc
000000f0: 9021 64be 133d a73d 857f 7c3d 5717 8a3d
00000100: 7e6a e03d a88d 2dbe dd38 62bd a778 ef3d
00000110: 3018 d33b 6ca0 703e 55fd 4abe 4867 12be
00000120: 6211 35be f228 823c df27 333e f95a 433c
00000130: a8f5 0ebe 2dee 113e b180 fdbc 6c51 0cbe
00000140: 488e 1b3b 9c81 133e f747 8b3d dbb2 9fbd
00000150: 9b1a 283e bb50 0b3d 9bc7 b3bd ca29 4ebb
00000160: 11c9 18be 002c 2b3e 1e60 7abc 7ecc 673d
00000170: ac1e fbbd 1bdd 09be f207 6cbe 3984 82bd
00000180: 4cc2 283d be02 c43d cc8e 053e 2ce4 133d
00000190: 7096 b43d 474b 2dbd 9719 ab3e f371 823e
000001a0: 4c3d 0e3d f901 9e3d 9af7 e1ba e092 303d
000001b0: f8fd af3e 07ea 863d a87c 883c 67ca 273e
000001c0: 4ae1 533e d456 c23d d71c aa3e 16c8 113e
000001d0: 1995 6f3d f30b a63e 6596 e53d fbf8 8e3d
000001e0: 6f8e 9a3e c8e2 a13e 2cd2 663e ef82 513e
000001f0: f3fe 7e3e 8515 2f3d 08da f53d 87aa 8d3e

lstm.bias_hh_l1 f4 [128]
-0.061153054 0.089598514 0.13219805 0.05690623 0.09117305 0.16437244 0.1278497 0.21795164
0.22661132 0.024962636 0.10184275 -0.026237316 0.19651414 0.028573453 0.1687463 0.27491784
-1.7710172e-05 0.31404924 0.14929292 0.18861212 0.015273371 0.28758302 0.09005331 0.23678736
0.07954652 0.0733718 0.038547914 0.17647932 0.13910307 0.19096507 0.28588942 0.14717175
0.13229766 0.0064850105 -0.11008247 -0.06477254 0.07050562 0.08422984 0.06957376 -0.077897474
0.14641042 -0.03442172 0.07478072 0.028106583 -0.04417277 -0.07443651 -0.14912434 0.0029697916
0.11192229 0.017973293 0.018739177 -0.08089899 -0.18334907 -0.019523703 0.1400798 0.14287758
0.04993224 -0.09812497 -0.11789677 -0.18807179 -0.17392854 -0.12361862 -0.04939535 0.020181032
0.16330372 -0.15007539 0.12169826 0.069026 0.030097289 0.058177225 0.11664085 0.036065277
-0.20206206 -0.14375634 0.07249112 0.14496337 0.08050641 0.22082195 0.17182606 -0.05821018
0.19741139 0.11061513 -0.045874737 0.18711868 0.106990784 0.16172671 -0.17551781 0.099356525
0.1442543 -0.00385845 0.03317397 -0.02480823 -0.11945162 -0.17648791 -0.072850615 0.055315986
0.22952351 0.07544468 0.044952128 0.05275245 0.33408302 0.21483184 0.19219129 0.079620086
0.061480187 0.28204906 -0.0580797 0.052062817 0.19445565 -0.0027525506 0.07116311 0.30508646
-0.07281267 0.20630085 0.16358289 0.11245517 0.03218536 0.11766906 0.12475604 0.067756094
0.29808164 0.23593138 0.20724179 0.20938562 0.060751382 -0.06401908 0.17124206 0.17125256
00000000: a07b 7abd 6d7f b73d ed5e 073e 8216 693d
00000010: f0b8 ba3d 4051 283e 08eb 023e b72e 5f3e
00000020: cc0c 683e 717e cc3c ef92 d03d a4ef d6bc
00000030: 013b 493e e012 ea3c d4cb 2c3e 08c2 8c3e
00000040: 4e90 94b7 10cb a03e 3ee0 183e 8923 413e
00000050: 293d 7a3c 153e 933e df6d b83d 6378 723e
00000060: 49e9 a23d f443 963d 6be4 1d3d ffb6 343e
00000070: 0971 0e3e 598c 433e 1960 923e 31b4 163e
00000080: 0a79 073e 3680 d43b eb72 e1bd 77a7 84bd
00000090: 4065 903d b280 ac3d b07c 8e3d b688 9fbd
000000a0: 9dec 153e cafd 0cbd a226 993d c73f e63c
000000b0: 82ee 34bd 2b72 98bd 0db4 18be d6a0 423b
000000c0: 8337 e53d ba3c 933c e782 993c 5fae a5bd
000000d0: dcbf 3bbe 2cf0 9fbc 1471 0f3e 804e 123e
000000e0: c085 4c3d bff5 c8bd dd73 f1bd e495 40be
000000f0: 531a 32be c22b fdbd c752 4abd b152 a53c
00000100: 1739 273e 5dad 19be f03c f93d 815d 8d3d
00000110: 978e f63c 3e4b 6e3d 66e1 ee3d 2fb9 133d
00000120: 5be9 4ebe dd34 13be 3976 943d 4771 143e
00000130: 8be0 a43d 261f 623e 2cf3 2f3e cc6d 6ebd
00000140: 3626 4a3e 2f8a e23d 26e7 3bbd 0a9c 3f3e
00000150: fc1d db3d b09b 253e f1ba 33be 6f7b cb3d
00000160: 66b7 133e 0dde 7cbb 6ee1 073d a13a cbbc
00000170: 0da3 f4bd 3fb9 34be b432 95bd 0493 623d
00000180: 3608 6b3e be82 9a3d b91f 383d f412 583d
00000190: ee0c ab3e e1fc 5b3e cbcd 443e db0f a33d
000001a0: a6d2 7b3d bc68 903e fbe4 6dbd d23f 553d
000001b0: 621f 473e 2364 34bb f7bd 913d 4b34 9c3e
000001c0: cf1e 95bd 8840 533e 4682 273e e54e e63d
000001d0: ccd4 033d 7afc f03d 1880 ff3d b5c3 8a3d
000001e0: 289e 983e ff97 713e 3137 543e 2f69 563e
000001f0: 71d6 783d 6f1c 83bd 145a 2f3e d55c 2f3e

mlp.weight f4 [21, 32]
-0.1286776 0.08506863 0.3145295 0.05615083 0.13641761 -0.049042635 -0.3391778 0.03585667
0.07137936 -0.06610691 -0.1584873 0.009386855 -0.15141062 -0.20123917 -0.03080238 0.3382933
0.19920017 0.09444109 0.21524516 -0.11927804 -0.06841096 -0.40209076 -0.21528411 -0.13896695
0.17350541 -0.12041016 0.113275565 0.19128111 -0.22447005 -0.17440741 0.039998114 0.22612572
0.24169971 -0.0011574579 0.2881587 0.046397157 -0.216158 0.043912265 -0.069406666 0.086250536
-0.20002402 0.24074367 -0.06369979 -0.021548806 -0.16569103 0.067070104 -0.22714269 -0.20177835
0.23157483 -0.20656094 0.048012353 -0.15347095 0.17330502 0.10140396 -0.1523599 -0.022927918
-0.10009486 -0.15373918 -0.043623075 0.16926625 0.26987576 -0.17553538 -0.0053663747 -0.2508911
0.21820652 0.27619326 0.17580737 -0.118188724 -0.028299352 0.03593537 0.16253267 0.053937476
-0.15794316 0.22401676 0.19537057 0.1415439 -0.29650798 0.027590835 -0.16122231 -0.18270758
0.2140237 -0.049138367 -0.21409039 -0.19594157 0.02072934 -0.036052287 0.054050766 -0.042425074
-0.030224219 -0.078592785 -0.0041347407 -0.01868064 0.18848197 -0.14847346 0.111891635 -0.28315642
-0.03858644 -0.04179996 0.040140178 -0.0042244475 -0.027299447 0.05631729 0.09005198 0.23822275
0.13459241 -0.090687275 0.16648522 0.1322375 -0.05609428 0.029981755 -0.3244451 -0.18075015
0.2173085 0.13171127 -0.26453453 -0.23764259 0.063820265 0.11316347 -0.20953186 0.10659368
-0.31106672 -0.23484403 0.013664119 0.07948913 0.27272496 -0.10689859 0.102511235 -0.054769013
-0.016809758 -0.29621288 -0.16863923 0.123946026 0.32078555 -0.10413667 -0.112413414 -0.097443074
-0.020949582 -0.17200196 -0.015063239 -0.003077112 -0.06797433 0.004264969 0.01084216 -0.18991303
-0.103238165 0.2880224 0.043269474 0.20807888 -0.06544957 0.18929571 0.08396027 -0.076633714
-0.299959 -0.12494562 -0.1356497 0.09963114 0.025678977 -0.060323514 0.0063406774 -0.002115594
-0.029372804 0.19385786 0.15371175 0.15802115 -0.20002842 0.17209716 -0.048025813 0.18651438
-0.055424612 0.31851655 -0.0014866046 -0.0031805222 -0.2617267 0.0012944214 -0.1228905 -0.2328991
0.14285071 -0.1526077 -0.04351409 -0.009374708 0.20192033 -0.04896965 -0.19386601 -0.04495291
-0.1918678 -0.28155565 -0.10221375 0.1395347 -0.015822567 -0.24809563 -0.13270317 -0.19897659
0.1933479 -0.02341271 0.21269357 0.15279964 -0.19943403 0.10000121 0.14238746 0.1431186
0.0635896 -0.11738956 0.17711024 -0.060217597 -0.14783959 -0.14307508 -0.28153405 -0.24601895
0.15095942 0.2791921 -0.1296086 0.019228354 0.084837034 0.14502753 -0.2434811 0.18491451
-0.11698147 -0.2283397 -0.23871624 0.27839187 0.06861875 0.008749072 0.11345797 -0.032335233
0.029915797 0.1264543 0.21399839 0.185139 -0.19719349 0.05814452 -0.022553101 0.16209131
0.048944496 0.35658604 0.05115216 0.17729165 0.11973659 0.13917176 -0.1945787 0.015054112
-0.12772769 -0.37747124 0.06364482 -0.33572608 0.0014440977 -0.14872818 -0.084947355 0.2128301
0.15608144 0.0009810453 -0.17502691 0.1355738 -0.10520228 -0.20605536 0.104803294 -0.20671888
00000000: 10c4 03be 7638 ae3d 030a a13e 6afe 653d
00000010: 0fb1 0b3e eee0 48bd b6a8 adbe 72de 123d
00000020: 582f 923d 0f63 87bd 7f4a 22be 53cb 193c
00000030: 630b 1bbe a411 4ebe 4655 fcbc c834 ad3e
00000040: 21fb 4b3e 556a c13d 3a69 5c3e 0c48 f4bd
00000050: 0c1b 8cbd d7de cdbe 7073 5cbe 5a4d 0ebe
00000060: 67ab 313e 9a99 f6bd 05fd e73d 32df 433e
00000070: 7adb 65be db97 32be 10d5 233d 808d 673e
00000080: 2180 773e d8b5 97ba 8a89 933e f20a 3e3d
00000090: 8658 5dbe 59dd 333d 1525 8ebd 1fa4 b03d
000000a0: 19d3 4cbe 8285 763e 0975 82bd 1f87 b0bc
000000b0: e9aa 29be 0d5c 893d 1898 68be fc9e 4ebe
000000c0: f421 6d3e b684 53be 9aa8 443d 7d27 1dbe
000000d0: df76 313e e1ac cf3d 3c04 1cbe 54d3 bbbc
000000e0: 89fe ccbd ce6d 1dbe 1cae 32bd 2254 2d3e
000000f0: 282d 8a3e 8cbf 33be 6ad8 afbb cc74 80be
00000100: 8871 5f3e 3469 8d3e d906 343e ee0c f2bd
00000110: 0bd4 e7bc f730 133d f76e 263e 8bed 5c3d
00000120: dabb 21be a664 653e 390f 483e e2f0 103e
00000130: e5cf 97be 2d06 e23c 7617 25be b217 3bbe
00000140: 0729 5b3e 5045 49bd 833a 5bbe e8a4 48be
00000150: 94d0 a93c 90ab 13bd 5664 5d3d eac5 2dbd
00000160: c898 f7bc 41f5 a0bd b87c 87bb 2408 99bc
00000170: 6b01 413e 6d09 18be 7127 e53d e1f9 90be
00000180: d10c 1ebd 6f36 2bbd 076a 243d 3c6d 8abb
00000190: 17a3 dfbc f5ac 663d 2c6d b83d aaf0 733e
000001a0: 98d2 093e 40ba b9bd 1a7b 2a3e 4469 073e
000001b0: 1ec3 65bd 4c9c f53c ab1d a6be 9116 39be
000001c0: 1f86 5e3e 52df 063e 1271 87be 9458 73be
000001d0: 33b4 823d 40c2 e73d 858f 56be ca4d da3d
000001e0: 2344 9fbe f47a 70be 78df 5f3c 32cb a23d
000001f0: 9ba2 8b3e a6ed dabd 69f1 d13d 7955 60bd
00000200: 9eb4 89bc 37a9 97be c3af 2cbe 6ad7 fd3d
00000210: 013e a43e 9b45 d5bd 0139 e6bd 3c90 c7bd
00000220: 759e abbc 4821 30be cecb 76bc 5fa9 49bb
00000230: 2036 8bbd 27c1 8b3b 51a3 313c 9078 42be
00000240: 886e d3bd ac77 933e 553b 313d a112 553e
00000250: 6d0a 86bd bcd6 413e 5df3 ab3d 23f2 9cbd
00000260: 3a94 99be 7de3 ffbd c1e7 0abe 690b cc3d
00000270: b85c d23c ca15 77bd 75c5 cf3b c7a5 0abb
00000280: 3c9f f0bc ad82 463e 9d66 1d3e 4cd0 213e
00000290: 40d4 4cbe 3d3a 303e b7b6 44bd a0fd 3e3e
000002a0: eb04 63bd 9a14 a33e 2cda c2ba 4f70 50bb
000002b0: 0b01 86be 93a9 a93a 04ae fbbd 1a7d 6ebe
000002c0: 7547 123e 3145 1cbe d53b 32bd 6098 19bc
000002d0: 34c4 4e3e 6694 48bd d084 46be 8b20 38bd
000002e0: fe78 44be 1028 90be 7155 d1bd 2fe2 0e3e
000002f0: 549e 81bc c80c 7ebe 57e3 07be 85c0 4bbe
00000300: fefc 453e 03cc bfbc 58cc 593e 8277 1c3e
00000310: 6f38 4cbe 6fcd cc3d 05ce 113e af8d 123e
00000320: 443b 823d f069 f0bd 635c 353e baa6 76bd
00000330: 4363 17be 4682 12be 3b25 90be 64ec 7bbe
00000340: 1b95 1a3e 44f2 8e3e 1eb8 04be c884 9d3c
00000350: 0abf ad3d 1982 143e 1c53 79be 3b5a 3d3e
00000360: fb93 efbd e2d1 69be 0872 74be 6189 8e3e
00000370: fd87 8c3d 4558 0f3c a75c e83d f371 04bd
00000380: f911 f53c 3c7d 013e 6522 5b3e 1495 3d3e
00000390: 17ed 49be f328 6e3d 48c1 b8bc 44fb 253e
000003a0: 067a 483d 7292 b63e ed84 513d f18b 353e
000003b0: 7538 f53d 0b83 0e3e a43f 47be 86a5 763c
000003c0: 0ccb 02be e943 c1be 3758 823d 4ae4 abbe
000003d0: e147 bd3a 334c 18be e1f8 adbd 22f0 593e
000003e0: d0d3 1f3e 6b96 803a 413a 33be dcd3 0a3e
000003f0: 4b74 d7bd 2d00 53be 1ca3 d63d 1dae 53be

mlp.bias f4 [21]
0.12064928 -0.1521768 0.030915959 -0.137922 -0.16542323 -0.06735544 -0.13488635 0.15310912
-0.059963834 -0.041462235 -0.026906965 -0.093918785 0.060025334 -0.030470522 0.029356997 -0.16053134
0.15927161 0.10566151 0.044267863 0.05004678 0.044487964
00000000: f816 f73d 3cd4 1bbe 7743 fd3c 6d3b 0dbe
00000010: b564 29be a6f1 89bd a61f 0abe a3c8 1c3e
00000020: a39c 75bd 4ed4 29bd ff6b dcbc 7e58 c0bd
00000030: 20dd 753d 519d f9bc 167e f03c 5462 24be
00000040: 1918 233e 1065 d83d 3852 353d dafd 4c3d
00000050: 0339 363d
